libdc1394 error: Failed to initialize libdc1394
WARNING: Logging before InitGoogleLogging() is written to STDERR
I0816 22:47:45.285140     7 net.cpp:42] Initializing net from parameters: 
name: "GoogleNet"
input: "data"
input_dim: 10
input_dim: 3
input_dim: 224
input_dim: 224
force_backward: true
state {
  phase: TEST
}
layer {
  name: "conv1/7x7_s2"
  type: "Convolution"
  bottom: "data"
  top: "conv1/7x7_s2"
  param {
    lr_mult: 1
    decay_mult: 1
  }
  param {
    lr_mult: 2
    decay_mult: 0
  }
  convolution_param {
    num_output: 64
    pad: 3
    kernel_size: 7
    stride: 2
    weight_filler {
      type: "xavier"
      std: 0.1
    }
    bias_filler {
      type: "constant"
      value: 0.2
    }
  }
}
layer {
  name: "conv1/relu_7x7"
  type: "ReLU"
  bottom: "conv1/7x7_s2"
  top: "conv1/7x7_s2"
}
layer {
  name: "pool1/3x3_s2"
  type: "Pooling"
  bottom: "conv1/7x7_s2"
  top: "pool1/3x3_s2"
  pooling_param {
    pool: MAX
    kernel_size: 3
    stride: 2
  }
}
layer {
  name: "pool1/norm1"
  type: "LRN"
  bottom: "pool1/3x3_s2"
  top: "pool1/norm1"
  lrn_param {
    local_size: 5
    alpha: 0.0001
    beta: 0.75
  }
}
layer {
  name: "conv2/3x3_reduce"
  type: "Convolution"
  bottom: "pool1/norm1"
  top: "conv2/3x3_reduce"
  param {
    lr_mult: 1
    decay_mult: 1
  }
  param {
    lr_mult: 2
    decay_mult: 0
  }
  convolution_param {
    num_output: 64
    kernel_size: 1
    weight_filler {
      type: "xavier"
      std: 0.1
    }
    bias_filler {
      type: "constant"
      value: 0.2
    }
  }
}
layer {
  name: "conv2/relu_3x3_reduce"
  type: "ReLU"
  bottom: "conv2/3x3_reduce"
  top: "conv2/3x3_reduce"
}
layer {
  name: "conv2/3x3"
  type: "Convolution"
  bottom: "conv2/3x3_reduce"
  top: "conv2/3x3"
  param {
    lr_mult: 1
    decay_mult: 1
  }
  param {
    lr_mult: 2
    decay_mult: 0
  }
  convolution_param {
    num_output: 192
    pad: 1
    kernel_size: 3
    weight_filler {
      type: "xavier"
      std: 0.03
    }
    bias_filler {
      type: "constant"
      value: 0.2
    }
  }
}
layer {
  name: "conv2/relu_3x3"
  type: "ReLU"
  bottom: "conv2/3x3"
  top: "conv2/3x3"
}
layer {
  name: "conv2/norm2"
  type: "LRN"
  bottom: "conv2/3x3"
  top: "conv2/norm2"
  lrn_param {
    local_size: 5
    alpha: 0.0001
    beta: 0.75
  }
}
layer {
  name: "pool2/3x3_s2"
  type: "Pooling"
  bottom: "conv2/norm2"
  top: "pool2/3x3_s2"
  pooling_param {
    pool: MAX
    kernel_size: 3
    stride: 2
  }
}
layer {
  name: "inception_3a/1x1"
  type: "Convolution"
  bottom: "pool2/3x3_s2"
  top: "inception_3a/1x1"
  param {
    lr_mult: 1
    decay_mult: 1
  }
  param {
    lr_mult: 2
    decay_mult: 0
  }
  convolution_param {
    num_output: 64
    kernel_size: 1
    weight_filler {
      type: "xavier"
      std: 0.03
    }
    bias_filler {
      type: "constant"
      value: 0.2
    }
  }
}
layer {
  name: "inception_3a/relu_1x1"
  type: "ReLU"
  bottom: "inception_3a/1x1"
  top: "inception_3a/1x1"
}
layer {
  name: "inception_3a/3x3_reduce"
  type: "Convolution"
  bottom: "pool2/3x3_s2"
  top: "inception_3a/3x3_reduce"
  param {
    lr_mult: 1
    decay_mult: 1
  }
  param {
    lr_mult: 2
    decay_mult: 0
  }
  convolution_param {
    num_output: 96
    kernel_size: 1
    weight_filler {
      type: "xavier"
      std: 0.09
    }
    bias_filler {
      type: "constant"
      value: 0.2
    }
  }
}
layer {
  name: "inception_3a/relu_3x3_reduce"
  type: "ReLU"
  bottom: "inception_3a/3x3_reduce"
  top: "inception_3a/3x3_reduce"
}
layer {
  name: "inception_3a/3x3"
  type: "Convolution"
  bottom: "inception_3a/3x3_reduce"
  top: "inception_3a/3x3"
  param {
    lr_mult: 1
    decay_mult: 1
  }
  param {
    lr_mult: 2
    decay_mult: 0
  }
  convolution_param {
    num_output: 128
    pad: 1
    kernel_size: 3
    weight_filler {
      type: "xavier"
      std: 0.03
    }
    bias_filler {
      type: "constant"
      value: 0.2
    }
  }
}
layer {
  name: "inception_3a/relu_3x3"
  type: "ReLU"
  bottom: "inception_3a/3x3"
  top: "inception_3a/3x3"
}
layer {
  name: "inception_3a/5x5_reduce"
  type: "Convolution"
  bottom: "pool2/3x3_s2"
  top: "inception_3a/5x5_reduce"
  param {
    lr_mult: 1
    decay_mult: 1
  }
  param {
    lr_mult: 2
    decay_mult: 0
  }
  convolution_param {
    num_output: 16
    kernel_size: 1
    weight_filler {
      type: "xavier"
      std: 0.2
    }
    bias_filler {
      type: "constant"
      value: 0.2
    }
  }
}
layer {
  name: "inception_3a/relu_5x5_reduce"
  type: "ReLU"
  bottom: "inception_3a/5x5_reduce"
  top: "inception_3a/5x5_reduce"
}
layer {
  name: "inception_3a/5x5"
  type: "Convolution"
  bottom: "inception_3a/5x5_reduce"
  top: "inception_3a/5x5"
  param {
    lr_mult: 1
    decay_mult: 1
  }
  param {
    lr_mult: 2
    decay_mult: 0
  }
  convolution_param {
    num_output: 32
    pad: 2
    kernel_size: 5
    weight_filler {
      type: "xavier"
      std: 0.03
    }
    bias_filler {
      type: "constant"
      value: 0.2
    }
  }
}
layer {
  name: "inception_3a/relu_5x5"
  type: "ReLU"
  bottom: "inception_3a/5x5"
  top: "inception_3a/5x5"
}
layer {
  name: "inception_3a/pool"
  type: "Pooling"
  bottom: "pool2/3x3_s2"
  top: "inception_3a/pool"
  pooling_param {
    pool: MAX
    kernel_size: 3
    stride: 1
    pad: 1
  }
}
layer {
  name: "inception_3a/pool_proj"
  type: "Convolution"
  bottom: "inception_3a/pool"
  top: "inception_3a/pool_proj"
  param {
    lr_mult: 1
    decay_mult: 1
  }
  param {
    lr_mult: 2
    decay_mult: 0
  }
  convolution_param {
    num_output: 32
    kernel_size: 1
    weight_filler {
      type: "xavier"
      std: 0.1
    }
    bias_filler {
      type: "constant"
      value: 0.2
    }
  }
}
layer {
  name: "inception_3a/relu_pool_proj"
  type: "ReLU"
  bottom: "inception_3a/pool_proj"
  top: "inception_3a/pool_proj"
}
layer {
  name: "inception_3a/output"
  type: "Concat"
  bottom: "inception_3a/1x1"
  bottom: "inception_3a/3x3"
  bottom: "inception_3a/5x5"
  bottom: "inception_3a/pool_proj"
  top: "inception_3a/output"
}
layer {
  name: "inception_3b/1x1"
  type: "Convolution"
  bottom: "inception_3a/output"
  top: "inception_3b/1x1"
  param {
    lr_mult: 1
    decay_mult: 1
  }
  param {
    lr_mult: 2
    decay_mult: 0
  }
  convolution_param {
    num_output: 128
    kernel_size: 1
    weight_filler {
      type: "xavier"
      std: 0.03
    }
    bias_filler {
      type: "constant"
      value: 0.2
    }
  }
}
layer {
  name: "inception_3b/relu_1x1"
  type: "ReLU"
  bottom: "inception_3b/1x1"
  top: "inception_3b/1x1"
}
layer {
  name: "inception_3b/3x3_reduce"
  type: "Convolution"
  bottom: "inception_3a/output"
  top: "inception_3b/3x3_reduce"
  param {
    lr_mult: 1
    decay_mult: 1
  }
  param {
    lr_mult: 2
    decay_mult: 0
  }
  convolution_param {
    num_output: 128
    kernel_size: 1
    weight_filler {
      type: "xavier"
      std: 0.09
    }
    bias_filler {
      type: "constant"
      value: 0.2
    }
  }
}
layer {
  name: "inception_3b/relu_3x3_reduce"
  type: "ReLU"
  bottom: "inception_3b/3x3_reduce"
  top: "inception_3b/3x3_reduce"
}
layer {
  name: "inception_3b/3x3"
  type: "Convolution"
  bottom: "inception_3b/3x3_reduce"
  top: "inception_3b/3x3"
  param {
    lr_mult: 1
    decay_mult: 1
  }
  param {
    lr_mult: 2
    decay_mult: 0
  }
  convolution_param {
    num_output: 192
    pad: 1
    kernel_size: 3
    weight_filler {
      type: "xavier"
      std: 0.03
    }
    bias_filler {
      type: "constant"
      value: 0.2
    }
  }
}
layer {
  name: "inception_3b/relu_3x3"
  type: "ReLU"
  bottom: "inception_3b/3x3"
  top: "inception_3b/3x3"
}
layer {
  name: "inception_3b/5x5_reduce"
  type: "Convolution"
  bottom: "inception_3a/output"
  top: "inception_3b/5x5_reduce"
  param {
    lr_mult: 1
    decay_mult: 1
  }
  param {
    lr_mult: 2
    decay_mult: 0
  }
  convolution_param {
    num_output: 32
    kernel_size: 1
    weight_filler {
      type: "xavier"
      std: 0.2
    }
    bias_filler {
      type: "constant"
      value: 0.2
    }
  }
}
layer {
  name: "inception_3b/relu_5x5_reduce"
  type: "ReLU"
  bottom: "inception_3b/5x5_reduce"
  top: "inception_3b/5x5_reduce"
}
layer {
  name: "inception_3b/5x5"
  type: "Convolution"
  bottom: "inception_3b/5x5_reduce"
  top: "inception_3b/5x5"
  param {
    lr_mult: 1
    decay_mult: 1
  }
  param {
    lr_mult: 2
    decay_mult: 0
  }
  convolution_param {
    num_output: 96
    pad: 2
    kernel_size: 5
    weight_filler {
      type: "xavier"
      std: 0.03
    }
    bias_filler {
      type: "constant"
      value: 0.2
    }
  }
}
layer {
  name: "inception_3b/relu_5x5"
  type: "ReLU"
  bottom: "inception_3b/5x5"
  top: "inception_3b/5x5"
}
layer {
  name: "inception_3b/pool"
  type: "Pooling"
  bottom: "inception_3a/output"
  top: "inception_3b/pool"
  pooling_param {
    pool: MAX
    kernel_size: 3
    stride: 1
    pad: 1
  }
}
layer {
  name: "inception_3b/pool_proj"
  type: "Convolution"
  bottom: "inception_3b/pool"
  top: "inception_3b/pool_proj"
  param {
    lr_mult: 1
    decay_mult: 1
  }
  param {
    lr_mult: 2
    decay_mult: 0
  }
  convolution_param {
    num_output: 64
    kernel_size: 1
    weight_filler {
      type: "xavier"
      std: 0.1
    }
    bias_filler {
      type: "constant"
      value: 0.2
    }
  }
}
layer {
  name: "inception_3b/relu_pool_proj"
  type: "ReLU"
  bottom: "inception_3b/pool_proj"
  top: "inception_3b/pool_proj"
}
layer {
  name: "inception_3b/output"
  type: "Concat"
  bottom: "inception_3b/1x1"
  bottom: "inception_3b/3x3"
  bottom: "inception_3b/5x5"
  bottom: "inception_3b/pool_proj"
  top: "inception_3b/output"
}
layer {
  name: "pool3/3x3_s2"
  type: "Pooling"
  bottom: "inception_3b/output"
  top: "pool3/3x3_s2"
  pooling_param {
    pool: MAX
    kernel_size: 3
    stride: 2
  }
}
layer {
  name: "inception_4a/1x1"
  type: "Convolution"
  bottom: "pool3/3x3_s2"
  top: "inception_4a/1x1"
  param {
    lr_mult: 1
    decay_mult: 1
  }
  param {
    lr_mult: 2
    decay_mult: 0
  }
  convolution_param {
    num_output: 192
    kernel_size: 1
    weight_filler {
      type: "xavier"
      std: 0.03
    }
    bias_filler {
      type: "constant"
      value: 0.2
    }
  }
}
layer {
  name: "inception_4a/relu_1x1"
  type: "ReLU"
  bottom: "inception_4a/1x1"
  top: "inception_4a/1x1"
}
layer {
  name: "inception_4a/3x3_reduce"
  type: "Convolution"
  bottom: "pool3/3x3_s2"
  top: "inception_4a/3x3_reduce"
  param {
    lr_mult: 1
    decay_mult: 1
  }
  param {
    lr_mult: 2
    decay_mult: 0
  }
  convolution_param {
    num_output: 96
    kernel_size: 1
    weight_filler {
      type: "xavier"
      std: 0.09
    }
    bias_filler {
      type: "constant"
      value: 0.2
    }
  }
}
layer {
  name: "inception_4a/relu_3x3_reduce"
  type: "ReLU"
  bottom: "inception_4a/3x3_reduce"
  top: "inception_4a/3x3_reduce"
}
layer {
  name: "inception_4a/3x3"
  type: "Convolution"
  bottom: "inception_4a/3x3_reduce"
  top: "inception_4a/3x3"
  param {
    lr_mult: 1
    decay_mult: 1
  }
  param {
    lr_mult: 2
    decay_mult: 0
  }
  convolution_param {
    num_output: 208
    pad: 1
    kernel_size: 3
    weight_filler {
      type: "xavier"
      std: 0.03
    }
    bias_filler {
      type: "constant"
      value: 0.2
    }
  }
}
layer {
  name: "inception_4a/relu_3x3"
  type: "ReLU"
  bottom: "inception_4a/3x3"
  top: "inception_4a/3x3"
}
layer {
  name: "inception_4a/5x5_reduce"
  type: "Convolution"
  bottom: "pool3/3x3_s2"
  top: "inception_4a/5x5_reduce"
  param {
    lr_mult: 1
    decay_mult: 1
  }
  param {
    lr_mult: 2
    decay_mult: 0
  }
  convolution_param {
    num_output: 16
    kernel_size: 1
    weight_filler {
      type: "xavier"
      std: 0.2
    }
    bias_filler {
      type: "constant"
      value: 0.2
    }
  }
}
layer {
  name: "inception_4a/relu_5x5_reduce"
  type: "ReLU"
  bottom: "inception_4a/5x5_reduce"
  top: "inception_4a/5x5_reduce"
}
layer {
  name: "inception_4a/5x5"
  type: "Convolution"
  bottom: "inception_4a/5x5_reduce"
  top: "inception_4a/5x5"
  param {
    lr_mult: 1
    decay_mult: 1
  }
  param {
    lr_mult: 2
    decay_mult: 0
  }
  convolution_param {
    num_output: 48
    pad: 2
    kernel_size: 5
    weight_filler {
      type: "xavier"
      std: 0.03
    }
    bias_filler {
      type: "constant"
      value: 0.2
    }
  }
}
layer {
  name: "inception_4a/relu_5x5"
  type: "ReLU"
  bottom: "inception_4a/5x5"
  top: "inception_4a/5x5"
}
layer {
  name: "inception_4a/pool"
  type: "Pooling"
  bottom: "pool3/3x3_s2"
  top: "inception_4a/pool"
  pooling_param {
    pool: MAX
    kernel_size: 3
    stride: 1
    pad: 1
  }
}
layer {
  name: "inception_4a/pool_proj"
  type: "Convolution"
  bottom: "inception_4a/pool"
  top: "inception_4a/pool_proj"
  param {
    lr_mult: 1
    decay_mult: 1
  }
  param {
    lr_mult: 2
    decay_mult: 0
  }
  convolution_param {
    num_output: 64
    kernel_size: 1
    weight_filler {
      type: "xavier"
      std: 0.1
    }
    bias_filler {
      type: "constant"
      value: 0.2
    }
  }
}
layer {
  name: "inception_4a/relu_pool_proj"
  type: "ReLU"
  bottom: "inception_4a/pool_proj"
  top: "inception_4a/pool_proj"
}
layer {
  name: "inception_4a/output"
  type: "Concat"
  bottom: "inception_4a/1x1"
  bottom: "inception_4a/3x3"
  bottom: "inception_4a/5x5"
  bottom: "inception_4a/pool_proj"
  top: "inception_4a/output"
}
layer {
  name: "inception_4b/1x1"
  type: "Convolution"
  bottom: "inception_4a/output"
  top: "inception_4b/1x1"
  param {
    lr_mult: 1
    decay_mult: 1
  }
  param {
    lr_mult: 2
    decay_mult: 0
  }
  convolution_param {
    num_output: 160
    kernel_size: 1
    weight_filler {
      type: "xavier"
      std: 0.03
    }
    bias_filler {
      type: "constant"
      value: 0.2
    }
  }
}
layer {
  name: "inception_4b/relu_1x1"
  type: "ReLU"
  bottom: "inception_4b/1x1"
  top: "inception_4b/1x1"
}
layer {
  name: "inception_4b/3x3_reduce"
  type: "Convolution"
  bottom: "inception_4a/output"
  top: "inception_4b/3x3_reduce"
  param {
    lr_mult: 1
    decay_mult: 1
  }
  param {
    lr_mult: 2
    decay_mult: 0
  }
  convolution_param {
    num_output: 112
    kernel_size: 1
    weight_filler {
      type: "xavier"
      std: 0.09
    }
    bias_filler {
      type: "constant"
      value: 0.2
    }
  }
}
layer {
  name: "inception_4b/relu_3x3_reduce"
  type: "ReLU"
  bottom: "inception_4b/3x3_reduce"
  top: "inception_4b/3x3_reduce"
}
layer {
  name: "inception_4b/3x3"
  type: "Convolution"
  bottom: "inception_4b/3x3_reduce"
  top: "inception_4b/3x3"
  param {
    lr_mult: 1
    decay_mult: 1
  }
  param {
    lr_mult: 2
    decay_mult: 0
  }
  convolution_param {
    num_output: 224
    pad: 1
    kernel_size: 3
    weight_filler {
      type: "xavier"
      std: 0.03
    }
    bias_filler {
      type: "constant"
      value: 0.2
    }
  }
}
layer {
  name: "inception_4b/relu_3x3"
  type: "ReLU"
  bottom: "inception_4b/3x3"
  top: "inception_4b/3x3"
}
layer {
  name: "inception_4b/5x5_reduce"
  type: "Convolution"
  bottom: "inception_4a/output"
  top: "inception_4b/5x5_reduce"
  param {
    lr_mult: 1
    decay_mult: 1
  }
  param {
    lr_mult: 2
    decay_mult: 0
  }
  convolution_param {
    num_output: 24
    kernel_size: 1
    weight_filler {
      type: "xavier"
      std: 0.2
    }
    bias_filler {
      type: "constant"
      value: 0.2
    }
  }
}
layer {
  name: "inception_4b/relu_5x5_reduce"
  type: "ReLU"
  bottom: "inception_4b/5x5_reduce"
  top: "inception_4b/5x5_reduce"
}
layer {
  name: "inception_4b/5x5"
  type: "Convolution"
  bottom: "inception_4b/5x5_reduce"
  top: "inception_4b/5x5"
  param {
    lr_mult: 1
    decay_mult: 1
  }
  param {
    lr_mult: 2
    decay_mult: 0
  }
  convolution_param {
    num_output: 64
    pad: 2
    kernel_size: 5
    weight_filler {
      type: "xavier"
      std: 0.03
    }
    bias_filler {
      type: "constant"
      value: 0.2
    }
  }
}
layer {
  name: "inception_4b/relu_5x5"
  type: "ReLU"
  bottom: "inception_4b/5x5"
  top: "inception_4b/5x5"
}
layer {
  name: "inception_4b/pool"
  type: "Pooling"
  bottom: "inception_4a/output"
  top: "inception_4b/pool"
  pooling_param {
    pool: MAX
    kernel_size: 3
    stride: 1
    pad: 1
  }
}
layer {
  name: "inception_4b/pool_proj"
  type: "Convolution"
  bottom: "inception_4b/pool"
  top: "inception_4b/pool_proj"
  param {
    lr_mult: 1
    decay_mult: 1
  }
  param {
    lr_mult: 2
    decay_mult: 0
  }
  convolution_param {
    num_output: 64
    kernel_size: 1
    weight_filler {
      type: "xavier"
      std: 0.1
    }
    bias_filler {
      type: "constant"
      value: 0.2
    }
  }
}
layer {
  name: "inception_4b/relu_pool_proj"
  type: "ReLU"
  bottom: "inception_4b/pool_proj"
  top: "inception_4b/pool_proj"
}
layer {
  name: "inception_4b/output"
  type: "Concat"
  bottom: "inception_4b/1x1"
  bottom: "inception_4b/3x3"
  bottom: "inception_4b/5x5"
  bottom: "inception_4b/pool_proj"
  top: "inception_4b/output"
}
layer {
  name: "inception_4c/1x1"
  type: "Convolution"
  bottom: "inception_4b/output"
  top: "inception_4c/1x1"
  param {
    lr_mult: 1
    decay_mult: 1
  }
  param {
    lr_mult: 2
    decay_mult: 0
  }
  convolution_param {
    num_output: 128
    kernel_size: 1
    weight_filler {
      type: "xavier"
      std: 0.03
    }
    bias_filler {
      type: "constant"
      value: 0.2
    }
  }
}
layer {
  name: "inception_4c/relu_1x1"
  type: "ReLU"
  bottom: "inception_4c/1x1"
  top: "inception_4c/1x1"
}
layer {
  name: "inception_4c/3x3_reduce"
  type: "Convolution"
  bottom: "inception_4b/output"
  top: "inception_4c/3x3_reduce"
  param {
    lr_mult: 1
    decay_mult: 1
  }
  param {
    lr_mult: 2
    decay_mult: 0
  }
  convolution_param {
    num_output: 128
    kernel_size: 1
    weight_filler {
      type: "xavier"
      std: 0.09
    }
    bias_filler {
      type: "constant"
      value: 0.2
    }
  }
}
layer {
  name: "inception_4c/relu_3x3_reduce"
  type: "ReLU"
  bottom: "inception_4c/3x3_reduce"
  top: "inception_4c/3x3_reduce"
}
layer {
  name: "inception_4c/3x3"
  type: "Convolution"
  bottom: "inception_4c/3x3_reduce"
  top: "inception_4c/3x3"
  param {
    lr_mult: 1
    decay_mult: 1
  }
  param {
    lr_mult: 2
    decay_mult: 0
  }
  convolution_param {
    num_output: 256
    pad: 1
    kernel_size: 3
    weight_filler {
      type: "xavier"
      std: 0.03
    }
    bias_filler {
      type: "constant"
      value: 0.2
    }
  }
}
layer {
  name: "inception_4c/relu_3x3"
  type: "ReLU"
  bottom: "inception_4c/3x3"
  top: "inception_4c/3x3"
}
layer {
  name: "inception_4c/5x5_reduce"
  type: "Convolution"
  bottom: "inception_4b/output"
  top: "inception_4c/5x5_reduce"
  param {
    lr_mult: 1
    decay_mult: 1
  }
  param {
    lr_mult: 2
    decay_mult: 0
  }
  convolution_param {
    num_output: 24
    kernel_size: 1
    weight_filler {
      type: "xavier"
      std: 0.2
    }
    bias_filler {
      type: "constant"
      value: 0.2
    }
  }
}
layer {
  name: "inception_4c/relu_5x5_reduce"
  type: "ReLU"
  bottom: "inception_4c/5x5_reduce"
  top: "inception_4c/5x5_reduce"
}
layer {
  name: "inception_4c/5x5"
  type: "Convolution"
  bottom: "inception_4c/5x5_reduce"
  top: "inception_4c/5x5"
  param {
    lr_mult: 1
    decay_mult: 1
  }
  param {
    lr_mult: 2
    decay_mult: 0
  }
  convolution_param {
    num_output: 64
    pad: 2
    kernel_size: 5
    weight_filler {
      type: "xavier"
      std: 0.03
    }
    bias_filler {
      type: "constant"
      value: 0.2
    }
  }
}
layer {
  name: "inception_4c/relu_5x5"
  type: "ReLU"
  bottom: "inception_4c/5x5"
  top: "inception_4c/5x5"
}
layer {
  name: "inception_4c/pool"
  type: "Pooling"
  bottom: "inception_4b/output"
  top: "inception_4c/pool"
  pooling_param {
    pool: MAX
    kernel_size: 3
    stride: 1
    pad: 1
  }
}
layer {
  name: "inception_4c/pool_proj"
  type: "Convolution"
  bottom: "inception_4c/pool"
  top: "inception_4c/pool_proj"
  param {
    lr_mult: 1
    decay_mult: 1
  }
  param {
    lr_mult: 2
    decay_mult: 0
  }
  convolution_param {
    num_output: 64
    kernel_size: 1
    weight_filler {
      type: "xavier"
      std: 0.1
    }
    bias_filler {
      type: "constant"
      value: 0.2
    }
  }
}
layer {
  name: "inception_4c/relu_pool_proj"
  type: "ReLU"
  bottom: "inception_4c/pool_proj"
  top: "inception_4c/pool_proj"
}
layer {
  name: "inception_4c/output"
  type: "Concat"
  bottom: "inception_4c/1x1"
  bottom: "inception_4c/3x3"
  bottom: "inception_4c/5x5"
  bottom: "inception_4c/pool_proj"
  top: "inception_4c/output"
}
layer {
  name: "inception_4d/1x1"
  type: "Convolution"
  bottom: "inception_4c/output"
  top: "inception_4d/1x1"
  param {
    lr_mult: 1
    decay_mult: 1
  }
  param {
    lr_mult: 2
    decay_mult: 0
  }
  convolution_param {
    num_output: 112
    kernel_size: 1
    weight_filler {
      type: "xavier"
      std: 0.03
    }
    bias_filler {
      type: "constant"
      value: 0.2
    }
  }
}
layer {
  name: "inception_4d/relu_1x1"
  type: "ReLU"
  bottom: "inception_4d/1x1"
  top: "inception_4d/1x1"
}
layer {
  name: "inception_4d/3x3_reduce"
  type: "Convolution"
  bottom: "inception_4c/output"
  top: "inception_4d/3x3_reduce"
  param {
    lr_mult: 1
    decay_mult: 1
  }
  param {
    lr_mult: 2
    decay_mult: 0
  }
  convolution_param {
    num_output: 144
    kernel_size: 1
    weight_filler {
      type: "xavier"
      std: 0.09
    }
    bias_filler {
      type: "constant"
      value: 0.2
    }
  }
}
layer {
  name: "inception_4d/relu_3x3_reduce"
  type: "ReLU"
  bottom: "inception_4d/3x3_reduce"
  top: "inception_4d/3x3_reduce"
}
layer {
  name: "inception_4d/3x3"
  type: "Convolution"
  bottom: "inception_4d/3x3_reduce"
  top: "inception_4d/3x3"
  param {
    lr_mult: 1
    decay_mult: 1
  }
  param {
    lr_mult: 2
    decay_mult: 0
  }
  convolution_param {
    num_output: 288
    pad: 1
    kernel_size: 3
    weight_filler {
      type: "xavier"
      std: 0.03
    }
    bias_filler {
      type: "constant"
      value: 0.2
    }
  }
}
layer {
  name: "inception_4d/relu_3x3"
  type: "ReLU"
  bottom: "inception_4d/3x3"
  top: "inception_4d/3x3"
}
layer {
  name: "inception_4d/5x5_reduce"
  type: "Convolution"
  bottom: "inception_4c/output"
  top: "inception_4d/5x5_reduce"
  param {
    lr_mult: 1
    decay_mult: 1
  }
  param {
    lr_mult: 2
    decay_mult: 0
  }
  convolution_param {
    num_output: 32
    kernel_size: 1
    weight_filler {
      type: "xavier"
      std: 0.2
    }
    bias_filler {
      type: "constant"
      value: 0.2
    }
  }
}
layer {
  name: "inception_4d/relu_5x5_reduce"
  type: "ReLU"
  bottom: "inception_4d/5x5_reduce"
  top: "inception_4d/5x5_reduce"
}
layer {
  name: "inception_4d/5x5"
  type: "Convolution"
  bottom: "inception_4d/5x5_reduce"
  top: "inception_4d/5x5"
  param {
    lr_mult: 1
    decay_mult: 1
  }
  param {
    lr_mult: 2
    decay_mult: 0
  }
  convolution_param {
    num_output: 64
    pad: 2
    kernel_size: 5
    weight_filler {
      type: "xavier"
      std: 0.03
    }
    bias_filler {
      type: "constant"
      value: 0.2
    }
  }
}
layer {
  name: "inception_4d/relu_5x5"
  type: "ReLU"
  bottom: "inception_4d/5x5"
  top: "inception_4d/5x5"
}
layer {
  name: "inception_4d/pool"
  type: "Pooling"
  bottom: "inception_4c/output"
  top: "inception_4d/pool"
  pooling_param {
    pool: MAX
    kernel_size: 3
    stride: 1
    pad: 1
  }
}
layer {
  name: "inception_4d/pool_proj"
  type: "Convolution"
  bottom: "inception_4d/pool"
  top: "inception_4d/pool_proj"
  param {
    lr_mult: 1
    decay_mult: 1
  }
  param {
    lr_mult: 2
    decay_mult: 0
  }
  convolution_param {
    num_output: 64
    kernel_size: 1
    weight_filler {
      type: "xavier"
      std: 0.1
    }
    bias_filler {
      type: "constant"
      value: 0.2
    }
  }
}
layer {
  name: "inception_4d/relu_pool_proj"
  type: "ReLU"
  bottom: "inception_4d/pool_proj"
  top: "inception_4d/pool_proj"
}
layer {
  name: "inception_4d/output"
  type: "Concat"
  bottom: "inception_4d/1x1"
  bottom: "inception_4d/3x3"
  bottom: "inception_4d/5x5"
  bottom: "inception_4d/pool_proj"
  top: "inception_4d/output"
}
layer {
  name: "inception_4e/1x1"
  type: "Convolution"
  bottom: "inception_4d/output"
  top: "inception_4e/1x1"
  param {
    lr_mult: 1
    decay_mult: 1
  }
  param {
    lr_mult: 2
    decay_mult: 0
  }
  convolution_param {
    num_output: 256
    kernel_size: 1
    weight_filler {
      type: "xavier"
      std: 0.03
    }
    bias_filler {
      type: "constant"
      value: 0.2
    }
  }
}
layer {
  name: "inception_4e/relu_1x1"
  type: "ReLU"
  bottom: "inception_4e/1x1"
  top: "inception_4e/1x1"
}
layer {
  name: "inception_4e/3x3_reduce"
  type: "Convolution"
  bottom: "inception_4d/output"
  top: "inception_4e/3x3_reduce"
  param {
    lr_mult: 1
    decay_mult: 1
  }
  param {
    lr_mult: 2
    decay_mult: 0
  }
  convolution_param {
    num_output: 160
    kernel_size: 1
    weight_filler {
      type: "xavier"
      std: 0.09
    }
    bias_filler {
      type: "constant"
      value: 0.2
    }
  }
}
layer {
  name: "inception_4e/relu_3x3_reduce"
  type: "ReLU"
  bottom: "inception_4e/3x3_reduce"
  top: "inception_4e/3x3_reduce"
}
layer {
  name: "inception_4e/3x3"
  type: "Convolution"
  bottom: "inception_4e/3x3_reduce"
  top: "inception_4e/3x3"
  param {
    lr_mult: 1
    decay_mult: 1
  }
  param {
    lr_mult: 2
    decay_mult: 0
  }
  convolution_param {
    num_output: 320
    pad: 1
    kernel_size: 3
    weight_filler {
      type: "xavier"
      std: 0.03
    }
    bias_filler {
      type: "constant"
      value: 0.2
    }
  }
}
layer {
  name: "inception_4e/relu_3x3"
  type: "ReLU"
  bottom: "inception_4e/3x3"
  top: "inception_4e/3x3"
}
layer {
  name: "inception_4e/5x5_reduce"
  type: "Convolution"
  bottom: "inception_4d/output"
  top: "inception_4e/5x5_reduce"
  param {
    lr_mult: 1
    decay_mult: 1
  }
  param {
    lr_mult: 2
    decay_mult: 0
  }
  convolution_param {
    num_output: 32
    kernel_size: 1
    weight_filler {
      type: "xavier"
      std: 0.2
    }
    bias_filler {
      type: "constant"
      value: 0.2
    }
  }
}
layer {
  name: "inception_4e/relu_5x5_reduce"
  type: "ReLU"
  bottom: "inception_4e/5x5_reduce"
  top: "inception_4e/5x5_reduce"
}
layer {
  name: "inception_4e/5x5"
  type: "Convolution"
  bottom: "inception_4e/5x5_reduce"
  top: "inception_4e/5x5"
  param {
    lr_mult: 1
    decay_mult: 1
  }
  param {
    lr_mult: 2
    decay_mult: 0
  }
  convolution_param {
    num_output: 128
    pad: 2
    kernel_size: 5
    weight_filler {
      type: "xavier"
      std: 0.03
    }
    bias_filler {
      type: "constant"
      value: 0.2
    }
  }
}
layer {
  name: "inception_4e/relu_5x5"
  type: "ReLU"
  bottom: "inception_4e/5x5"
  top: "inception_4e/5x5"
}
layer {
  name: "inception_4e/pool"
  type: "Pooling"
  bottom: "inception_4d/output"
  top: "inception_4e/pool"
  pooling_param {
    pool: MAX
    kernel_size: 3
    stride: 1
    pad: 1
  }
}
layer {
  name: "inception_4e/pool_proj"
  type: "Convolution"
  bottom: "inception_4e/pool"
  top: "inception_4e/pool_proj"
  param {
    lr_mult: 1
    decay_mult: 1
  }
  param {
    lr_mult: 2
    decay_mult: 0
  }
  convolution_param {
    num_output: 128
    kernel_size: 1
    weight_filler {
      type: "xavier"
      std: 0.1
    }
    bias_filler {
      type: "constant"
      value: 0.2
    }
  }
}
layer {
  name: "inception_4e/relu_pool_proj"
  type: "ReLU"
  bottom: "inception_4e/pool_proj"
  top: "inception_4e/pool_proj"
}
layer {
  name: "inception_4e/output"
  type: "Concat"
  bottom: "inception_4e/1x1"
  bottom: "inception_4e/3x3"
  bottom: "inception_4e/5x5"
  bottom: "inception_4e/pool_proj"
  top: "inception_4e/output"
}
layer {
  name: "pool4/3x3_s2"
  type: "Pooling"
  bottom: "inception_4e/output"
  top: "pool4/3x3_s2"
  pooling_param {
    pool: MAX
    kernel_size: 3
    stride: 2
  }
}
layer {
  name: "inception_5a/1x1"
  type: "Convolution"
  bottom: "pool4/3x3_s2"
  top: "inception_5a/1x1"
  param {
    lr_mult: 1
    decay_mult: 1
  }
  param {
    lr_mult: 2
    decay_mult: 0
  }
  convolution_param {
    num_output: 256
    kernel_size: 1
    weight_filler {
      type: "xavier"
      std: 0.03
    }
    bias_filler {
      type: "constant"
      value: 0.2
    }
  }
}
layer {
  name: "inception_5a/relu_1x1"
  type: "ReLU"
  bottom: "inception_5a/1x1"
  top: "inception_5a/1x1"
}
layer {
  name: "inception_5a/3x3_reduce"
  type: "Convolution"
  bottom: "pool4/3x3_s2"
  top: "inception_5a/3x3_reduce"
  param {
    lr_mult: 1
    decay_mult: 1
  }
  param {
    lr_mult: 2
    decay_mult: 0
  }
  convolution_param {
    num_output: 160
    kernel_size: 1
    weight_filler {
      type: "xavier"
      std: 0.09
    }
    bias_filler {
      type: "constant"
      value: 0.2
    }
  }
}
layer {
  name: "inception_5a/relu_3x3_reduce"
  type: "ReLU"
  bottom: "inception_5a/3x3_reduce"
  top: "inception_5a/3x3_reduce"
}
layer {
  name: "inception_5a/3x3"
  type: "Convolution"
  bottom: "inception_5a/3x3_reduce"
  top: "inception_5a/3x3"
  param {
    lr_mult: 1
    decay_mult: 1
  }
  param {
    lr_mult: 2
    decay_mult: 0
  }
  convolution_param {
    num_output: 320
    pad: 1
    kernel_size: 3
    weight_filler {
      type: "xavier"
      std: 0.03
    }
    bias_filler {
      type: "constant"
      value: 0.2
    }
  }
}
layer {
  name: "inception_5a/relu_3x3"
  type: "ReLU"
  bottom: "inception_5a/3x3"
  top: "inception_5a/3x3"
}
layer {
  name: "inception_5a/5x5_reduce"
  type: "Convolution"
  bottom: "pool4/3x3_s2"
  top: "inception_5a/5x5_reduce"
  param {
    lr_mult: 1
    decay_mult: 1
  }
  param {
    lr_mult: 2
    decay_mult: 0
  }
  convolution_param {
    num_output: 32
    kernel_size: 1
    weight_filler {
      type: "xavier"
      std: 0.2
    }
    bias_filler {
      type: "constant"
      value: 0.2
    }
  }
}
layer {
  name: "inception_5a/relu_5x5_reduce"
  typ
I0816 22:47:45.286162     7 net.cpp:370] Input 0 -> data
I0816 22:47:45.286296     7 layer_factory.hpp:74] Creating layer conv1/7x7_s2
I0816 22:47:45.286335     7 net.cpp:90] Creating Layer conv1/7x7_s2
I0816 22:47:45.286347     7 net.cpp:410] conv1/7x7_s2 <- data
I0816 22:47:45.286367     7 net.cpp:368] conv1/7x7_s2 -> conv1/7x7_s2
I0816 22:47:45.286389     7 net.cpp:120] Setting up conv1/7x7_s2
I0816 22:47:45.287154     7 net.cpp:127] Top shape: 10 64 112 112 (8028160)
I0816 22:47:45.287181     7 layer_factory.hpp:74] Creating layer conv1/relu_7x7
I0816 22:47:45.287204     7 net.cpp:90] Creating Layer conv1/relu_7x7
I0816 22:47:45.287214     7 net.cpp:410] conv1/relu_7x7 <- conv1/7x7_s2
I0816 22:47:45.287227     7 net.cpp:357] conv1/relu_7x7 -> conv1/7x7_s2 (in-place)
I0816 22:47:45.287240     7 net.cpp:120] Setting up conv1/relu_7x7
I0816 22:47:45.287257     7 net.cpp:127] Top shape: 10 64 112 112 (8028160)
I0816 22:47:45.287268     7 layer_factory.hpp:74] Creating layer pool1/3x3_s2
I0816 22:47:45.287283     7 net.cpp:90] Creating Layer pool1/3x3_s2
I0816 22:47:45.287293     7 net.cpp:410] pool1/3x3_s2 <- conv1/7x7_s2
I0816 22:47:45.287307     7 net.cpp:368] pool1/3x3_s2 -> pool1/3x3_s2
I0816 22:47:45.287360     7 net.cpp:120] Setting up pool1/3x3_s2
I0816 22:47:45.287400     7 net.cpp:127] Top shape: 10 64 56 56 (2007040)
I0816 22:47:45.287413     7 layer_factory.hpp:74] Creating layer pool1/norm1
I0816 22:47:45.287436     7 net.cpp:90] Creating Layer pool1/norm1
I0816 22:47:45.287459     7 net.cpp:410] pool1/norm1 <- pool1/3x3_s2
I0816 22:47:45.287477     7 net.cpp:368] pool1/norm1 -> pool1/norm1
I0816 22:47:45.287492     7 net.cpp:120] Setting up pool1/norm1
I0816 22:47:45.287518     7 net.cpp:127] Top shape: 10 64 56 56 (2007040)
I0816 22:47:45.287539     7 layer_factory.hpp:74] Creating layer conv2/3x3_reduce
I0816 22:47:45.287565     7 net.cpp:90] Creating Layer conv2/3x3_reduce
I0816 22:47:45.287585     7 net.cpp:410] conv2/3x3_reduce <- pool1/norm1
I0816 22:47:45.287611     7 net.cpp:368] conv2/3x3_reduce -> conv2/3x3_reduce
I0816 22:47:45.287628     7 net.cpp:120] Setting up conv2/3x3_reduce
I0816 22:47:45.287715     7 net.cpp:127] Top shape: 10 64 56 56 (2007040)
I0816 22:47:45.287734     7 layer_factory.hpp:74] Creating layer conv2/relu_3x3_reduce
I0816 22:47:45.287749     7 net.cpp:90] Creating Layer conv2/relu_3x3_reduce
I0816 22:47:45.287758     7 net.cpp:410] conv2/relu_3x3_reduce <- conv2/3x3_reduce
I0816 22:47:45.287770     7 net.cpp:357] conv2/relu_3x3_reduce -> conv2/3x3_reduce (in-place)
I0816 22:47:45.287783     7 net.cpp:120] Setting up conv2/relu_3x3_reduce
I0816 22:47:45.287796     7 net.cpp:127] Top shape: 10 64 56 56 (2007040)
I0816 22:47:45.287816     7 layer_factory.hpp:74] Creating layer conv2/3x3
I0816 22:47:45.287829     7 net.cpp:90] Creating Layer conv2/3x3
I0816 22:47:45.287839     7 net.cpp:410] conv2/3x3 <- conv2/3x3_reduce
I0816 22:47:45.287853     7 net.cpp:368] conv2/3x3 -> conv2/3x3
I0816 22:47:45.287868     7 net.cpp:120] Setting up conv2/3x3
I0816 22:47:45.289108     7 net.cpp:127] Top shape: 10 192 56 56 (6021120)
I0816 22:47:45.289145     7 layer_factory.hpp:74] Creating layer conv2/relu_3x3
I0816 22:47:45.289162     7 net.cpp:90] Creating Layer conv2/relu_3x3
I0816 22:47:45.289172     7 net.cpp:410] conv2/relu_3x3 <- conv2/3x3
I0816 22:47:45.289185     7 net.cpp:357] conv2/relu_3x3 -> conv2/3x3 (in-place)
I0816 22:47:45.289237     7 net.cpp:120] Setting up conv2/relu_3x3
I0816 22:47:45.289258     7 net.cpp:127] Top shape: 10 192 56 56 (6021120)
I0816 22:47:45.289268     7 layer_factory.hpp:74] Creating layer conv2/norm2
I0816 22:47:45.289288     7 net.cpp:90] Creating Layer conv2/norm2
I0816 22:47:45.289300     7 net.cpp:410] conv2/norm2 <- conv2/3x3
I0816 22:47:45.289312     7 net.cpp:368] conv2/norm2 -> conv2/norm2
I0816 22:47:45.289326     7 net.cpp:120] Setting up conv2/norm2
I0816 22:47:45.289343     7 net.cpp:127] Top shape: 10 192 56 56 (6021120)
I0816 22:47:45.289355     7 layer_factory.hpp:74] Creating layer pool2/3x3_s2
I0816 22:47:45.289373     7 net.cpp:90] Creating Layer pool2/3x3_s2
I0816 22:47:45.289403     7 net.cpp:410] pool2/3x3_s2 <- conv2/norm2
I0816 22:47:45.289422     7 net.cpp:368] pool2/3x3_s2 -> pool2/3x3_s2
I0816 22:47:45.289436     7 net.cpp:120] Setting up pool2/3x3_s2
I0816 22:47:45.289453     7 net.cpp:127] Top shape: 10 192 28 28 (1505280)
I0816 22:47:45.289463     7 layer_factory.hpp:74] Creating layer pool2/3x3_s2_pool2/3x3_s2_0_split
I0816 22:47:45.289485     7 net.cpp:90] Creating Layer pool2/3x3_s2_pool2/3x3_s2_0_split
I0816 22:47:45.289496     7 net.cpp:410] pool2/3x3_s2_pool2/3x3_s2_0_split <- pool2/3x3_s2
I0816 22:47:45.289518     7 net.cpp:368] pool2/3x3_s2_pool2/3x3_s2_0_split -> pool2/3x3_s2_pool2/3x3_s2_0_split_0
I0816 22:47:45.289543     7 net.cpp:368] pool2/3x3_s2_pool2/3x3_s2_0_split -> pool2/3x3_s2_pool2/3x3_s2_0_split_1
I0816 22:47:45.289576     7 net.cpp:368] pool2/3x3_s2_pool2/3x3_s2_0_split -> pool2/3x3_s2_pool2/3x3_s2_0_split_2
I0816 22:47:45.289602     7 net.cpp:368] pool2/3x3_s2_pool2/3x3_s2_0_split -> pool2/3x3_s2_pool2/3x3_s2_0_split_3
I0816 22:47:45.289616     7 net.cpp:120] Setting up pool2/3x3_s2_pool2/3x3_s2_0_split
I0816 22:47:45.289635     7 net.cpp:127] Top shape: 10 192 28 28 (1505280)
I0816 22:47:45.289651     7 net.cpp:127] Top shape: 10 192 28 28 (1505280)
I0816 22:47:45.289662     7 net.cpp:127] Top shape: 10 192 28 28 (1505280)
I0816 22:47:45.289674     7 net.cpp:127] Top shape: 10 192 28 28 (1505280)
I0816 22:47:45.289691     7 layer_factory.hpp:74] Creating layer inception_3a/1x1
I0816 22:47:45.289707     7 net.cpp:90] Creating Layer inception_3a/1x1
I0816 22:47:45.289724     7 net.cpp:410] inception_3a/1x1 <- pool2/3x3_s2_pool2/3x3_s2_0_split_0
I0816 22:47:45.289748     7 net.cpp:368] inception_3a/1x1 -> inception_3a/1x1
I0816 22:47:45.289775     7 net.cpp:120] Setting up inception_3a/1x1
I0816 22:47:45.289939     7 net.cpp:127] Top shape: 10 64 28 28 (501760)
I0816 22:47:45.289968     7 layer_factory.hpp:74] Creating layer inception_3a/relu_1x1
I0816 22:47:45.289983     7 net.cpp:90] Creating Layer inception_3a/relu_1x1
I0816 22:47:45.289994     7 net.cpp:410] inception_3a/relu_1x1 <- inception_3a/1x1
I0816 22:47:45.290020     7 net.cpp:357] inception_3a/relu_1x1 -> inception_3a/1x1 (in-place)
I0816 22:47:45.290045     7 net.cpp:120] Setting up inception_3a/relu_1x1
I0816 22:47:45.290060     7 net.cpp:127] Top shape: 10 64 28 28 (501760)
I0816 22:47:45.290077     7 layer_factory.hpp:74] Creating layer inception_3a/3x3_reduce
I0816 22:47:45.290096     7 net.cpp:90] Creating Layer inception_3a/3x3_reduce
I0816 22:47:45.290115     7 net.cpp:410] inception_3a/3x3_reduce <- pool2/3x3_s2_pool2/3x3_s2_0_split_1
I0816 22:47:45.290135     7 net.cpp:368] inception_3a/3x3_reduce -> inception_3a/3x3_reduce
I0816 22:47:45.290170     7 net.cpp:120] Setting up inception_3a/3x3_reduce
I0816 22:47:45.290408     7 net.cpp:127] Top shape: 10 96 28 28 (752640)
I0816 22:47:45.290441     7 layer_factory.hpp:74] Creating layer inception_3a/relu_3x3_reduce
I0816 22:47:45.290457     7 net.cpp:90] Creating Layer inception_3a/relu_3x3_reduce
I0816 22:47:45.290467     7 net.cpp:410] inception_3a/relu_3x3_reduce <- inception_3a/3x3_reduce
I0816 22:47:45.290484     7 net.cpp:357] inception_3a/relu_3x3_reduce -> inception_3a/3x3_reduce (in-place)
I0816 22:47:45.290498     7 net.cpp:120] Setting up inception_3a/relu_3x3_reduce
I0816 22:47:45.290513     7 net.cpp:127] Top shape: 10 96 28 28 (752640)
I0816 22:47:45.290531     7 layer_factory.hpp:74] Creating layer inception_3a/3x3
I0816 22:47:45.290546     7 net.cpp:90] Creating Layer inception_3a/3x3
I0816 22:47:45.290566     7 net.cpp:410] inception_3a/3x3 <- inception_3a/3x3_reduce
I0816 22:47:45.290586     7 net.cpp:368] inception_3a/3x3 -> inception_3a/3x3
I0816 22:47:45.290611     7 net.cpp:120] Setting up inception_3a/3x3
I0816 22:47:45.291851     7 net.cpp:127] Top shape: 10 128 28 28 (1003520)
I0816 22:47:45.291885     7 layer_factory.hpp:74] Creating layer inception_3a/relu_3x3
I0816 22:47:45.291908     7 net.cpp:90] Creating Layer inception_3a/relu_3x3
I0816 22:47:45.291920     7 net.cpp:410] inception_3a/relu_3x3 <- inception_3a/3x3
I0816 22:47:45.291934     7 net.cpp:357] inception_3a/relu_3x3 -> inception_3a/3x3 (in-place)
I0816 22:47:45.291949     7 net.cpp:120] Setting up inception_3a/relu_3x3
I0816 22:47:45.291963     7 net.cpp:127] Top shape: 10 128 28 28 (1003520)
I0816 22:47:45.291988     7 layer_factory.hpp:74] Creating layer inception_3a/5x5_reduce
I0816 22:47:45.292004     7 net.cpp:90] Creating Layer inception_3a/5x5_reduce
I0816 22:47:45.292016     7 net.cpp:410] inception_3a/5x5_reduce <- pool2/3x3_s2_pool2/3x3_s2_0_split_2
I0816 22:47:45.292042     7 net.cpp:368] inception_3a/5x5_reduce -> inception_3a/5x5_reduce
I0816 22:47:45.292068     7 net.cpp:120] Setting up inception_3a/5x5_reduce
I0816 22:47:45.292136     7 net.cpp:127] Top shape: 10 16 28 28 (125440)
I0816 22:47:45.292161     7 layer_factory.hpp:74] Creating layer inception_3a/relu_5x5_reduce
I0816 22:47:45.292176     7 net.cpp:90] Creating Layer inception_3a/relu_5x5_reduce
I0816 22:47:45.292193     7 net.cpp:410] inception_3a/relu_5x5_reduce <- inception_3a/5x5_reduce
I0816 22:47:45.292219     7 net.cpp:357] inception_3a/relu_5x5_reduce -> inception_3a/5x5_reduce (in-place)
I0816 22:47:45.292243     7 net.cpp:120] Setting up inception_3a/relu_5x5_reduce
I0816 22:47:45.292270     7 net.cpp:127] Top shape: 10 16 28 28 (125440)
I0816 22:47:45.292282     7 layer_factory.hpp:74] Creating layer inception_3a/5x5
I0816 22:47:45.292296     7 net.cpp:90] Creating Layer inception_3a/5x5
I0816 22:47:45.292315     7 net.cpp:410] inception_3a/5x5 <- inception_3a/5x5_reduce
I0816 22:47:45.292335     7 net.cpp:368] inception_3a/5x5 -> inception_3a/5x5
I0816 22:47:45.292363     7 net.cpp:120] Setting up inception_3a/5x5
I0816 22:47:45.292526     7 net.cpp:127] Top shape: 10 32 28 28 (250880)
I0816 22:47:45.292553     7 layer_factory.hpp:74] Creating layer inception_3a/relu_5x5
I0816 22:47:45.292568     7 net.cpp:90] Creating Layer inception_3a/relu_5x5
I0816 22:47:45.292580     7 net.cpp:410] inception_3a/relu_5x5 <- inception_3a/5x5
I0816 22:47:45.292600     7 net.cpp:357] inception_3a/relu_5x5 -> inception_3a/5x5 (in-place)
I0816 22:47:45.292616     7 net.cpp:120] Setting up inception_3a/relu_5x5
I0816 22:47:45.292636     7 net.cpp:127] Top shape: 10 32 28 28 (250880)
I0816 22:47:45.292649     7 layer_factory.hpp:74] Creating layer inception_3a/pool
I0816 22:47:45.292675     7 net.cpp:90] Creating Layer inception_3a/pool
I0816 22:47:45.292690     7 net.cpp:410] inception_3a/pool <- pool2/3x3_s2_pool2/3x3_s2_0_split_3
I0816 22:47:45.292711     7 net.cpp:368] inception_3a/pool -> inception_3a/pool
I0816 22:47:45.292732     7 net.cpp:120] Setting up inception_3a/pool
I0816 22:47:45.292770     7 net.cpp:127] Top shape: 10 192 28 28 (1505280)
I0816 22:47:45.292784     7 layer_factory.hpp:74] Creating layer inception_3a/pool_proj
I0816 22:47:45.292806     7 net.cpp:90] Creating Layer inception_3a/pool_proj
I0816 22:47:45.292819     7 net.cpp:410] inception_3a/pool_proj <- inception_3a/pool
I0816 22:47:45.292843     7 net.cpp:368] inception_3a/pool_proj -> inception_3a/pool_proj
I0816 22:47:45.292860     7 net.cpp:120] Setting up inception_3a/pool_proj
I0816 22:47:45.292968     7 net.cpp:127] Top shape: 10 32 28 28 (250880)
I0816 22:47:45.293004     7 layer_factory.hpp:74] Creating layer inception_3a/relu_pool_proj
I0816 22:47:45.293020     7 net.cpp:90] Creating Layer inception_3a/relu_pool_proj
I0816 22:47:45.293040     7 net.cpp:410] inception_3a/relu_pool_proj <- inception_3a/pool_proj
I0816 22:47:45.293061     7 net.cpp:357] inception_3a/relu_pool_proj -> inception_3a/pool_proj (in-place)
I0816 22:47:45.293086     7 net.cpp:120] Setting up inception_3a/relu_pool_proj
I0816 22:47:45.293100     7 net.cpp:127] Top shape: 10 32 28 28 (250880)
I0816 22:47:45.293118     7 layer_factory.hpp:74] Creating layer inception_3a/output
I0816 22:47:45.293138     7 net.cpp:90] Creating Layer inception_3a/output
I0816 22:47:45.293156     7 net.cpp:410] inception_3a/output <- inception_3a/1x1
I0816 22:47:45.293169     7 net.cpp:410] inception_3a/output <- inception_3a/3x3
I0816 22:47:45.293180     7 net.cpp:410] inception_3a/output <- inception_3a/5x5
I0816 22:47:45.293239     7 net.cpp:410] inception_3a/output <- inception_3a/pool_proj
I0816 22:47:45.293268     7 net.cpp:368] inception_3a/output -> inception_3a/output
I0816 22:47:45.293285     7 net.cpp:120] Setting up inception_3a/output
I0816 22:47:45.293311     7 net.cpp:127] Top shape: 10 256 28 28 (2007040)
I0816 22:47:45.293331     7 layer_factory.hpp:74] Creating layer inception_3a/output_inception_3a/output_0_split
I0816 22:47:45.293345     7 net.cpp:90] Creating Layer inception_3a/output_inception_3a/output_0_split
I0816 22:47:45.293356     7 net.cpp:410] inception_3a/output_inception_3a/output_0_split <- inception_3a/output
I0816 22:47:45.293386     7 net.cpp:368] inception_3a/output_inception_3a/output_0_split -> inception_3a/output_inception_3a/output_0_split_0
I0816 22:47:45.293404     7 net.cpp:368] inception_3a/output_inception_3a/output_0_split -> inception_3a/output_inception_3a/output_0_split_1
I0816 22:47:45.293428     7 net.cpp:368] inception_3a/output_inception_3a/output_0_split -> inception_3a/output_inception_3a/output_0_split_2
I0816 22:47:45.293444     7 net.cpp:368] inception_3a/output_inception_3a/output_0_split -> inception_3a/output_inception_3a/output_0_split_3
I0816 22:47:45.293462     7 net.cpp:120] Setting up inception_3a/output_inception_3a/output_0_split
I0816 22:47:45.293486     7 net.cpp:127] Top shape: 10 256 28 28 (2007040)
I0816 22:47:45.293499     7 net.cpp:127] Top shape: 10 256 28 28 (2007040)
I0816 22:47:45.293511     7 net.cpp:127] Top shape: 10 256 28 28 (2007040)
I0816 22:47:45.293532     7 net.cpp:127] Top shape: 10 256 28 28 (2007040)
I0816 22:47:45.293544     7 layer_factory.hpp:74] Creating layer inception_3b/1x1
I0816 22:47:45.293562     7 net.cpp:90] Creating Layer inception_3b/1x1
I0816 22:47:45.293582     7 net.cpp:410] inception_3b/1x1 <- inception_3a/output_inception_3a/output_0_split_0
I0816 22:47:45.293603     7 net.cpp:368] inception_3b/1x1 -> inception_3b/1x1
I0816 22:47:45.293627     7 net.cpp:120] Setting up inception_3b/1x1
I0816 22:47:45.294015     7 net.cpp:127] Top shape: 10 128 28 28 (1003520)
I0816 22:47:45.294046     7 layer_factory.hpp:74] Creating layer inception_3b/relu_1x1
I0816 22:47:45.294061     7 net.cpp:90] Creating Layer inception_3b/relu_1x1
I0816 22:47:45.294085     7 net.cpp:410] inception_3b/relu_1x1 <- inception_3b/1x1
I0816 22:47:45.294105     7 net.cpp:357] inception_3b/relu_1x1 -> inception_3b/1x1 (in-place)
I0816 22:47:45.294131     7 net.cpp:120] Setting up inception_3b/relu_1x1
I0816 22:47:45.294149     7 net.cpp:127] Top shape: 10 128 28 28 (1003520)
I0816 22:47:45.294178     7 layer_factory.hpp:74] Creating layer inception_3b/3x3_reduce
I0816 22:47:45.294194     7 net.cpp:90] Creating Layer inception_3b/3x3_reduce
I0816 22:47:45.294206     7 net.cpp:410] inception_3b/3x3_reduce <- inception_3a/output_inception_3a/output_0_split_1
I0816 22:47:45.294229     7 net.cpp:368] inception_3b/3x3_reduce -> inception_3b/3x3_reduce
I0816 22:47:45.294253     7 net.cpp:120] Setting up inception_3b/3x3_reduce
I0816 22:47:45.294651     7 net.cpp:127] Top shape: 10 128 28 28 (1003520)
I0816 22:47:45.294682     7 layer_factory.hpp:74] Creating layer inception_3b/relu_3x3_reduce
I0816 22:47:45.294697     7 net.cpp:90] Creating Layer inception_3b/relu_3x3_reduce
I0816 22:47:45.294718     7 net.cpp:410] inception_3b/relu_3x3_reduce <- inception_3b/3x3_reduce
I0816 22:47:45.294733     7 net.cpp:357] inception_3b/relu_3x3_reduce -> inception_3b/3x3_reduce (in-place)
I0816 22:47:45.294761     7 net.cpp:120] Setting up inception_3b/relu_3x3_reduce
I0816 22:47:45.294776     7 net.cpp:127] Top shape: 10 128 28 28 (1003520)
I0816 22:47:45.294787     7 layer_factory.hpp:74] Creating layer inception_3b/3x3
I0816 22:47:45.294812     7 net.cpp:90] Creating Layer inception_3b/3x3
I0816 22:47:45.294828     7 net.cpp:410] inception_3b/3x3 <- inception_3b/3x3_reduce
I0816 22:47:45.294843     7 net.cpp:368] inception_3b/3x3 -> inception_3b/3x3
I0816 22:47:45.294867     7 net.cpp:120] Setting up inception_3b/3x3
I0816 22:47:45.297317     7 net.cpp:127] Top shape: 10 192 28 28 (1505280)
I0816 22:47:45.297356     7 layer_factory.hpp:74] Creating layer inception_3b/relu_3x3
I0816 22:47:45.297374     7 net.cpp:90] Creating Layer inception_3b/relu_3x3
I0816 22:47:45.297386     7 net.cpp:410] inception_3b/relu_3x3 <- inception_3b/3x3
I0816 22:47:45.297416     7 net.cpp:357] inception_3b/relu_3x3 -> inception_3b/3x3 (in-place)
I0816 22:47:45.297435     7 net.cpp:120] Setting up inception_3b/relu_3x3
I0816 22:47:45.297457     7 net.cpp:127] Top shape: 10 192 28 28 (1505280)
I0816 22:47:45.297469     7 layer_factory.hpp:74] Creating layer inception_3b/5x5_reduce
I0816 22:47:45.297492     7 net.cpp:90] Creating Layer inception_3b/5x5_reduce
I0816 22:47:45.297513     7 net.cpp:410] inception_3b/5x5_reduce <- inception_3a/output_inception_3a/output_0_split_2
I0816 22:47:45.297533     7 net.cpp:368] inception_3b/5x5_reduce -> inception_3b/5x5_reduce
I0816 22:47:45.297564     7 net.cpp:120] Setting up inception_3b/5x5_reduce
I0816 22:47:45.297677     7 net.cpp:127] Top shape: 10 32 28 28 (250880)
I0816 22:47:45.297705     7 layer_factory.hpp:74] Creating layer inception_3b/relu_5x5_reduce
I0816 22:47:45.297721     7 net.cpp:90] Creating Layer inception_3b/relu_5x5_reduce
I0816 22:47:45.297744     7 net.cpp:410] inception_3b/relu_5x5_reduce <- inception_3b/5x5_reduce
I0816 22:47:45.297765     7 net.cpp:357] inception_3b/relu_5x5_reduce -> inception_3b/5x5_reduce (in-place)
I0816 22:47:45.297791     7 net.cpp:120] Setting up inception_3b/relu_5x5_reduce
I0816 22:47:45.297806     7 net.cpp:127] Top shape: 10 32 28 28 (250880)
I0816 22:47:45.297816     7 layer_factory.hpp:74] Creating layer inception_3b/5x5
I0816 22:47:45.297832     7 net.cpp:90] Creating Layer inception_3b/5x5
I0816 22:47:45.297852     7 net.cpp:410] inception_3b/5x5 <- inception_3b/5x5_reduce
I0816 22:47:45.297873     7 net.cpp:368] inception_3b/5x5 -> inception_3b/5x5
I0816 22:47:45.297896     7 net.cpp:120] Setting up inception_3b/5x5
I0816 22:47:45.298784     7 net.cpp:127] Top shape: 10 96 28 28 (752640)
I0816 22:47:45.298830     7 layer_factory.hpp:74] Creating layer inception_3b/relu_5x5
I0816 22:47:45.298852     7 net.cpp:90] Creating Layer inception_3b/relu_5x5
I0816 22:47:45.298868     7 net.cpp:410] inception_3b/relu_5x5 <- inception_3b/5x5
I0816 22:47:45.298908     7 net.cpp:357] inception_3b/relu_5x5 -> inception_3b/5x5 (in-place)
I0816 22:47:45.298944     7 net.cpp:120] Setting up inception_3b/relu_5x5
I0816 22:47:45.298961     7 net.cpp:127] Top shape: 10 96 28 28 (752640)
I0816 22:47:45.298980     7 layer_factory.hpp:74] Creating layer inception_3b/pool
I0816 22:47:45.299099     7 net.cpp:90] Creating Layer inception_3b/pool
I0816 22:47:45.299165     7 net.cpp:410] inception_3b/pool <- inception_3a/output_inception_3a/output_0_split_3
I0816 22:47:45.299214     7 net.cpp:368] inception_3b/pool -> inception_3b/pool
I0816 22:47:45.299262     7 net.cpp:120] Setting up inception_3b/pool
I0816 22:47:45.299312     7 net.cpp:127] Top shape: 10 256 28 28 (2007040)
I0816 22:47:45.299397     7 layer_factory.hpp:74] Creating layer inception_3b/pool_proj
I0816 22:47:45.299455     7 net.cpp:90] Creating Layer inception_3b/pool_proj
I0816 22:47:45.299489     7 net.cpp:410] inception_3b/pool_proj <- inception_3b/pool
I0816 22:47:45.299530     7 net.cpp:368] inception_3b/pool_proj -> inception_3b/pool_proj
I0816 22:47:45.299571     7 net.cpp:120] Setting up inception_3b/pool_proj
I0816 22:47:45.300016     7 net.cpp:127] Top shape: 10 64 28 28 (501760)
I0816 22:47:45.300112     7 layer_factory.hpp:74] Creating layer inception_3b/relu_pool_proj
I0816 22:47:45.300154     7 net.cpp:90] Creating Layer inception_3b/relu_pool_proj
I0816 22:47:45.300187     7 net.cpp:410] inception_3b/relu_pool_proj <- inception_3b/pool_proj
I0816 22:47:45.300222     7 net.cpp:357] inception_3b/relu_pool_proj -> inception_3b/pool_proj (in-place)
I0816 22:47:45.300261     7 net.cpp:120] Setting up inception_3b/relu_pool_proj
I0816 22:47:45.300295     7 net.cpp:127] Top shape: 10 64 28 28 (501760)
I0816 22:47:45.300325     7 layer_factory.hpp:74] Creating layer inception_3b/output
I0816 22:47:45.300361     7 net.cpp:90] Creating Layer inception_3b/output
I0816 22:47:45.300397     7 net.cpp:410] inception_3b/output <- inception_3b/1x1
I0816 22:47:45.300431     7 net.cpp:410] inception_3b/output <- inception_3b/3x3
I0816 22:47:45.300463     7 net.cpp:410] inception_3b/output <- inception_3b/5x5
I0816 22:47:45.300499     7 net.cpp:410] inception_3b/output <- inception_3b/pool_proj
I0816 22:47:45.300546     7 net.cpp:368] inception_3b/output -> inception_3b/output
I0816 22:47:45.300600     7 net.cpp:120] Setting up inception_3b/output
I0816 22:47:45.300644     7 net.cpp:127] Top shape: 10 480 28 28 (3763200)
I0816 22:47:45.300676     7 layer_factory.hpp:74] Creating layer pool3/3x3_s2
I0816 22:47:45.300714     7 net.cpp:90] Creating Layer pool3/3x3_s2
I0816 22:47:45.300760     7 net.cpp:410] pool3/3x3_s2 <- inception_3b/output
I0816 22:47:45.300811     7 net.cpp:368] pool3/3x3_s2 -> pool3/3x3_s2
I0816 22:47:45.300887     7 net.cpp:120] Setting up pool3/3x3_s2
I0816 22:47:45.300935     7 net.cpp:127] Top shape: 10 480 14 14 (940800)
I0816 22:47:45.300967     7 layer_factory.hpp:74] Creating layer pool3/3x3_s2_pool3/3x3_s2_0_split
I0816 22:47:45.301014     7 net.cpp:90] Creating Layer pool3/3x3_s2_pool3/3x3_s2_0_split
I0816 22:47:45.301046     7 net.cpp:410] pool3/3x3_s2_pool3/3x3_s2_0_split <- pool3/3x3_s2
I0816 22:47:45.301092     7 net.cpp:368] pool3/3x3_s2_pool3/3x3_s2_0_split -> pool3/3x3_s2_pool3/3x3_s2_0_split_0
I0816 22:47:45.301142     7 net.cpp:368] pool3/3x3_s2_pool3/3x3_s2_0_split -> pool3/3x3_s2_pool3/3x3_s2_0_split_1
I0816 22:47:45.301183     7 net.cpp:368] pool3/3x3_s2_pool3/3x3_s2_0_split -> pool3/3x3_s2_pool3/3x3_s2_0_split_2
I0816 22:47:45.301254     7 net.cpp:368] pool3/3x3_s2_pool3/3x3_s2_0_split -> pool3/3x3_s2_pool3/3x3_s2_0_split_3
I0816 22:47:45.301322     7 net.cpp:120] Setting up pool3/3x3_s2_pool3/3x3_s2_0_split
I0816 22:47:45.301369     7 net.cpp:127] Top shape: 10 480 14 14 (940800)
I0816 22:47:45.301403     7 net.cpp:127] Top shape: 10 480 14 14 (940800)
I0816 22:47:45.301434     7 net.cpp:127] Top shape: 10 480 14 14 (940800)
I0816 22:47:45.301465     7 net.cpp:127] Top shape: 10 480 14 14 (940800)
I0816 22:47:45.301497     7 layer_factory.hpp:74] Creating layer inception_4a/1x1
I0816 22:47:45.301534     7 net.cpp:90] Creating Layer inception_4a/1x1
I0816 22:47:45.301579     7 net.cpp:410] inception_4a/1x1 <- pool3/3x3_s2_pool3/3x3_s2_0_split_0
I0816 22:47:45.301623     7 net.cpp:368] inception_4a/1x1 -> inception_4a/1x1
I0816 22:47:45.301663     7 net.cpp:120] Setting up inception_4a/1x1
I0816 22:47:45.302851     7 net.cpp:127] Top shape: 10 192 14 14 (376320)
I0816 22:47:45.302913     7 layer_factory.hpp:74] Creating layer inception_4a/relu_1x1
I0816 22:47:45.302955     7 net.cpp:90] Creating Layer inception_4a/relu_1x1
I0816 22:47:45.302989     7 net.cpp:410] inception_4a/relu_1x1 <- inception_4a/1x1
I0816 22:47:45.303025     7 net.cpp:357] inception_4a/relu_1x1 -> inception_4a/1x1 (in-place)
I0816 22:47:45.303064     7 net.cpp:120] Setting up inception_4a/relu_1x1
I0816 22:47:45.303102     7 net.cpp:127] Top shape: 10 192 14 14 (376320)
I0816 22:47:45.303135     7 layer_factory.hpp:74] Creating layer inception_4a/3x3_reduce
I0816 22:47:45.303189     7 net.cpp:90] Creating Layer inception_4a/3x3_reduce
I0816 22:47:45.303226     7 net.cpp:410] inception_4a/3x3_reduce <- pool3/3x3_s2_pool3/3x3_s2_0_split_1
I0816 22:47:45.303272     7 net.cpp:368] inception_4a/3x3_reduce -> inception_4a/3x3_reduce
I0816 22:47:45.303315     7 net.cpp:120] Setting up inception_4a/3x3_reduce
I0816 22:47:45.303902     7 net.cpp:127] Top shape: 10 96 14 14 (188160)
I0816 22:47:45.303967     7 layer_factory.hpp:74] Creating layer inception_4a/relu_3x3_reduce
I0816 22:47:45.304008     7 net.cpp:90] Creating Layer inception_4a/relu_3x3_reduce
I0816 22:47:45.304044     7 net.cpp:410] inception_4a/relu_3x3_reduce <- inception_4a/3x3_reduce
I0816 22:47:45.304082     7 net.cpp:357] inception_4a/relu_3x3_reduce -> inception_4a/3x3_reduce (in-place)
I0816 22:47:45.304122     7 net.cpp:120] Setting up inception_4a/relu_3x3_reduce
I0816 22:47:45.304163     7 net.cpp:127] Top shape: 10 96 14 14 (188160)
I0816 22:47:45.304196     7 layer_factory.hpp:74] Creating layer inception_4a/3x3
I0816 22:47:45.304234     7 net.cpp:90] Creating Layer inception_4a/3x3
I0816 22:47:45.304268     7 net.cpp:410] inception_4a/3x3 <- inception_4a/3x3_reduce
I0816 22:47:45.304311     7 net.cpp:368] inception_4a/3x3 -> inception_4a/3x3
I0816 22:47:45.304370     7 net.cpp:120] Setting up inception_4a/3x3
I0816 22:47:45.306392     7 net.cpp:127] Top shape: 10 208 14 14 (407680)
I0816 22:47:45.306458     7 layer_factory.hpp:74] Creating layer inception_4a/relu_3x3
I0816 22:47:45.306501     7 net.cpp:90] Creating Layer inception_4a/relu_3x3
I0816 22:47:45.306535     7 net.cpp:410] inception_4a/relu_3x3 <- inception_4a/3x3
I0816 22:47:45.306577     7 net.cpp:357] inception_4a/relu_3x3 -> inception_4a/3x3 (in-place)
I0816 22:47:45.306618     7 net.cpp:120] Setting up inception_4a/relu_3x3
I0816 22:47:45.306656     7 net.cpp:127] Top shape: 10 208 14 14 (407680)
I0816 22:47:45.306689     7 layer_factory.hpp:74] Creating layer inception_4a/5x5_reduce
I0816 22:47:45.306726     7 net.cpp:90] Creating Layer inception_4a/5x5_reduce
I0816 22:47:45.306761     7 net.cpp:410] inception_4a/5x5_reduce <- pool3/3x3_s2_pool3/3x3_s2_0_split_2
I0816 22:47:45.306803     7 net.cpp:368] inception_4a/5x5_reduce -> inception_4a/5x5_reduce
I0816 22:47:45.306845     7 net.cpp:120] Setting up inception_4a/5x5_reduce
I0816 22:47:45.306980     7 net.cpp:127] Top shape: 10 16 14 14 (31360)
I0816 22:47:45.307027     7 layer_factory.hpp:74] Creating layer inception_4a/relu_5x5_reduce
I0816 22:47:45.307066     7 net.cpp:90] Creating Layer inception_4a/relu_5x5_reduce
I0816 22:47:45.307101     7 net.cpp:410] inception_4a/relu_5x5_reduce <- inception_4a/5x5_reduce
I0816 22:47:45.307137     7 net.cpp:357] inception_4a/relu_5x5_reduce -> inception_4a/5x5_reduce (in-place)
I0816 22:47:45.307175     7 net.cpp:120] Setting up inception_4a/relu_5x5_reduce
I0816 22:47:45.307214     7 net.cpp:127] Top shape: 10 16 14 14 (31360)
I0816 22:47:45.307401     7 layer_factory.hpp:74] Creating layer inception_4a/5x5
I0816 22:47:45.307467     7 net.cpp:90] Creating Layer inception_4a/5x5
I0816 22:47:45.307507     7 net.cpp:410] inception_4a/5x5 <- inception_4a/5x5_reduce
I0816 22:47:45.307544     7 net.cpp:368] inception_4a/5x5 -> inception_4a/5x5
I0816 22:47:45.307585     7 net.cpp:120] Setting up inception_4a/5x5
I0816 22:47:45.307868     7 net.cpp:127] Top shape: 10 48 14 14 (94080)
I0816 22:47:45.307929     7 layer_factory.hpp:74] Creating layer inception_4a/relu_5x5
I0816 22:47:45.307965     7 net.cpp:90] Creating Layer inception_4a/relu_5x5
I0816 22:47:45.307996     7 net.cpp:410] inception_4a/relu_5x5 <- inception_4a/5x5
I0816 22:47:45.308028     7 net.cpp:357] inception_4a/relu_5x5 -> inception_4a/5x5 (in-place)
I0816 22:47:45.308069     7 net.cpp:120] Setting up inception_4a/relu_5x5
I0816 22:47:45.308104     7 net.cpp:127] Top shape: 10 48 14 14 (94080)
I0816 22:47:45.308133     7 layer_factory.hpp:74] Creating layer inception_4a/pool
I0816 22:47:45.308167     7 net.cpp:90] Creating Layer inception_4a/pool
I0816 22:47:45.308197     7 net.cpp:410] inception_4a/pool <- pool3/3x3_s2_pool3/3x3_s2_0_split_3
I0816 22:47:45.308233     7 net.cpp:368] inception_4a/pool -> inception_4a/pool
I0816 22:47:45.308271     7 net.cpp:120] Setting up inception_4a/pool
I0816 22:47:45.308310     7 net.cpp:127] Top shape: 10 480 14 14 (940800)
I0816 22:47:45.308341     7 layer_factory.hpp:74] Creating layer inception_4a/pool_proj
I0816 22:47:45.308379     7 net.cpp:90] Creating Layer inception_4a/pool_proj
I0816 22:47:45.308411     7 net.cpp:410] inception_4a/pool_proj <- inception_4a/pool
I0816 22:47:45.308450     7 net.cpp:368] inception_4a/pool_proj -> inception_4a/pool_proj
I0816 22:47:45.308488     7 net.cpp:120] Setting up inception_4a/pool_proj
I0816 22:47:45.308861     7 net.cpp:127] Top shape: 10 64 14 14 (125440)
I0816 22:47:45.308903     7 layer_factory.hpp:74] Creating layer inception_4a/relu_pool_proj
I0816 22:47:45.308943     7 net.cpp:90] Creating Layer inception_4a/relu_pool_proj
I0816 22:47:45.308974     7 net.cpp:410] inception_4a/relu_pool_proj <- inception_4a/pool_proj
I0816 22:47:45.309007     7 net.cpp:357] inception_4a/relu_pool_proj -> inception_4a/pool_proj (in-place)
I0816 22:47:45.309042     7 net.cpp:120] Setting up inception_4a/relu_pool_proj
I0816 22:47:45.309075     7 net.cpp:127] Top shape: 10 64 14 14 (125440)
I0816 22:47:45.309105     7 layer_factory.hpp:74] Creating layer inception_4a/output
I0816 22:47:45.309139     7 net.cpp:90] Creating Layer inception_4a/output
I0816 22:47:45.309167     7 net.cpp:410] inception_4a/output <- inception_4a/1x1
I0816 22:47:45.309221     7 net.cpp:410] inception_4a/output <- inception_4a/3x3
I0816 22:47:45.309260     7 net.cpp:410] inception_4a/output <- inception_4a/5x5
I0816 22:47:45.309293     7 net.cpp:410] inception_4a/output <- inception_4a/pool_proj
I0816 22:47:45.309332     7 net.cpp:368] inception_4a/output -> inception_4a/output
I0816 22:47:45.309370     7 net.cpp:120] Setting up inception_4a/output
I0816 22:47:45.309409     7 net.cpp:127] Top shape: 10 512 14 14 (1003520)
I0816 22:47:45.309440     7 layer_factory.hpp:74] Creating layer inception_4a/output_inception_4a/output_0_split
I0816 22:47:45.309475     7 net.cpp:90] Creating Layer inception_4a/output_inception_4a/output_0_split
I0816 22:47:45.309504     7 net.cpp:410] inception_4a/output_inception_4a/output_0_split <- inception_4a/output
I0816 22:47:45.309537     7 net.cpp:368] inception_4a/output_inception_4a/output_0_split -> inception_4a/output_inception_4a/output_0_split_0
I0816 22:47:45.309574     7 net.cpp:368] inception_4a/output_inception_4a/output_0_split -> inception_4a/output_inception_4a/output_0_split_1
I0816 22:47:45.309612     7 net.cpp:368] inception_4a/output_inception_4a/output_0_split -> inception_4a/output_inception_4a/output_0_split_2
I0816 22:47:45.309659     7 net.cpp:368] inception_4a/output_inception_4a/output_0_split -> inception_4a/output_inception_4a/output_0_split_3
I0816 22:47:45.309695     7 net.cpp:120] Setting up inception_4a/output_inception_4a/output_0_split
I0816 22:47:45.309732     7 net.cpp:127] Top shape: 10 512 14 14 (1003520)
I0816 22:47:45.309763     7 net.cpp:127] Top shape: 10 512 14 14 (1003520)
I0816 22:47:45.309794     7 net.cpp:127] Top shape: 10 512 14 14 (1003520)
I0816 22:47:45.309823     7 net.cpp:127] Top shape: 10 512 14 14 (1003520)
I0816 22:47:45.309852     7 layer_factory.hpp:74] Creating layer inception_4b/1x1
I0816 22:47:45.309901     7 net.cpp:90] Creating Layer inception_4b/1x1
I0816 22:47:45.309933     7 net.cpp:410] inception_4b/1x1 <- inception_4a/output_inception_4a/output_0_split_0
I0816 22:47:45.309969     7 net.cpp:368] inception_4b/1x1 -> inception_4b/1x1
I0816 22:47:45.310006     7 net.cpp:120] Setting up inception_4b/1x1
I0816 22:47:45.310920     7 net.cpp:127] Top shape: 10 160 14 14 (313600)
I0816 22:47:45.310966     7 layer_factory.hpp:74] Creating layer inception_4b/relu_1x1
I0816 22:47:45.311003     7 net.cpp:90] Creating Layer inception_4b/relu_1x1
I0816 22:47:45.311034     7 net.cpp:410] inception_4b/relu_1x1 <- inception_4b/1x1
I0816 22:47:45.311066     7 net.cpp:357] inception_4b/relu_1x1 -> inception_4b/1x1 (in-place)
I0816 22:47:45.311101     7 net.cpp:120] Setting up inception_4b/relu_1x1
I0816 22:47:45.311136     7 net.cpp:127] Top shape: 10 160 14 14 (313600)
I0816 22:47:45.311166     7 layer_factory.hpp:74] Creating layer inception_4b/3x3_reduce
I0816 22:47:45.311199     7 net.cpp:90] Creating Layer inception_4b/3x3_reduce
I0816 22:47:45.311230     7 net.cpp:410] inception_4b/3x3_reduce <- inception_4a/output_inception_4a/output_0_split_1
I0816 22:47:45.311269     7 net.cpp:368] inception_4b/3x3_reduce -> inception_4b/3x3_reduce
I0816 22:47:45.311307     7 net.cpp:120] Setting up inception_4b/3x3_reduce
I0816 22:47:45.311985     7 net.cpp:127] Top shape: 10 112 14 14 (219520)
I0816 22:47:45.312028     7 layer_factory.hpp:74] Creating layer inception_4b/relu_3x3_reduce
I0816 22:47:45.312062     7 net.cpp:90] Creating Layer inception_4b/relu_3x3_reduce
I0816 22:47:45.312093     7 net.cpp:410] inception_4b/relu_3x3_reduce <- inception_4b/3x3_reduce
I0816 22:47:45.312129     7 net.cpp:357] inception_4b/relu_3x3_reduce -> inception_4b/3x3_reduce (in-place)
I0816 22:47:45.312166     7 net.cpp:120] Setting up inception_4b/relu_3x3_reduce
I0816 22:47:45.312201     7 net.cpp:127] Top shape: 10 112 14 14 (219520)
I0816 22:47:45.312230     7 layer_factory.hpp:74] Creating layer inception_4b/3x3
I0816 22:47:45.312265     7 net.cpp:90] Creating Layer inception_4b/3x3
I0816 22:47:45.312295     7 net.cpp:410] inception_4b/3x3 <- inception_4b/3x3_reduce
I0816 22:47:45.312335     7 net.cpp:368] inception_4b/3x3 -> inception_4b/3x3
I0816 22:47:45.312371     7 net.cpp:120] Setting up inception_4b/3x3
I0816 22:47:45.314860     7 net.cpp:127] Top shape: 10 224 14 14 (439040)
I0816 22:47:45.314949     7 layer_factory.hpp:74] Creating layer inception_4b/relu_3x3
I0816 22:47:45.314995     7 net.cpp:90] Creating Layer inception_4b/relu_3x3
I0816 22:47:45.315026     7 net.cpp:410] inception_4b/relu_3x3 <- inception_4b/3x3
I0816 22:47:45.315065     7 net.cpp:357] inception_4b/relu_3x3 -> inception_4b/3x3 (in-place)
I0816 22:47:45.315104     7 net.cpp:120] Setting up inception_4b/relu_3x3
I0816 22:47:45.315137     7 net.cpp:127] Top shape: 10 224 14 14 (439040)
I0816 22:47:45.315166     7 layer_factory.hpp:74] Creating layer inception_4b/5x5_reduce
I0816 22:47:45.315201     7 net.cpp:90] Creating Layer inception_4b/5x5_reduce
I0816 22:47:45.315232     7 net.cpp:410] inception_4b/5x5_reduce <- inception_4a/output_inception_4a/output_0_split_2
I0816 22:47:45.315269     7 net.cpp:368] inception_4b/5x5_reduce -> inception_4b/5x5_reduce
I0816 22:47:45.315309     7 net.cpp:120] Setting up inception_4b/5x5_reduce
I0816 22:47:45.315521     7 net.cpp:127] Top shape: 10 24 14 14 (47040)
I0816 22:47:45.315564     7 layer_factory.hpp:74] Creating layer inception_4b/relu_5x5_reduce
I0816 22:47:45.315618     7 net.cpp:90] Creating Layer inception_4b/relu_5x5_reduce
I0816 22:47:45.315651     7 net.cpp:410] inception_4b/relu_5x5_reduce <- inception_4b/5x5_reduce
I0816 22:47:45.315685     7 net.cpp:357] inception_4b/relu_5x5_reduce -> inception_4b/5x5_reduce (in-place)
I0816 22:47:45.315721     7 net.cpp:120] Setting up inception_4b/relu_5x5_reduce
I0816 22:47:45.315755     7 net.cpp:127] Top shape: 10 24 14 14 (47040)
I0816 22:47:45.315786     7 layer_factory.hpp:74] Creating layer inception_4b/5x5
I0816 22:47:45.315825     7 net.cpp:90] Creating Layer inception_4b/5x5
I0816 22:47:45.315865     7 net.cpp:410] inception_4b/5x5 <- inception_4b/5x5_reduce
I0816 22:47:45.315901     7 net.cpp:368] inception_4b/5x5 -> inception_4b/5x5
I0816 22:47:45.315937     7 net.cpp:120] Setting up inception_4b/5x5
I0816 22:47:45.316398     7 net.cpp:127] Top shape: 10 64 14 14 (125440)
I0816 22:47:45.316452     7 layer_factory.hpp:74] Creating layer inception_4b/relu_5x5
I0816 22:47:45.316489     7 net.cpp:90] Creating Layer inception_4b/relu_5x5
I0816 22:47:45.316521     7 net.cpp:410] inception_4b/relu_5x5 <- inception_4b/5x5
I0816 22:47:45.316560     7 net.cpp:357] inception_4b/relu_5x5 -> inception_4b/5x5 (in-place)
I0816 22:47:45.316617     7 net.cpp:120] Setting up inception_4b/relu_5x5
I0816 22:47:45.316653     7 net.cpp:127] Top shape: 10 64 14 14 (125440)
I0816 22:47:45.316684     7 layer_factory.hpp:74] Creating layer inception_4b/pool
I0816 22:47:45.316727     7 net.cpp:90] Creating Layer inception_4b/pool
I0816 22:47:45.316761     7 net.cpp:410] inception_4b/pool <- inception_4a/output_inception_4a/output_0_split_3
I0816 22:47:45.316804     7 net.cpp:368] inception_4b/pool -> inception_4b/pool
I0816 22:47:45.316843     7 net.cpp:120] Setting up inception_4b/pool
I0816 22:47:45.316893     7 net.cpp:127] Top shape: 10 512 14 14 (1003520)
I0816 22:47:45.316931     7 layer_factory.hpp:74] Creating layer inception_4b/pool_proj
I0816 22:47:45.316970     7 net.cpp:90] Creating Layer inception_4b/pool_proj
I0816 22:47:45.317020     7 net.cpp:410] inception_4b/pool_proj <- inception_4b/pool
I0816 22:47:45.317065     7 net.cpp:368] inception_4b/pool_proj -> inception_4b/pool_proj
I0816 22:47:45.317111     7 net.cpp:120] Setting up inception_4b/pool_proj
I0816 22:47:45.317574     7 net.cpp:127] Top shape: 10 64 14 14 (125440)
I0816 22:47:45.317631     7 layer_factory.hpp:74] Creating layer inception_4b/relu_pool_proj
I0816 22:47:45.317670     7 net.cpp:90] Creating Layer inception_4b/relu_pool_proj
I0816 22:47:45.317701     7 net.cpp:410] inception_4b/relu_pool_proj <- inception_4b/pool_proj
I0816 22:47:45.317734     7 net.cpp:357] inception_4b/relu_pool_proj -> inception_4b/pool_proj (in-place)
I0816 22:47:45.317770     7 net.cpp:120] Setting up inception_4b/relu_pool_proj
I0816 22:47:45.317805     7 net.cpp:127] Top shape: 10 64 14 14 (125440)
I0816 22:47:45.317833     7 layer_factory.hpp:74] Creating layer inception_4b/output
I0816 22:47:45.317867     7 net.cpp:90] Creating Layer inception_4b/output
I0816 22:47:45.317896     7 net.cpp:410] inception_4b/output <- inception_4b/1x1
I0816 22:47:45.317927     7 net.cpp:410] inception_4b/output <- inception_4b/3x3
I0816 22:47:45.317958     7 net.cpp:410] inception_4b/output <- inception_4b/5x5
I0816 22:47:45.317991     7 net.cpp:410] inception_4b/output <- inception_4b/pool_proj
I0816 22:47:45.318028     7 net.cpp:368] inception_4b/output -> inception_4b/output
I0816 22:47:45.318065     7 net.cpp:120] Setting up inception_4b/output
I0816 22:47:45.318104     7 net.cpp:127] Top shape: 10 512 14 14 (1003520)
I0816 22:47:45.318135     7 layer_factory.hpp:74] Creating layer inception_4b/output_inception_4b/output_0_split
I0816 22:47:45.318171     7 net.cpp:90] Creating Layer inception_4b/output_inception_4b/output_0_split
I0816 22:47:45.318202     7 net.cpp:410] inception_4b/output_inception_4b/output_0_split <- inception_4b/output
I0816 22:47:45.318240     7 net.cpp:368] inception_4b/output_inception_4b/output_0_split -> inception_4b/output_inception_4b/output_0_split_0
I0816 22:47:45.318279     7 net.cpp:368] inception_4b/output_inception_4b/output_0_split -> inception_4b/output_inception_4b/output_0_split_1
I0816 22:47:45.318316     7 net.cpp:368] inception_4b/output_inception_4b/output_0_split -> inception_4b/output_inception_4b/output_0_split_2
I0816 22:47:45.318354     7 net.cpp:368] inception_4b/output_inception_4b/output_0_split -> inception_4b/output_inception_4b/output_0_split_3
I0816 22:47:45.318390     7 net.cpp:120] Setting up inception_4b/output_inception_4b/output_0_split
I0816 22:47:45.318425     7 net.cpp:127] Top shape: 10 512 14 14 (1003520)
I0816 22:47:45.318472     7 net.cpp:127] Top shape: 10 512 14 14 (1003520)
I0816 22:47:45.318503     7 net.cpp:127] Top shape: 10 512 14 14 (1003520)
I0816 22:47:45.318533     7 net.cpp:127] Top shape: 10 512 14 14 (1003520)
I0816 22:47:45.318562     7 layer_factory.hpp:74] Creating layer inception_4c/1x1
I0816 22:47:45.318601     7 net.cpp:90] Creating Layer inception_4c/1x1
I0816 22:47:45.318632     7 net.cpp:410] inception_4c/1x1 <- inception_4b/output_inception_4b/output_0_split_0
I0816 22:47:45.318667     7 net.cpp:368] inception_4c/1x1 -> inception_4c/1x1
I0816 22:47:45.318703     7 net.cpp:120] Setting up inception_4c/1x1
I0816 22:47:45.319653     7 net.cpp:127] Top shape: 10 128 14 14 (250880)
I0816 22:47:45.319705     7 layer_factory.hpp:74] Creating layer inception_4c/relu_1x1
I0816 22:47:45.319748     7 net.cpp:90] Creating Layer inception_4c/relu_1x1
I0816 22:47:45.319784     7 net.cpp:410] inception_4c/relu_1x1 <- inception_4c/1x1
I0816 22:47:45.319820     7 net.cpp:357] inception_4c/relu_1x1 -> inception_4c/1x1 (in-place)
I0816 22:47:45.319860     7 net.cpp:120] Setting up inception_4c/relu_1x1
I0816 22:47:45.319897     7 net.cpp:127] Top shape: 10 128 14 14 (250880)
I0816 22:47:45.319931     7 layer_factory.hpp:74] Creating layer inception_4c/3x3_reduce
I0816 22:47:45.319977     7 net.cpp:90] Creating Layer inception_4c/3x3_reduce
I0816 22:47:45.320013     7 net.cpp:410] inception_4c/3x3_reduce <- inception_4b/output_inception_4b/output_0_split_1
I0816 22:47:45.320050     7 net.cpp:368] inception_4c/3x3_reduce -> inception_4c/3x3_reduce
I0816 22:47:45.320091     7 net.cpp:120] Setting up inception_4c/3x3_reduce
I0816 22:47:45.322820     7 net.cpp:127] Top shape: 10 128 14 14 (250880)
I0816 22:47:45.322907     7 layer_factory.hpp:74] Creating layer inception_4c/relu_3x3_reduce
I0816 22:47:45.322978     7 net.cpp:90] Creating Layer inception_4c/relu_3x3_reduce
I0816 22:47:45.323058     7 net.cpp:410] inception_4c/relu_3x3_reduce <- inception_4c/3x3_reduce
I0816 22:47:45.323120     7 net.cpp:357] inception_4c/relu_3x3_reduce -> inception_4c/3x3_reduce (in-place)
I0816 22:47:45.323174     7 net.cpp:120] Setting up inception_4c/relu_3x3_reduce
I0816 22:47:45.323227     7 net.cpp:127] Top shape: 10 128 14 14 (250880)
I0816 22:47:45.323272     7 layer_factory.hpp:74] Creating layer inception_4c/3x3
I0816 22:47:45.323338     7 net.cpp:90] Creating Layer inception_4c/3x3
I0816 22:47:45.323391     7 net.cpp:410] inception_4c/3x3 <- inception_4c/3x3_reduce
I0816 22:47:45.323472     7 net.cpp:368] inception_4c/3x3 -> inception_4c/3x3
I0816 22:47:45.323537     7 net.cpp:120] Setting up inception_4c/3x3
I0816 22:47:45.328346     7 net.cpp:127] Top shape: 10 256 14 14 (501760)
I0816 22:47:45.328480     7 layer_factory.hpp:74] Creating layer inception_4c/relu_3x3
I0816 22:47:45.328527     7 net.cpp:90] Creating Layer inception_4c/relu_3x3
I0816 22:47:45.328563     7 net.cpp:410] inception_4c/relu_3x3 <- inception_4c/3x3
I0816 22:47:45.328634     7 net.cpp:357] inception_4c/relu_3x3 -> inception_4c/3x3 (in-place)
I0816 22:47:45.328687     7 net.cpp:120] Setting up inception_4c/relu_3x3
I0816 22:47:45.328732     7 net.cpp:127] Top shape: 10 256 14 14 (501760)
I0816 22:47:45.328769     7 layer_factory.hpp:74] Creating layer inception_4c/5x5_reduce
I0816 22:47:45.328809     7 net.cpp:90] Creating Layer inception_4c/5x5_reduce
I0816 22:47:45.328841     7 net.cpp:410] inception_4c/5x5_reduce <- inception_4b/output_inception_4b/output_0_split_2
I0816 22:47:45.328888     7 net.cpp:368] inception_4c/5x5_reduce -> inception_4c/5x5_reduce
I0816 22:47:45.328958     7 net.cpp:120] Setting up inception_4c/5x5_reduce
I0816 22:47:45.329172     7 net.cpp:127] Top shape: 10 24 14 14 (47040)
I0816 22:47:45.329259     7 layer_factory.hpp:74] Creating layer inception_4c/relu_5x5_reduce
I0816 22:47:45.329315     7 net.cpp:90] Creating Layer inception_4c/relu_5x5_reduce
I0816 22:47:45.329351     7 net.cpp:410] inception_4c/relu_5x5_reduce <- inception_4c/5x5_reduce
I0816 22:47:45.329385     7 net.cpp:357] inception_4c/relu_5x5_reduce -> inception_4c/5x5_reduce (in-place)
I0816 22:47:45.329450     7 net.cpp:120] Setting up inception_4c/relu_5x5_reduce
I0816 22:47:45.329494     7 net.cpp:127] Top shape: 10 24 14 14 (47040)
I0816 22:47:45.329530     7 layer_factory.hpp:74] Creating layer inception_4c/5x5
I0816 22:47:45.329577     7 net.cpp:90] Creating Layer inception_4c/5x5
I0816 22:47:45.329612     7 net.cpp:410] inception_4c/5x5 <- inception_4c/5x5_reduce
I0816 22:47:45.329648     7 net.cpp:368] inception_4c/5x5 -> inception_4c/5x5
I0816 22:47:45.329699     7 net.cpp:120] Setting up inception_4c/5x5
I0816 22:47:45.333050     7 net.cpp:127] Top shape: 10 64 14 14 (125440)
I0816 22:47:45.333154     7 layer_factory.hpp:74] Creating layer inception_4c/relu_5x5
I0816 22:47:45.333266     7 net.cpp:90] Creating Layer inception_4c/relu_5x5
I0816 22:47:45.333315     7 net.cpp:410] inception_4c/relu_5x5 <- inception_4c/5x5
I0816 22:47:45.333362     7 net.cpp:357] inception_4c/relu_5x5 -> inception_4c/5x5 (in-place)
I0816 22:47:45.333403     7 net.cpp:120] Setting up inception_4c/relu_5x5
I0816 22:47:45.333438     7 net.cpp:127] Top shape: 10 64 14 14 (125440)
I0816 22:47:45.333469     7 layer_factory.hpp:74] Creating layer inception_4c/pool
I0816 22:47:45.333505     7 net.cpp:90] Creating Layer inception_4c/pool
I0816 22:47:45.333544     7 net.cpp:410] inception_4c/pool <- inception_4b/output_inception_4b/output_0_split_3
I0816 22:47:45.333596     7 net.cpp:368] inception_4c/pool -> inception_4c/pool
I0816 22:47:45.333639     7 net.cpp:120] Setting up inception_4c/pool
I0816 22:47:45.333683     7 net.cpp:127] Top shape: 10 512 14 14 (1003520)
I0816 22:47:45.333714     7 layer_factory.hpp:74] Creating layer inception_4c/pool_proj
I0816 22:47:45.333750     7 net.cpp:90] Creating Layer inception_4c/pool_proj
I0816 22:47:45.333803     7 net.cpp:410] inception_4c/pool_proj <- inception_4c/pool
I0816 22:47:45.333868     7 net.cpp:368] inception_4c/pool_proj -> inception_4c/pool_proj
I0816 22:47:45.333923     7 net.cpp:120] Setting up inception_4c/pool_proj
I0816 22:47:45.334871     7 net.cpp:127] Top shape: 10 64 14 14 (125440)
I0816 22:47:45.334969     7 layer_factory.hpp:74] Creating layer inception_4c/relu_pool_proj
I0816 22:47:45.335031     7 net.cpp:90] Creating Layer inception_4c/relu_pool_proj
I0816 22:47:45.335088     7 net.cpp:410] inception_4c/relu_pool_proj <- inception_4c/pool_proj
I0816 22:47:45.335139     7 net.cpp:357] inception_4c/relu_pool_proj -> inception_4c/pool_proj (in-place)
I0816 22:47:45.335180     7 net.cpp:120] Setting up inception_4c/relu_pool_proj
I0816 22:47:45.335216     7 net.cpp:127] Top shape: 10 64 14 14 (125440)
I0816 22:47:45.335247     7 layer_factory.hpp:74] Creating layer inception_4c/output
I0816 22:47:45.335281     7 net.cpp:90] Creating Layer inception_4c/output
I0816 22:47:45.335311     7 net.cpp:410] inception_4c/output <- inception_4c/1x1
I0816 22:47:45.335384     7 net.cpp:410] inception_4c/output <- inception_4c/3x3
I0816 22:47:45.335422     7 net.cpp:410] inception_4c/output <- inception_4c/5x5
I0816 22:47:45.335455     7 net.cpp:410] inception_4c/output <- inception_4c/pool_proj
I0816 22:47:45.335490     7 net.cpp:368] inception_4c/output -> inception_4c/output
I0816 22:47:45.335527     7 net.cpp:120] Setting up inception_4c/output
I0816 22:47:45.335578     7 net.cpp:127] Top shape: 10 512 14 14 (1003520)
I0816 22:47:45.335625     7 layer_factory.hpp:74] Creating layer inception_4c/output_inception_4c/output_0_split
I0816 22:47:45.335738     7 net.cpp:90] Creating Layer inception_4c/output_inception_4c/output_0_split
I0816 22:47:45.335788     7 net.cpp:410] inception_4c/output_inception_4c/output_0_split <- inception_4c/output
I0816 22:47:45.335826     7 net.cpp:368] inception_4c/output_inception_4c/output_0_split -> inception_4c/output_inception_4c/output_0_split_0
I0816 22:47:45.335866     7 net.cpp:368] inception_4c/output_inception_4c/output_0_split -> inception_4c/output_inception_4c/output_0_split_1
I0816 22:47:45.335906     7 net.cpp:368] inception_4c/output_inception_4c/output_0_split -> inception_4c/output_inception_4c/output_0_split_2
I0816 22:47:45.335968     7 net.cpp:368] inception_4c/output_inception_4c/output_0_split -> inception_4c/output_inception_4c/output_0_split_3
I0816 22:47:45.336006     7 net.cpp:120] Setting up inception_4c/output_inception_4c/output_0_split
I0816 22:47:45.336050     7 net.cpp:127] Top shape: 10 512 14 14 (1003520)
I0816 22:47:45.336082     7 net.cpp:127] Top shape: 10 512 14 14 (1003520)
I0816 22:47:45.336113     7 net.cpp:127] Top shape: 10 512 14 14 (1003520)
I0816 22:47:45.336145     7 net.cpp:127] Top shape: 10 512 14 14 (1003520)
I0816 22:47:45.336174     7 layer_factory.hpp:74] Creating layer inception_4d/1x1
I0816 22:47:45.336220     7 net.cpp:90] Creating Layer inception_4d/1x1
I0816 22:47:45.336254     7 net.cpp:410] inception_4d/1x1 <- inception_4c/output_inception_4c/output_0_split_0
I0816 22:47:45.336302     7 net.cpp:368] inception_4d/1x1 -> inception_4d/1x1
I0816 22:47:45.336344     7 net.cpp:120] Setting up inception_4d/1x1
I0816 22:47:45.337105     7 net.cpp:127] Top shape: 10 112 14 14 (219520)
I0816 22:47:45.337162     7 layer_factory.hpp:74] Creating layer inception_4d/relu_1x1
I0816 22:47:45.337232     7 net.cpp:90] Creating Layer inception_4d/relu_1x1
I0816 22:47:45.337297     7 net.cpp:410] inception_4d/relu_1x1 <- inception_4d/1x1
I0816 22:47:45.337374     7 net.cpp:357] inception_4d/relu_1x1 -> inception_4d/1x1 (in-place)
I0816 22:47:45.337421     7 net.cpp:120] Setting up inception_4d/relu_1x1
I0816 22:47:45.337458     7 net.cpp:127] Top shape: 10 112 14 14 (219520)
I0816 22:47:45.337489     7 layer_factory.hpp:74] Creating layer inception_4d/3x3_reduce
I0816 22:47:45.337527     7 net.cpp:90] Creating Layer inception_4d/3x3_reduce
I0816 22:47:45.337566     7 net.cpp:410] inception_4d/3x3_reduce <- inception_4c/output_inception_4c/output_0_split_1
I0816 22:47:45.337604     7 net.cpp:368] inception_4d/3x3_reduce -> inception_4d/3x3_reduce
I0816 22:47:45.337641     7 net.cpp:120] Setting up inception_4d/3x3_reduce
I0816 22:47:45.338644     7 net.cpp:127] Top shape: 10 144 14 14 (282240)
I0816 22:47:45.338702     7 layer_factory.hpp:74] Creating layer inception_4d/relu_3x3_reduce
I0816 22:47:45.338742     7 net.cpp:90] Creating Layer inception_4d/relu_3x3_reduce
I0816 22:47:45.338773     7 net.cpp:410] inception_4d/relu_3x3_reduce <- inception_4d/3x3_reduce
I0816 22:47:45.338806     7 net.cpp:357] inception_4d/relu_3x3_reduce -> inception_4d/3x3_reduce (in-place)
I0816 22:47:45.338842     7 net.cpp:120] Setting up inception_4d/relu_3x3_reduce
I0816 22:47:45.338877     7 net.cpp:127] Top shape: 10 144 14 14 (282240)
I0816 22:47:45.338907     7 layer_factory.hpp:74] Creating layer inception_4d/3x3
I0816 22:47:45.338946     7 net.cpp:90] Creating Layer inception_4d/3x3
I0816 22:47:45.338996     7 net.cpp:410] inception_4d/3x3 <- inception_4d/3x3_reduce
I0816 22:47:45.339046     7 net.cpp:368] inception_4d/3x3 -> inception_4d/3x3
I0816 22:47:45.339493     7 net.cpp:120] Setting up inception_4d/3x3
I0816 22:47:45.347882     7 net.cpp:127] Top shape: 10 288 14 14 (564480)
I0816 22:47:45.348007     7 layer_factory.hpp:74] Creating layer inception_4d/relu_3x3
I0816 22:47:45.348073     7 net.cpp:90] Creating Layer inception_4d/relu_3x3
I0816 22:47:45.348121     7 net.cpp:410] inception_4d/relu_3x3 <- inception_4d/3x3
I0816 22:47:45.348178     7 net.cpp:357] inception_4d/relu_3x3 -> inception_4d/3x3 (in-place)
I0816 22:47:45.348239     7 net.cpp:120] Setting up inception_4d/relu_3x3
I0816 22:47:45.348283     7 net.cpp:127] Top shape: 10 288 14 14 (564480)
I0816 22:47:45.348312     7 layer_factory.hpp:74] Creating layer inception_4d/5x5_reduce
I0816 22:47:45.348350     7 net.cpp:90] Creating Layer inception_4d/5x5_reduce
I0816 22:47:45.348387     7 net.cpp:410] inception_4d/5x5_reduce <- inception_4c/output_inception_4c/output_0_split_2
I0816 22:47:45.348425     7 net.cpp:368] inception_4d/5x5_reduce -> inception_4d/5x5_reduce
I0816 22:47:45.348464     7 net.cpp:120] Setting up inception_4d/5x5_reduce
I0816 22:47:45.349124     7 net.cpp:127] Top shape: 10 32 14 14 (62720)
I0816 22:47:45.349251     7 layer_factory.hpp:74] Creating layer inception_4d/relu_5x5_reduce
I0816 22:47:45.349314     7 net.cpp:90] Creating Layer inception_4d/relu_5x5_reduce
I0816 22:47:45.349359     7 net.cpp:410] inception_4d/relu_5x5_reduce <- inception_4d/5x5_reduce
I0816 22:47:45.349396     7 net.cpp:357] inception_4d/relu_5x5_reduce -> inception_4d/5x5_reduce (in-place)
I0816 22:47:45.349438     7 net.cpp:120] Setting up inception_4d/relu_5x5_reduce
I0816 22:47:45.349498     7 net.cpp:127] Top shape: 10 32 14 14 (62720)
I0816 22:47:45.349540     7 layer_factory.hpp:74] Creating layer inception_4d/5x5
I0816 22:47:45.349584     7 net.cpp:90] Creating Layer inception_4d/5x5
I0816 22:47:45.349618     7 net.cpp:410] inception_4d/5x5 <- inception_4d/5x5_reduce
I0816 22:47:45.349671     7 net.cpp:368] inception_4d/5x5 -> inception_4d/5x5
I0816 22:47:45.349716     7 net.cpp:120] Setting up inception_4d/5x5
I0816 22:47:45.350397     7 net.cpp:127] Top shape: 10 64 14 14 (125440)
I0816 22:47:45.350445     7 layer_factory.hpp:74] Creating layer inception_4d/relu_5x5
I0816 22:47:45.350482     7 net.cpp:90] Creating Layer inception_4d/relu_5x5
I0816 22:47:45.350514     7 net.cpp:410] inception_4d/relu_5x5 <- inception_4d/5x5
I0816 22:47:45.350558     7 net.cpp:357] inception_4d/relu_5x5 -> inception_4d/5x5 (in-place)
I0816 22:47:45.350600     7 net.cpp:120] Setting up inception_4d/relu_5x5
I0816 22:47:45.350633     7 net.cpp:127] Top shape: 10 64 14 14 (125440)
I0816 22:47:45.350663     7 layer_factory.hpp:74] Creating layer inception_4d/pool
I0816 22:47:45.350700     7 net.cpp:90] Creating Layer inception_4d/pool
I0816 22:47:45.350733     7 net.cpp:410] inception_4d/pool <- inception_4c/output_inception_4c/output_0_split_3
I0816 22:47:45.350767     7 net.cpp:368] inception_4d/pool -> inception_4d/pool
I0816 22:47:45.350805     7 net.cpp:120] Setting up inception_4d/pool
I0816 22:47:45.350857     7 net.cpp:127] Top shape: 10 512 14 14 (1003520)
I0816 22:47:45.350891     7 layer_factory.hpp:74] Creating layer inception_4d/pool_proj
I0816 22:47:45.350934     7 net.cpp:90] Creating Layer inception_4d/pool_proj
I0816 22:47:45.350968     7 net.cpp:410] inception_4d/pool_proj <- inception_4d/pool
I0816 22:47:45.351012     7 net.cpp:368] inception_4d/pool_proj -> inception_4d/pool_proj
I0816 22:47:45.351053     7 net.cpp:120] Setting up inception_4d/pool_proj
I0816 22:47:45.351522     7 net.cpp:127] Top shape: 10 64 14 14 (125440)
I0816 22:47:45.351570     7 layer_factory.hpp:74] Creating layer inception_4d/relu_pool_proj
I0816 22:47:45.351615     7 net.cpp:90] Creating Layer inception_4d/relu_pool_proj
I0816 22:47:45.351647     7 net.cpp:410] inception_4d/relu_pool_proj <- inception_4d/pool_proj
I0816 22:47:45.351680     7 net.cpp:357] inception_4d/relu_pool_proj -> inception_4d/pool_proj (in-place)
I0816 22:47:45.351716     7 net.cpp:120] Setting up inception_4d/relu_pool_proj
I0816 22:47:45.351752     7 net.cpp:127] Top shape: 10 64 14 14 (125440)
I0816 22:47:45.351781     7 layer_factory.hpp:74] Creating layer inception_4d/output
I0816 22:47:45.351814     7 net.cpp:90] Creating Layer inception_4d/output
I0816 22:47:45.351845     7 net.cpp:410] inception_4d/output <- inception_4d/1x1
I0816 22:47:45.351876     7 net.cpp:410] inception_4d/output <- inception_4d/3x3
I0816 22:47:45.351908     7 net.cpp:410] inception_4d/output <- inception_4d/5x5
I0816 22:47:45.351940     7 net.cpp:410] inception_4d/output <- inception_4d/pool_proj
I0816 22:47:45.351986     7 net.cpp:368] inception_4d/output -> inception_4d/output
I0816 22:47:45.352025     7 net.cpp:120] Setting up inception_4d/output
I0816 22:47:45.352064     7 net.cpp:127] Top shape: 10 528 14 14 (1034880)
I0816 22:47:45.352108     7 layer_factory.hpp:74] Creating layer inception_4d/output_inception_4d/output_0_split
I0816 22:47:45.352144     7 net.cpp:90] Creating Layer inception_4d/output_inception_4d/output_0_split
I0816 22:47:45.352174     7 net.cpp:410] inception_4d/output_inception_4d/output_0_split <- inception_4d/output
I0816 22:47:45.352212     7 net.cpp:368] inception_4d/output_inception_4d/output_0_split -> inception_4d/output_inception_4d/output_0_split_0
I0816 22:47:45.352262     7 net.cpp:368] inception_4d/output_inception_4d/output_0_split -> inception_4d/output_inception_4d/output_0_split_1
I0816 22:47:45.352300     7 net.cpp:368] inception_4d/output_inception_4d/output_0_split -> inception_4d/output_inception_4d/output_0_split_2
I0816 22:47:45.352339     7 net.cpp:368] inception_4d/output_inception_4d/output_0_split -> inception_4d/output_inception_4d/output_0_split_3
I0816 22:47:45.352373     7 net.cpp:120] Setting up inception_4d/output_inception_4d/output_0_split
I0816 22:47:45.352409     7 net.cpp:127] Top shape: 10 528 14 14 (1034880)
I0816 22:47:45.352442     7 net.cpp:127] Top shape: 10 528 14 14 (1034880)
I0816 22:47:45.352471     7 net.cpp:127] Top shape: 10 528 14 14 (1034880)
I0816 22:47:45.352500     7 net.cpp:127] Top shape: 10 528 14 14 (1034880)
I0816 22:47:45.352530     7 layer_factory.hpp:74] Creating layer inception_4e/1x1
I0816 22:47:45.352576     7 net.cpp:90] Creating Layer inception_4e/1x1
I0816 22:47:45.352608     7 net.cpp:410] inception_4e/1x1 <- inception_4d/output_inception_4d/output_0_split_0
I0816 22:47:45.352643     7 net.cpp:368] inception_4e/1x1 -> inception_4e/1x1
I0816 22:47:45.352694     7 net.cpp:120] Setting up inception_4e/1x1
I0816 22:47:45.355543     7 net.cpp:127] Top shape: 10 256 14 14 (501760)
I0816 22:47:45.355625     7 layer_factory.hpp:74] Creating layer inception_4e/relu_1x1
I0816 22:47:45.355667     7 net.cpp:90] Creating Layer inception_4e/relu_1x1
I0816 22:47:45.355701     7 net.cpp:410] inception_4e/relu_1x1 <- inception_4e/1x1
I0816 22:47:45.355734     7 net.cpp:357] inception_4e/relu_1x1 -> inception_4e/1x1 (in-place)
I0816 22:47:45.355772     7 net.cpp:120] Setting up inception_4e/relu_1x1
I0816 22:47:45.355805     7 net.cpp:127] Top shape: 10 256 14 14 (501760)
I0816 22:47:45.355835     7 layer_factory.hpp:74] Creating layer inception_4e/3x3_reduce
I0816 22:47:45.355885     7 net.cpp:90] Creating Layer inception_4e/3x3_reduce
I0816 22:47:45.355921     7 net.cpp:410] inception_4e/3x3_reduce <- inception_4d/output_inception_4d/output_0_split_1
I0816 22:47:45.355958     7 net.cpp:368] inception_4e/3x3_reduce -> inception_4e/3x3_reduce
I0816 22:47:45.355996     7 net.cpp:120] Setting up inception_4e/3x3_reduce
I0816 22:47:45.357486     7 net.cpp:127] Top shape: 10 160 14 14 (313600)
I0816 22:47:45.357573     7 layer_factory.hpp:74] Creating layer inception_4e/relu_3x3_reduce
I0816 22:47:45.357621     7 net.cpp:90] Creating Layer inception_4e/relu_3x3_reduce
I0816 22:47:45.357655     7 net.cpp:410] inception_4e/relu_3x3_reduce <- inception_4e/3x3_reduce
I0816 22:47:45.357689     7 net.cpp:357] inception_4e/relu_3x3_reduce -> inception_4e/3x3_reduce (in-place)
I0816 22:47:45.357725     7 net.cpp:120] Setting up inception_4e/relu_3x3_reduce
I0816 22:47:45.357761     7 net.cpp:127] Top shape: 10 160 14 14 (313600)
I0816 22:47:45.357790     7 layer_factory.hpp:74] Creating layer inception_4e/3x3
I0816 22:47:45.357837     7 net.cpp:90] Creating Layer inception_4e/3x3
I0816 22:47:45.357872     7 net.cpp:410] inception_4e/3x3 <- inception_4e/3x3_reduce
I0816 22:47:45.357906     7 net.cpp:368] inception_4e/3x3 -> inception_4e/3x3
I0816 22:47:45.357944     7 net.cpp:120] Setting up inception_4e/3x3
I0816 22:47:45.366015     7 net.cpp:127] Top shape: 10 320 14 14 (627200)
I0816 22:47:45.366199     7 layer_factory.hpp:74] Creating layer inception_4e/relu_3x3
I0816 22:47:45.366268     7 net.cpp:90] Creating Layer inception_4e/relu_3x3
I0816 22:47:45.366331     7 net.cpp:410] inception_4e/relu_3x3 <- inception_4e/3x3
I0816 22:47:45.366397     7 net.cpp:357] inception_4e/relu_3x3 -> inception_4e/3x3 (in-place)
I0816 22:47:45.366466     7 net.cpp:120] Setting up inception_4e/relu_3x3
I0816 22:47:45.366523     7 net.cpp:127] Top shape: 10 320 14 14 (627200)
I0816 22:47:45.366567     7 layer_factory.hpp:74] Creating layer inception_4e/5x5_reduce
I0816 22:47:45.366624     7 net.cpp:90] Creating Layer inception_4e/5x5_reduce
I0816 22:47:45.366668     7 net.cpp:410] inception_4e/5x5_reduce <- inception_4d/output_inception_4d/output_0_split_2
I0816 22:47:45.366739     7 net.cpp:368] inception_4e/5x5_reduce -> inception_4e/5x5_reduce
I0816 22:47:45.366796     7 net.cpp:120] Setting up inception_4e/5x5_reduce
I0816 22:47:45.367120     7 net.cpp:127] Top shape: 10 32 14 14 (62720)
I0816 22:47:45.367192     7 layer_factory.hpp:74] Creating layer inception_4e/relu_5x5_reduce
I0816 22:47:45.367249     7 net.cpp:90] Creating Layer inception_4e/relu_5x5_reduce
I0816 22:47:45.367300     7 net.cpp:410] inception_4e/relu_5x5_reduce <- inception_4e/5x5_reduce
I0816 22:47:45.367374     7 net.cpp:357] inception_4e/relu_5x5_reduce -> inception_4e/5x5_reduce (in-place)
I0816 22:47:45.367419     7 net.cpp:120] Setting up inception_4e/relu_5x5_reduce
I0816 22:47:45.367468     7 net.cpp:127] Top shape: 10 32 14 14 (62720)
I0816 22:47:45.367501     7 layer_factory.hpp:74] Creating layer inception_4e/5x5
I0816 22:47:45.367537     7 net.cpp:90] Creating Layer inception_4e/5x5
I0816 22:47:45.367569     7 net.cpp:410] inception_4e/5x5 <- inception_4e/5x5_reduce
I0816 22:47:45.367610     7 net.cpp:368] inception_4e/5x5 -> inception_4e/5x5
I0816 22:47:45.367650     7 net.cpp:120] Setting up inception_4e/5x5
I0816 22:47:45.369765     7 net.cpp:127] Top shape: 10 128 14 14 (250880)
I0816 22:47:45.369840     7 layer_factory.hpp:74] Creating layer inception_4e/relu_5x5
I0816 22:47:45.369882     7 net.cpp:90] Creating Layer inception_4e/relu_5x5
I0816 22:47:45.369927     7 net.cpp:410] inception_4e/relu_5x5 <- inception_4e/5x5
I0816 22:47:45.369988     7 net.cpp:357] inception_4e/relu_5x5 -> inception_4e/5x5 (in-place)
I0816 22:47:45.370059     7 net.cpp:120] Setting up inception_4e/relu_5x5
I0816 22:47:45.370105     7 net.cpp:127] Top shape: 10 128 14 14 (250880)
I0816 22:47:45.370146     7 layer_factory.hpp:74] Creating layer inception_4e/pool
I0816 22:47:45.370187     7 net.cpp:90] Creating Layer inception_4e/pool
I0816 22:47:45.370226     7 net.cpp:410] inception_4e/pool <- inception_4d/output_inception_4d/output_0_split_3
I0816 22:47:45.370270     7 net.cpp:368] inception_4e/pool -> inception_4e/pool
I0816 22:47:45.370323     7 net.cpp:120] Setting up inception_4e/pool
I0816 22:47:45.370373     7 net.cpp:127] Top shape: 10 528 14 14 (1034880)
I0816 22:47:45.370427     7 layer_factory.hpp:74] Creating layer inception_4e/pool_proj
I0816 22:47:45.370509     7 net.cpp:90] Creating Layer inception_4e/pool_proj
I0816 22:47:45.370565     7 net.cpp:410] inception_4e/pool_proj <- inception_4e/pool
I0816 22:47:45.370643     7 net.cpp:368] inception_4e/pool_proj -> inception_4e/pool_proj
I0816 22:47:45.370712     7 net.cpp:120] Setting up inception_4e/pool_proj
I0816 22:47:45.372895     7 net.cpp:127] Top shape: 10 128 14 14 (250880)
I0816 22:47:45.372959     7 layer_factory.hpp:74] Creating layer inception_4e/relu_pool_proj
I0816 22:47:45.372999     7 net.cpp:90] Creating Layer inception_4e/relu_pool_proj
I0816 22:47:45.373033     7 net.cpp:410] inception_4e/relu_pool_proj <- inception_4e/pool_proj
I0816 22:47:45.373073     7 net.cpp:357] inception_4e/relu_pool_proj -> inception_4e/pool_proj (in-place)
I0816 22:47:45.373116     7 net.cpp:120] Setting up inception_4e/relu_pool_proj
I0816 22:47:45.373153     7 net.cpp:127] Top shape: 10 128 14 14 (250880)
I0816 22:47:45.373183     7 layer_factory.hpp:74] Creating layer inception_4e/output
I0816 22:47:45.373242     7 net.cpp:90] Creating Layer inception_4e/output
I0816 22:47:45.373283     7 net.cpp:410] inception_4e/output <- inception_4e/1x1
I0816 22:47:45.373323     7 net.cpp:410] inception_4e/output <- inception_4e/3x3
I0816 22:47:45.373358     7 net.cpp:410] inception_4e/output <- inception_4e/5x5
I0816 22:47:45.373391     7 net.cpp:410] inception_4e/output <- inception_4e/pool_proj
I0816 22:47:45.373425     7 net.cpp:368] inception_4e/output -> inception_4e/output
I0816 22:47:45.373461     7 net.cpp:120] Setting up inception_4e/output
I0816 22:47:45.373502     7 net.cpp:127] Top shape: 10 832 14 14 (1630720)
I0816 22:47:45.373531     7 layer_factory.hpp:74] Creating layer pool4/3x3_s2
I0816 22:47:45.373590     7 net.cpp:90] Creating Layer pool4/3x3_s2
I0816 22:47:45.373628     7 net.cpp:410] pool4/3x3_s2 <- inception_4e/output
I0816 22:47:45.373664     7 net.cpp:368] pool4/3x3_s2 -> pool4/3x3_s2
I0816 22:47:45.373700     7 net.cpp:120] Setting up pool4/3x3_s2
I0816 22:47:45.373739     7 net.cpp:127] Top shape: 10 832 7 7 (407680)
I0816 22:47:45.373770     7 layer_factory.hpp:74] Creating layer pool4/3x3_s2_pool4/3x3_s2_0_split
I0816 22:47:45.373805     7 net.cpp:90] Creating Layer pool4/3x3_s2_pool4/3x3_s2_0_split
I0816 22:47:45.373836     7 net.cpp:410] pool4/3x3_s2_pool4/3x3_s2_0_split <- pool4/3x3_s2
I0816 22:47:45.373872     7 net.cpp:368] pool4/3x3_s2_pool4/3x3_s2_0_split -> pool4/3x3_s2_pool4/3x3_s2_0_split_0
I0816 22:47:45.373910     7 net.cpp:368] pool4/3x3_s2_pool4/3x3_s2_0_split -> pool4/3x3_s2_pool4/3x3_s2_0_split_1
I0816 22:47:45.373949     7 net.cpp:368] pool4/3x3_s2_pool4/3x3_s2_0_split -> pool4/3x3_s2_pool4/3x3_s2_0_split_2
I0816 22:47:45.373986     7 net.cpp:368] pool4/3x3_s2_pool4/3x3_s2_0_split -> pool4/3x3_s2_pool4/3x3_s2_0_split_3
I0816 22:47:45.374021     7 net.cpp:120] Setting up pool4/3x3_s2_pool4/3x3_s2_0_split
I0816 22:47:45.374056     7 net.cpp:127] Top shape: 10 832 7 7 (407680)
I0816 22:47:45.374089     7 net.cpp:127] Top shape: 10 832 7 7 (407680)
I0816 22:47:45.374119     7 net.cpp:127] Top shape: 10 832 7 7 (407680)
I0816 22:47:45.374150     7 net.cpp:127] Top shape: 10 832 7 7 (407680)
I0816 22:47:45.374178     7 layer_factory.hpp:74] Creating layer inception_5a/1x1
I0816 22:47:45.374217     7 net.cpp:90] Creating Layer inception_5a/1x1
I0816 22:47:45.374249     7 net.cpp:410] inception_5a/1x1 <- pool4/3x3_s2_pool4/3x3_s2_0_split_0
I0816 22:47:45.374284     7 net.cpp:368] inception_5a/1x1 -> inception_5a/1x1
I0816 22:47:45.374321     7 net.cpp:120] Setting up inception_5a/1x1
I0816 22:47:45.377802     7 net.cpp:127] Top shape: 10 256 7 7 (125440)
I0816 22:47:45.377885     7 layer_factory.hpp:74] Creating layer inception_5a/relu_1x1
I0816 22:47:45.377945     7 net.cpp:90] Creating Layer inception_5a/relu_1x1
I0816 22:47:45.377984     7 net.cpp:410] inception_5a/relu_1x1 <- inception_5a/1x1
I0816 22:47:45.378017     7 net.cpp:357] inception_5a/relu_1x1 -> inception_5a/1x1 (in-place)
I0816 22:47:45.378054     7 net.cpp:120] Setting up inception_5a/relu_1x1
I0816 22:47:45.378089     7 net.cpp:127] Top shape: 10 256 7 7 (125440)
I0816 22:47:45.378119     7 layer_factory.hpp:74] Creating layer inception_5a/3x3_reduce
I0816 22:47:45.378156     7 net.cpp:90] Creating Layer inception_5a/3x3_reduce
I0816 22:47:45.378187     7 net.cpp:410] inception_5a/3x3_reduce <- pool4/3x3_s2_pool4/3x3_s2_0_split_1
I0816 22:47:45.378238     7 net.cpp:368] inception_5a/3x3_reduce -> inception_5a/3x3_reduce
I0816 22:47:45.378283     7 net.cpp:120] Setting up inception_5a/3x3_reduce
I0816 22:47:45.381078     7 net.cpp:127] Top shape: 10 160 7 7 (78400)
I0816 22:47:45.381145     7 layer_factory.hpp:74] Creating layer inception_5a/relu_3x3_reduce
I0816 22:47:45.381184     7 net.cpp:90] Creating Layer inception_5a/relu_3x3_reduce
I0816 22:47:45.381242     7 net.cpp:410] inception_5a/relu_3x3_reduce <- inception_5a/3x3_reduce
I0816 22:47:45.381283     7 net.cpp:357] inception_5a/relu_3x3_reduce -> inception_5a/3x3_reduce (in-place)
I0816 22:47:45.381320     7 net.cpp:120] Setting up inception_5a/relu_3x3_reduce
I0816 22:47:45.381362     7 net.cpp:127] Top shape: 10 160 7 7 (78400)
I0816 22:47:45.381399     7 layer_factory.hpp:74] Creating layer inception_5a/3x3
I0816 22:47:45.381438     7 net.cpp:90] Creating Layer inception_5a/3x3
I0816 22:47:45.381475     7 net.cpp:410] inception_5a/3x3 <- inception_5a/3x3_reduce
I0816 22:47:45.381516     7 net.cpp:368] inception_5a/3x3 -> inception_5a/3x3
I0816 22:47:45.381556     7 net.cpp:120] Setting up inception_5a/3x3
I0816 22:47:45.388942     7 net.cpp:127] Top shape: 10 320 7 7 (156800)
I0816 22:47:45.389070     7 layer_factory.hpp:74] Creating layer inception_5a/relu_3x3
I0816 22:47:45.389133     7 net.cpp:90] Creating Layer inception_5a/relu_3x3
I0816 22:47:45.389219     7 net.cpp:410] inception_5a/relu_3x3 <- inception_5a/3x3
I0816 22:47:45.389271     7 net.cpp:357] inception_5a/relu_3x3 -> inception_5a/3x3 (in-place)
I0816 22:47:45.389313     7 net.cpp:120] Setting up inception_5a/relu_3x3
I0816 22:47:45.389355     7 net.cpp:127] Top shape: 10 320 7 7 (156800)
I0816 22:47:45.389387     7 layer_factory.hpp:74] Creating layer inception_5a/5x5_reduce
I0816 22:47:45.389423     7 net.cpp:90] Creating Layer inception_5a/5x5_reduce
I0816 22:47:45.389456     7 net.cpp:410] inception_5a/5x5_reduce <- pool4/3x3_s2_pool4/3x3_s2_0_split_2
I0816 22:47:45.389497     7 net.cpp:368] inception_5a/5x5_reduce -> inception_5a/5x5_reduce
I0816 22:47:45.389535     7 net.cpp:120] Setting up inception_5a/5x5_reduce
I0816 22:47:45.389895     7 net.cpp:127] Top shape: 10 32 7 7 (15680)
I0816 22:47:45.389938     7 layer_factory.hpp:74] Creating layer inception_5a/relu_5x5_reduce
I0816 22:47:45.389976     7 net.cpp:90] Creating Layer inception_5a/relu_5x5_reduce
I0816 22:47:45.390008     7 net.cpp:410] inception_5a/relu_5x5_reduce <- inception_5a/5x5_reduce
I0816 22:47:45.390041     7 net.cpp:357] inception_5a/relu_5x5_reduce -> inception_5a/5x5_reduce (in-place)
I0816 22:47:45.390077     7 net.cpp:120] Setting up inception_5a/relu_5x5_reduce
I0816 22:47:45.390112     7 net.cpp:127] Top shape: 10 32 7 7 (15680)
I0816 22:47:45.390141     7 layer_factory.hpp:74] Creating layer inception_5a/5x5
I0816 22:47:45.390182     7 net.cpp:90] Creating Layer inception_5a/5x5
I0816 22:47:45.390220     7 net.cpp:410] inception_5a/5x5 <- inception_5a/5x5_reduce
I0816 22:47:45.390262     7 net.cpp:368] inception_5a/5x5 -> inception_5a/5x5
I0816 22:47:45.390300     7 net.cpp:120] Setting up inception_5a/5x5
I0816 22:47:45.391486     7 net.cpp:127] Top shape: 10 128 7 7 (62720)
I0816 22:47:45.391549     7 layer_factory.hpp:74] Creating layer inception_5a/relu_5x5
I0816 22:47:45.391592     7 net.cpp:90] Creating Layer inception_5a/relu_5x5
I0816 22:47:45.391624     7 net.cpp:410] inception_5a/relu_5x5 <- inception_5a/5x5
I0816 22:47:45.391657     7 net.cpp:357] inception_5a/relu_5x5 -> inception_5a/5x5 (in-place)
I0816 22:47:45.391695     7 net.cpp:120] Setting up inception_5a/relu_5x5
I0816 22:47:45.391728     7 net.cpp:127] Top shape: 10 128 7 7 (62720)
I0816 22:47:45.391758     7 layer_factory.hpp:74] Creating layer inception_5a/pool
I0816 22:47:45.391834     7 net.cpp:90] Creating Layer inception_5a/pool
I0816 22:47:45.391868     7 net.cpp:410] inception_5a/pool <- pool4/3x3_s2_pool4/3x3_s2_0_split_3
I0816 22:47:45.391908     7 net.cpp:368] inception_5a/pool -> inception_5a/pool
I0816 22:47:45.391947     7 net.cpp:120] Setting up inception_5a/pool
I0816 22:47:45.391990     7 net.cpp:127] Top shape: 10 832 7 7 (407680)
I0816 22:47:45.392022     7 layer_factory.hpp:74] Creating layer inception_5a/pool_proj
I0816 22:47:45.392058     7 net.cpp:90] Creating Layer inception_5a/pool_proj
I0816 22:47:45.392089     7 net.cpp:410] inception_5a/pool_proj <- inception_5a/pool
I0816 22:47:45.392129     7 net.cpp:368] inception_5a/pool_proj -> inception_5a/pool_proj
I0816 22:47:45.392168     7 net.cpp:120] Setting up inception_5a/pool_proj
I0816 22:47:45.393419     7 net.cpp:127] Top shape: 10 128 7 7 (62720)
I0816 22:47:45.393481     7 layer_factory.hpp:74] Creating layer inception_5a/relu_pool_proj
I0816 22:47:45.393523     7 net.cpp:90] Creating Layer inception_5a/relu_pool_proj
I0816 22:47:45.393555     7 net.cpp:410] inception_5a/relu_pool_proj <- inception_5a/pool_proj
I0816 22:47:45.393589     7 net.cpp:357] inception_5a/relu_pool_proj -> inception_5a/pool_proj (in-place)
I0816 22:47:45.393625     7 net.cpp:120] Setting up inception_5a/relu_pool_proj
I0816 22:47:45.393661     7 net.cpp:127] Top shape: 10 128 7 7 (62720)
I0816 22:47:45.393689     7 layer_factory.hpp:74] Creating layer inception_5a/output
I0816 22:47:45.393723     7 net.cpp:90] Creating Layer inception_5a/output
I0816 22:47:45.393757     7 net.cpp:410] inception_5a/output <- inception_5a/1x1
I0816 22:47:45.393790     7 net.cpp:410] inception_5a/output <- inception_5a/3x3
I0816 22:47:45.393833     7 net.cpp:410] inception_5a/output <- inception_5a/5x5
I0816 22:47:45.393865     7 net.cpp:410] inception_5a/output <- inception_5a/pool_proj
I0816 22:47:45.393899     7 net.cpp:368] inception_5a/output -> inception_5a/output
I0816 22:47:45.393934     7 net.cpp:120] Setting up inception_5a/output
I0816 22:47:45.393973     7 net.cpp:127] Top shape: 10 832 7 7 (407680)
I0816 22:47:45.394004     7 layer_factory.hpp:74] Creating layer inception_5a/output_inception_5a/output_0_split
I0816 22:47:45.394047     7 net.cpp:90] Creating Layer inception_5a/output_inception_5a/output_0_split
I0816 22:47:45.394086     7 net.cpp:410] inception_5a/output_inception_5a/output_0_split <- inception_5a/output
I0816 22:47:45.394121     7 net.cpp:368] inception_5a/output_inception_5a/output_0_split -> inception_5a/output_inception_5a/output_0_split_0
I0816 22:47:45.394168     7 net.cpp:368] inception_5a/output_inception_5a/output_0_split -> inception_5a/output_inception_5a/output_0_split_1
I0816 22:47:45.394207     7 net.cpp:368] inception_5a/output_inception_5a/output_0_split -> inception_5a/output_inception_5a/output_0_split_2
I0816 22:47:45.394245     7 net.cpp:368] inception_5a/output_inception_5a/output_0_split -> inception_5a/output_inception_5a/output_0_split_3
I0816 22:47:45.394281     7 net.cpp:120] Setting up inception_5a/output_inception_5a/output_0_split
I0816 22:47:45.394317     7 net.cpp:127] Top shape: 10 832 7 7 (407680)
I0816 22:47:45.394348     7 net.cpp:127] Top shape: 10 832 7 7 (407680)
I0816 22:47:45.394379     7 net.cpp:127] Top shape: 10 832 7 7 (407680)
I0816 22:47:45.394409     7 net.cpp:127] Top shape: 10 832 7 7 (407680)
I0816 22:47:45.394438     7 layer_factory.hpp:74] Creating layer inception_5b/1x1
I0816 22:47:45.394476     7 net.cpp:90] Creating Layer inception_5b/1x1
I0816 22:47:45.394507     7 net.cpp:410] inception_5b/1x1 <- inception_5a/output_inception_5a/output_0_split_0
I0816 22:47:45.394542     7 net.cpp:368] inception_5b/1x1 -> inception_5b/1x1
I0816 22:47:45.394579     7 net.cpp:120] Setting up inception_5b/1x1
I0816 22:47:45.399408     7 net.cpp:127] Top shape: 10 384 7 7 (188160)
I0816 22:47:45.399504     7 layer_factory.hpp:74] Creating layer inception_5b/relu_1x1
I0816 22:47:45.399549     7 net.cpp:90] Creating Layer inception_5b/relu_1x1
I0816 22:47:45.399582     7 net.cpp:410] inception_5b/relu_1x1 <- inception_5b/1x1
I0816 22:47:45.399619     7 net.cpp:357] inception_5b/relu_1x1 -> inception_5b/1x1 (in-place)
I0816 22:47:45.399682     7 net.cpp:120] Setting up inception_5b/relu_1x1
I0816 22:47:45.399726     7 net.cpp:127] Top shape: 10 384 7 7 (188160)
I0816 22:47:45.399756     7 layer_factory.hpp:74] Creating layer inception_5b/3x3_reduce
I0816 22:47:45.399797     7 net.cpp:90] Creating Layer inception_5b/3x3_reduce
I0816 22:47:45.399829     7 net.cpp:410] inception_5b/3x3_reduce <- inception_5a/output_inception_5a/output_0_split_1
I0816 22:47:45.399866     7 net.cpp:368] inception_5b/3x3_reduce -> inception_5b/3x3_reduce
I0816 22:47:45.399909     7 net.cpp:120] Setting up inception_5b/3x3_reduce
I0816 22:47:45.402045     7 net.cpp:127] Top shape: 10 192 7 7 (94080)
I0816 22:47:45.402122     7 layer_factory.hpp:74] Creating layer inception_5b/relu_3x3_reduce
I0816 22:47:45.402166     7 net.cpp:90] Creating Layer inception_5b/relu_3x3_reduce
I0816 22:47:45.402199     7 net.cpp:410] inception_5b/relu_3x3_reduce <- inception_5b/3x3_reduce
I0816 22:47:45.402240     7 net.cpp:357] inception_5b/relu_3x3_reduce -> inception_5b/3x3_reduce (in-place)
I0816 22:47:45.402278     7 net.cpp:120] Setting up inception_5b/relu_3x3_reduce
I0816 22:47:45.402313     7 net.cpp:127] Top shape: 10 192 7 7 (94080)
I0816 22:47:45.402343     7 layer_factory.hpp:74] Creating layer inception_5b/3x3
I0816 22:47:45.402379     7 net.cpp:90] Creating Layer inception_5b/3x3
I0816 22:47:45.402408     7 net.cpp:410] inception_5b/3x3 <- inception_5b/3x3_reduce
I0816 22:47:45.402448     7 net.cpp:368] inception_5b/3x3 -> inception_5b/3x3
I0816 22:47:45.402498     7 net.cpp:120] Setting up inception_5b/3x3
I0816 22:47:45.409847     7 net.cpp:127] Top shape: 10 384 7 7 (188160)
I0816 22:47:45.410006     7 layer_factory.hpp:74] Creating layer inception_5b/relu_3x3
I0816 22:47:45.410070     7 net.cpp:90] Creating Layer inception_5b/relu_3x3
I0816 22:47:45.410111     7 net.cpp:410] inception_5b/relu_3x3 <- inception_5b/3x3
I0816 22:47:45.410151     7 net.cpp:357] inception_5b/relu_3x3 -> inception_5b/3x3 (in-place)
I0816 22:47:45.410193     7 net.cpp:120] Setting up inception_5b/relu_3x3
I0816 22:47:45.410229     7 net.cpp:127] Top shape: 10 384 7 7 (188160)
I0816 22:47:45.410259     7 layer_factory.hpp:74] Creating layer inception_5b/5x5_reduce
I0816 22:47:45.410297     7 net.cpp:90] Creating Layer inception_5b/5x5_reduce
I0816 22:47:45.410329     7 net.cpp:410] inception_5b/5x5_reduce <- inception_5a/output_inception_5a/output_0_split_2
I0816 22:47:45.410370     7 net.cpp:368] inception_5b/5x5_reduce -> inception_5b/5x5_reduce
I0816 22:47:45.410410     7 net.cpp:120] Setting up inception_5b/5x5_reduce
I0816 22:47:45.410915     7 net.cpp:127] Top shape: 10 48 7 7 (23520)
I0816 22:47:45.410959     7 layer_factory.hpp:74] Creating layer inception_5b/relu_5x5_reduce
I0816 22:47:45.410995     7 net.cpp:90] Creating Layer inception_5b/relu_5x5_reduce
I0816 22:47:45.411026     7 net.cpp:410] inception_5b/relu_5x5_reduce <- inception_5b/5x5_reduce
I0816 22:47:45.411058     7 net.cpp:357] inception_5b/relu_5x5_reduce -> inception_5b/5x5_reduce (in-place)
I0816 22:47:45.411095     7 net.cpp:120] Setting up inception_5b/relu_5x5_reduce
I0816 22:47:45.411129     7 net.cpp:127] Top shape: 10 48 7 7 (23520)
I0816 22:47:45.411159     7 layer_factory.hpp:74] Creating layer inception_5b/5x5
I0816 22:47:45.411200     7 net.cpp:90] Creating Layer inception_5b/5x5
I0816 22:47:45.411232     7 net.cpp:410] inception_5b/5x5 <- inception_5b/5x5_reduce
I0816 22:47:45.411267     7 net.cpp:368] inception_5b/5x5 -> inception_5b/5x5
I0816 22:47:45.411304     7 net.cpp:120] Setting up inception_5b/5x5
I0816 22:47:45.413084     7 net.cpp:127] Top shape: 10 128 7 7 (62720)
I0816 22:47:45.413147     7 layer_factory.hpp:74] Creating layer inception_5b/relu_5x5
I0816 22:47:45.413187     7 net.cpp:90] Creating Layer inception_5b/relu_5x5
I0816 22:47:45.413244     7 net.cpp:410] inception_5b/relu_5x5 <- inception_5b/5x5
I0816 22:47:45.413285     7 net.cpp:357] inception_5b/relu_5x5 -> inception_5b/5x5 (in-place)
I0816 22:47:45.413322     7 net.cpp:120] Setting up inception_5b/relu_5x5
I0816 22:47:45.413357     7 net.cpp:127] Top shape: 10 128 7 7 (62720)
I0816 22:47:45.413386     7 layer_factory.hpp:74] Creating layer inception_5b/pool
I0816 22:47:45.413424     7 net.cpp:90] Creating Layer inception_5b/pool
I0816 22:47:45.413455     7 net.cpp:410] inception_5b/pool <- inception_5a/output_inception_5a/output_0_split_3
I0816 22:47:45.413501     7 net.cpp:368] inception_5b/pool -> inception_5b/pool
I0816 22:47:45.413542     7 net.cpp:120] Setting up inception_5b/pool
I0816 22:47:45.413583     7 net.cpp:127] Top shape: 10 832 7 7 (407680)
I0816 22:47:45.413615     7 layer_factory.hpp:74] Creating layer inception_5b/pool_proj
I0816 22:47:45.413651     7 net.cpp:90] Creating Layer inception_5b/pool_proj
I0816 22:47:45.413682     7 net.cpp:410] inception_5b/pool_proj <- inception_5b/pool
I0816 22:47:45.413727     7 net.cpp:368] inception_5b/pool_proj -> inception_5b/pool_proj
I0816 22:47:45.413768     7 net.cpp:120] Setting up inception_5b/pool_proj
I0816 22:47:45.414947     7 net.cpp:127] Top shape: 10 128 7 7 (62720)
I0816 22:47:45.415031     7 layer_factory.hpp:74] Creating layer inception_5b/relu_pool_proj
I0816 22:47:45.415077     7 net.cpp:90] Creating Layer inception_5b/relu_pool_proj
I0816 22:47:45.415108     7 net.cpp:410] inception_5b/relu_pool_proj <- inception_5b/pool_proj
I0816 22:47:45.415143     7 net.cpp:357] inception_5b/relu_pool_proj -> inception_5b/pool_proj (in-place)
I0816 22:47:45.415179     7 net.cpp:120] Setting up inception_5b/relu_pool_proj
I0816 22:47:45.415215     7 net.cpp:127] Top shape: 10 128 7 7 (62720)
I0816 22:47:45.415263     7 layer_factory.hpp:74] Creating layer inception_5b/output
I0816 22:47:45.415298     7 net.cpp:90] Creating Layer inception_5b/output
I0816 22:47:45.415340     7 net.cpp:410] inception_5b/output <- inception_5b/1x1
I0816 22:47:45.415375     7 net.cpp:410] inception_5b/output <- inception_5b/3x3
I0816 22:47:45.415408     7 net.cpp:410] inception_5b/output <- inception_5b/5x5
I0816 22:47:45.415441     7 net.cpp:410] inception_5b/output <- inception_5b/pool_proj
I0816 22:47:45.415484     7 net.cpp:368] inception_5b/output -> inception_5b/output
I0816 22:47:45.415537     7 net.cpp:120] Setting up inception_5b/output
I0816 22:47:45.415583     7 net.cpp:127] Top shape: 10 1024 7 7 (501760)
I0816 22:47:45.415614     7 layer_factory.hpp:74] Creating layer pool5/7x7_s1
I0816 22:47:45.415649     7 net.cpp:90] Creating Layer pool5/7x7_s1
I0816 22:47:45.415680     7 net.cpp:410] pool5/7x7_s1 <- inception_5b/output
I0816 22:47:45.415722     7 net.cpp:368] pool5/7x7_s1 -> pool5/7x7_s1
I0816 22:47:45.415760     7 net.cpp:120] Setting up pool5/7x7_s1
I0816 22:47:45.415796     7 net.cpp:127] Top shape: 10 1024 1 1 (10240)
I0816 22:47:45.415827     7 layer_factory.hpp:74] Creating layer pool5/drop_7x7_s1
I0816 22:47:45.416193     7 net.cpp:90] Creating Layer pool5/drop_7x7_s1
I0816 22:47:45.416240     7 net.cpp:410] pool5/drop_7x7_s1 <- pool5/7x7_s1
I0816 22:47:45.416277     7 net.cpp:357] pool5/drop_7x7_s1 -> pool5/7x7_s1 (in-place)
I0816 22:47:45.416316     7 net.cpp:120] Setting up pool5/drop_7x7_s1
I0816 22:47:45.416357     7 net.cpp:127] Top shape: 10 1024 1 1 (10240)
I0816 22:47:45.416388     7 layer_factory.hpp:74] Creating layer loss3/classifier
I0816 22:47:45.416442     7 net.cpp:90] Creating Layer loss3/classifier
I0816 22:47:45.416477     7 net.cpp:410] loss3/classifier <- pool5/7x7_s1
I0816 22:47:45.416512     7 net.cpp:368] loss3/classifier -> loss3/classifier
I0816 22:47:45.416550     7 net.cpp:120] Setting up loss3/classifier
I0816 22:47:45.442961     7 net.cpp:127] Top shape: 10 1000 (10000)
I0816 22:47:45.443176     7 layer_factory.hpp:74] Creating layer prob
I0816 22:47:45.443248     7 net.cpp:90] Creating Layer prob
I0816 22:47:45.443306     7 net.cpp:410] prob <- loss3/classifier
I0816 22:47:45.443380     7 net.cpp:368] prob -> prob
I0816 22:47:45.443444     7 net.cpp:120] Setting up prob
I0816 22:47:45.443506     7 net.cpp:127] Top shape: 10 1000 (10000)
I0816 22:47:45.443539     7 net.cpp:194] prob does not need backward computation.
I0816 22:47:45.443569     7 net.cpp:194] loss3/classifier does not need backward computation.
I0816 22:47:45.443598     7 net.cpp:194] pool5/drop_7x7_s1 does not need backward computation.
I0816 22:47:45.443627     7 net.cpp:194] pool5/7x7_s1 does not need backward computation.
I0816 22:47:45.443655     7 net.cpp:194] inception_5b/output does not need backward computation.
…
  File "/usr/lib/python2.7/multiprocessing/process.py", line 114, in run
    self._target(*self._args, **self._kwargs)
TypeError: start() takes exactly 1 argument (25 given)
BLOCKING.......
.gitkeep
libdc1394 error: Failed to initialize libdc1394
highresmountain.jpeg
highresnyc.jpeg
highresMediterranean1.JPG
WARNING: Logging before InitGoogleLogging() is written to STDERR
I0817 02:25:14.662163  3141 net.cpp:42] Initializing net from parameters: 
name: "GoogleNet"
input: "data"
input_dim: 10
input_dim: 3
input_dim: 224
input_dim: 224
force_backward: true
state {
  phase: TEST
}
layer {
  name: "conv1/7x7_s2"
  type: "Convolution"
  bottom: "data"
  top: "conv1/7x7_s2"
  param {
    lr_mult: 1
    decay_mult: 1
  }
  param {
    lr_mult: 2
    decay_mult: 0
  }
  convolution_param {
    num_output: 64
    pad: 3
    kernel_size: 7
    stride: 2
    weight_filler {
      type: "xavier"
      std: 0.1
    }
    bias_filler {
      type: "constant"
      value: 0.2
    }
  }
}
layer {
  name: "conv1/relu_7x7"
  type: "ReLU"
  bottom: "conv1/7x7_s2"
  top: "conv1/7x7_s2"
}
layer {
  name: "pool1/3x3_s2"
  type: "Pooling"
  bottom: "conv1/7x7_s2"
  top: "pool1/3x3_s2"
  pooling_param {
    pool: MAX
    kernel_size: 3
    stride: 2
  }
}
layer {
  name: "pool1/norm1"
  type: "LRN"
  bottom: "pool1/3x3_s2"
  top: "pool1/norm1"
  lrn_param {
    local_size: 5
    alpha: 0.0001
    beta: 0.75
  }
}
layer {
  name: "conv2/3x3_reduce"
  type: "Convolution"
  bottom: "pool1/norm1"
  top: "conv2/3x3_reduce"
  param {
    lr_mult: 1
    decay_mult: 1
  }
  param {
    lr_mult: 2
    decay_mult: 0
  }
  convolution_param {
    num_output: 64
    kernel_size: 1
    weight_filler {
      type: "xavier"
      std: 0.1
    }
    bias_filler {
      type: "constant"
      value: 0.2
    }
  }
}
layer {
  name: "conv2/relu_3x3_reduce"
  type: "ReLU"
  bottom: "conv2/3x3_reduce"
  top: "conv2/3x3_reduce"
}
layer {
  name: "conv2/3x3"
  type: "Convolution"
  bottom: "conv2/3x3_reduce"
  top: "conv2/3x3"
  param {
    lr_mult: 1
    decay_mult: 1
  }
  param {
    lr_mult: 2
    decay_mult: 0
  }
  convolution_param {
    num_output: 192
    pad: 1
    kernel_size: 3
    weight_filler {
      type: "xavier"
      std: 0.03
    }
    bias_filler {
      type: "constant"
      value: 0.2
    }
  }
}
layer {
  name: "conv2/relu_3x3"
  type: "ReLU"
  bottom: "conv2/3x3"
  top: "conv2/3x3"
}
layer {
  name: "conv2/norm2"
  type: "LRN"
  bottom: "conv2/3x3"
  top: "conv2/norm2"
  lrn_param {
    local_size: 5
    alpha: 0.0001
    beta: 0.75
  }
}
layer {
  name: "pool2/3x3_s2"
  type: "Pooling"
  bottom: "conv2/norm2"
  top: "pool2/3x3_s2"
  pooling_param {
    pool: MAX
    kernel_size: 3
    stride: 2
  }
}
layer {
  name: "inception_3a/1x1"
  type: "Convolution"
  bottom: "pool2/3x3_s2"
  top: "inception_3a/1x1"
  param {
    lr_mult: 1
    decay_mult: 1
  }
  param {
    lr_mult: 2
    decay_mult: 0
  }
  convolution_param {
    num_output: 64
    kernel_size: 1
    weight_filler {
      type: "xavier"
      std: 0.03
    }
    bias_filler {
      type: "constant"
      value: 0.2
    }
  }
}
layer {
  name: "inception_3a/relu_1x1"
  type: "ReLU"
  bottom: "inception_3a/1x1"
  top: "inception_3a/1x1"
}
layer {
  name: "inception_3a/3x3_reduce"
  type: "Convolution"
  bottom: "pool2/3x3_s2"
  top: "inception_3a/3x3_reduce"
  param {
    lr_mult: 1
    decay_mult: 1
  }
  param {
    lr_mult: 2
    decay_mult: 0
  }
  convolution_param {
    num_output: 96
    kernel_size: 1
    weight_filler {
      type: "xavier"
      std: 0.09
    }
    bias_filler {
      type: "constant"
      value: 0.2
    }
  }
}
layer {
  name: "inception_3a/relu_3x3_reduce"
  type: "ReLU"
  bottom: "inception_3a/3x3_reduce"
  top: "inception_3a/3x3_reduce"
}
layer {
  name: "inception_3a/3x3"
  type: "Convolution"
  bottom: "inception_3a/3x3_reduce"
  top: "inception_3a/3x3"
  param {
    lr_mult: 1
    decay_mult: 1
  }
  param {
    lr_mult: 2
    decay_mult: 0
  }
  convolution_param {
    num_output: 128
    pad: 1
    kernel_size: 3
    weight_filler {
      type: "xavier"
      std: 0.03
    }
    bias_filler {
      type: "constant"
      value: 0.2
    }
  }
}
layer {
  name: "inception_3a/relu_3x3"
  type: "ReLU"
  bottom: "inception_3a/3x3"
  top: "inception_3a/3x3"
}
layer {
  name: "inception_3a/5x5_reduce"
  type: "Convolution"
  bottom: "pool2/3x3_s2"
  top: "inception_3a/5x5_reduce"
  param {
    lr_mult: 1
    decay_mult: 1
  }
  param {
    lr_mult: 2
    decay_mult: 0
  }
  convolution_param {
    num_output: 16
    kernel_size: 1
    weight_filler {
      type: "xavier"
      std: 0.2
    }
    bias_filler {
      type: "constant"
      value: 0.2
    }
  }
}
layer {
  name: "inception_3a/relu_5x5_reduce"
  type: "ReLU"
  bottom: "inception_3a/5x5_reduce"
  top: "inception_3a/5x5_reduce"
}
layer {
  name: "inception_3a/5x5"
  type: "Convolution"
  bottom: "inception_3a/5x5_reduce"
  top: "inception_3a/5x5"
  param {
    lr_mult: 1
    decay_mult: 1
  }
  param {
    lr_mult: 2
    decay_mult: 0
  }
  convolution_param {
    num_output: 32
    pad: 2
    kernel_size: 5
    weight_filler {
      type: "xavier"
      std: 0.03
    }
    bias_filler {
      type: "constant"
      value: 0.2
    }
  }
}
layer {
  name: "inception_3a/relu_5x5"
  type: "ReLU"
  bottom: "inception_3a/5x5"
  top: "inception_3a/5x5"
}
layer {
  name: "inception_3a/pool"
  type: "Pooling"
  bottom: "pool2/3x3_s2"
  top: "inception_3a/pool"
  pooling_param {
    pool: MAX
    kernel_size: 3
    stride: 1
    pad: 1
  }
}
layer {
  name: "inception_3a/pool_proj"
  type: "Convolution"
  bottom: "inception_3a/pool"
  top: "inception_3a/pool_proj"
  param {
    lr_mult: 1
    decay_mult: 1
  }
  param {
    lr_mult: 2
    decay_mult: 0
  }
  convolution_param {
    num_output: 32
    kernel_size: 1
    weight_filler {
      type: "xavier"
      std: 0.1
    }
    bias_filler {
      type: "constant"
      value: 0.2
    }
  }
}
layer {
  name: "inception_3a/relu_pool_proj"
  type: "ReLU"
  bottom: "inception_3a/pool_proj"
  top: "inception_3a/pool_proj"
}
layer {
  name: "inception_3a/output"
  type: "Concat"
  bottom: "inception_3a/1x1"
  bottom: "inception_3a/3x3"
  bottom: "inception_3a/5x5"
  bottom: "inception_3a/pool_proj"
  top: "inception_3a/output"
}
layer {
  name: "inception_3b/1x1"
  type: "Convolution"
  bottom: "inception_3a/output"
  top: "inception_3b/1x1"
  param {
    lr_mult: 1
    decay_mult: 1
  }
  param {
    lr_mult: 2
    decay_mult: 0
  }
  convolution_param {
    num_output: 128
    kernel_size: 1
    weight_filler {
      type: "xavier"
      std: 0.03
    }
    bias_filler {
      type: "constant"
      value: 0.2
    }
  }
}
layer {
  name: "inception_3b/relu_1x1"
  type: "ReLU"
  bottom: "inception_3b/1x1"
  top: "inception_3b/1x1"
}
layer {
  name: "inception_3b/3x3_reduce"
  type: "Convolution"
  bottom: "inception_3a/output"
  top: "inception_3b/3x3_reduce"
  param {
    lr_mult: 1
    decay_mult: 1
  }
  param {
    lr_mult: 2
    decay_mult: 0
  }
  convolution_param {
    num_output: 128
    kernel_size: 1
    weight_filler {
      type: "xavier"
      std: 0.09
    }
    bias_filler {
      type: "constant"
      value: 0.2
    }
  }
}
layer {
  name: "inception_3b/relu_3x3_reduce"
  type: "ReLU"
  bottom: "inception_3b/3x3_reduce"
  top: "inception_3b/3x3_reduce"
}
layer {
  name: "inception_3b/3x3"
  type: "Convolution"
  bottom: "inception_3b/3x3_reduce"
  top: "inception_3b/3x3"
  param {
    lr_mult: 1
    decay_mult: 1
  }
  param {
    lr_mult: 2
    decay_mult: 0
  }
  convolution_param {
    num_output: 192
    pad: 1
    kernel_size: 3
    weight_filler {
      type: "xavier"
      std: 0.03
    }
    bias_filler {
      type: "constant"
      value: 0.2
    }
  }
}
layer {
  name: "inception_3b/relu_3x3"
  type: "ReLU"
  bottom: "inception_3b/3x3"
  top: "inception_3b/3x3"
}
layer {
  name: "inception_3b/5x5_reduce"
  type: "Convolution"
  bottom: "inception_3a/output"
  top: "inception_3b/5x5_reduce"
  param {
    lr_mult: 1
    decay_mult: 1
  }
  param {
    lr_mult: 2
    decay_mult: 0
  }
  convolution_param {
    num_output: 32
    kernel_size: 1
    weight_filler {
      type: "xavier"
      std: 0.2
    }
    bias_filler {
      type: "constant"
      value: 0.2
    }
  }
}
layer {
  name: "inception_3b/relu_5x5_reduce"
  type: "ReLU"
  bottom: "inception_3b/5x5_reduce"
  top: "inception_3b/5x5_reduce"
}
layer {
  name: "inception_3b/5x5"
  type: "Convolution"
  bottom: "inception_3b/5x5_reduce"
  top: "inception_3b/5x5"
  param {
    lr_mult: 1
    decay_mult: 1
  }
  param {
    lr_mult: 2
    decay_mult: 0
  }
  convolution_param {
    num_output: 96
    pad: 2
    kernel_size: 5
    weight_filler {
      type: "xavier"
      std: 0.03
    }
    bias_filler {
      type: "constant"
      value: 0.2
    }
  }
}
layer {
  name: "inception_3b/relu_5x5"
  type: "ReLU"
  bottom: "inception_3b/5x5"
  top: "inception_3b/5x5"
}
layer {
  name: "inception_3b/pool"
  type: "Pooling"
  bottom: "inception_3a/output"
  top: "inception_3b/pool"
  pooling_param {
    pool: MAX
    kernel_size: 3
    stride: 1
    pad: 1
  }
}
layer {
  name: "inception_3b/pool_proj"
  type: "Convolution"
  bottom: "inception_3b/pool"
  top: "inception_3b/pool_proj"
  param {
    lr_mult: 1
    decay_mult: 1
  }
  param {
    lr_mult: 2
    decay_mult: 0
  }
  convolution_param {
    num_output: 64
    kernel_size: 1
    weight_filler {
      type: "xavier"
      std: 0.1
    }
    bias_filler {
      type: "constant"
      value: 0.2
    }
  }
}
layer {
  name: "inception_3b/relu_pool_proj"
  type: "ReLU"
  bottom: "inception_3b/pool_proj"
  top: "inception_3b/pool_proj"
}
layer {
  name: "inception_3b/output"
  type: "Concat"
  bottom: "inception_3b/1x1"
  bottom: "inception_3b/3x3"
  bottom: "inception_3b/5x5"
  bottom: "inception_3b/pool_proj"
  top: "inception_3b/output"
}
layer {
  name: "pool3/3x3_s2"
  type: "Pooling"
  bottom: "inception_3b/output"
  top: "pool3/3x3_s2"
  pooling_param {
    pool: MAX
    kernel_size: 3
    stride: 2
  }
}
layer {
  name: "inception_4a/1x1"
  type: "Convolution"
  bottom: "pool3/3x3_s2"
  top: "inception_4a/1x1"
  param {
    lr_mult: 1
    decay_mult: 1
  }
  param {
    lr_mult: 2
    decay_mult: 0
  }
  convolution_param {
    num_output: 192
    kernel_size: 1
    weight_filler {
      type: "xavier"
      std: 0.03
    }
    bias_filler {
      type: "constant"
      value: 0.2
    }
  }
}
layer {
  name: "inception_4a/relu_1x1"
  type: "ReLU"
  bottom: "inception_4a/1x1"
  top: "inception_4a/1x1"
}
layer {
  name: "inception_4a/3x3_reduce"
  type: "Convolution"
  bottom: "pool3/3x3_s2"
  top: "inception_4a/3x3_reduce"
  param {
    lr_mult: 1
    decay_mult: 1
  }
  param {
    lr_mult: 2
    decay_mult: 0
  }
  convolution_param {
    num_output: 96
    kernel_size: 1
    weight_filler {
      type: "xavier"
      std: 0.09
    }
    bias_filler {
      type: "constant"
      value: 0.2
    }
  }
}
layer {
  name: "inception_4a/relu_3x3_reduce"
  type: "ReLU"
  bottom: "inception_4a/3x3_reduce"
  top: "inception_4a/3x3_reduce"
}
layer {
  name: "inception_4a/3x3"
  type: "Convolution"
  bottom: "inception_4a/3x3_reduce"
  top: "inception_4a/3x3"
  param {
    lr_mult: 1
    decay_mult: 1
  }
  param {
    lr_mult: 2
    decay_mult: 0
  }
  convolution_param {
    num_output: 208
    pad: 1
    kernel_size: 3
    weight_filler {
      type: "xavier"
      std: 0.03
    }
    bias_filler {
      type: "constant"
      value: 0.2
    }
  }
}
layer {
  name: "inception_4a/relu_3x3"
  type: "ReLU"
  bottom: "inception_4a/3x3"
  top: "inception_4a/3x3"
}
layer {
  name: "inception_4a/5x5_reduce"
  type: "Convolution"
  bottom: "pool3/3x3_s2"
  top: "inception_4a/5x5_reduce"
  param {
    lr_mult: 1
    decay_mult: 1
  }
  param {
    lr_mult: 2
    decay_mult: 0
  }
  convolution_param {
    num_output: 16
    kernel_size: 1
    weight_filler {
      type: "xavier"
      std: 0.2
    }
    bias_filler {
      type: "constant"
      value: 0.2
    }
  }
}
layer {
  name: "inception_4a/relu_5x5_reduce"
  type: "ReLU"
  bottom: "inception_4a/5x5_reduce"
  top: "inception_4a/5x5_reduce"
}
layer {
  name: "inception_4a/5x5"
  type: "Convolution"
  bottom: "inception_4a/5x5_reduce"
  top: "inception_4a/5x5"
  param {
    lr_mult: 1
    decay_mult: 1
  }
  param {
    lr_mult: 2
    decay_mult: 0
  }
  convolution_param {
    num_output: 48
    pad: 2
    kernel_size: 5
    weight_filler {
      type: "xavier"
      std: 0.03
    }
    bias_filler {
      type: "constant"
      value: 0.2
    }
  }
}
layer {
  name: "inception_4a/relu_5x5"
  type: "ReLU"
  bottom: "inception_4a/5x5"
  top: "inception_4a/5x5"
}
layer {
  name: "inception_4a/pool"
  type: "Pooling"
  bottom: "pool3/3x3_s2"
  top: "inception_4a/pool"
  pooling_param {
    pool: MAX
    kernel_size: 3
    stride: 1
    pad: 1
  }
}
layer {
  name: "inception_4a/pool_proj"
  type: "Convolution"
  bottom: "inception_4a/pool"
  top: "inception_4a/pool_proj"
  param {
    lr_mult: 1
    decay_mult: 1
  }
  param {
    lr_mult: 2
    decay_mult: 0
  }
  convolution_param {
    num_output: 64
    kernel_size: 1
    weight_filler {
      type: "xavier"
      std: 0.1
    }
    bias_filler {
      type: "constant"
      value: 0.2
    }
  }
}
layer {
  name: "inception_4a/relu_pool_proj"
  type: "ReLU"
  bottom: "inception_4a/pool_proj"
  top: "inception_4a/pool_proj"
}
layer {
  name: "inception_4a/output"
  type: "Concat"
  bottom: "inception_4a/1x1"
  bottom: "inception_4a/3x3"
  bottom: "inception_4a/5x5"
  bottom: "inception_4a/pool_proj"
  top: "inception_4a/output"
}
layer {
  name: "inception_4b/1x1"
  type: "Convolution"
  bottom: "inception_4a/output"
  top: "inception_4b/1x1"
  param {
    lr_mult: 1
    decay_mult: 1
  }
  param {
    lr_mult: 2
    decay_mult: 0
  }
  convolution_param {
    num_output: 160
    kernel_size: 1
    weight_filler {
      type: "xavier"
      std: 0.03
    }
    bias_filler {
      type: "constant"
      value: 0.2
    }
  }
}
layer {
  name: "inception_4b/relu_1x1"
  type: "ReLU"
  bottom: "inception_4b/1x1"
  top: "inception_4b/1x1"
}
layer {
  name: "inception_4b/3x3_reduce"
  type: "Convolution"
  bottom: "inception_4a/output"
  top: "inception_4b/3x3_reduce"
  param {
    lr_mult: 1
    decay_mult: 1
  }
  param {
    lr_mult: 2
    decay_mult: 0
  }
  convolution_param {
    num_output: 112
    kernel_size: 1
    weight_filler {
      type: "xavier"
      std: 0.09
    }
    bias_filler {
      type: "constant"
      value: 0.2
    }
  }
}
layer {
  name: "inception_4b/relu_3x3_reduce"
  type: "ReLU"
  bottom: "inception_4b/3x3_reduce"
  top: "inception_4b/3x3_reduce"
}
layer {
  name: "inception_4b/3x3"
  type: "Convolution"
  bottom: "inception_4b/3x3_reduce"
  top: "inception_4b/3x3"
  param {
    lr_mult: 1
    decay_mult: 1
  }
  param {
    lr_mult: 2
    decay_mult: 0
  }
  convolution_param {
    num_output: 224
    pad: 1
    kernel_size: 3
    weight_filler {
      type: "xavier"
      std: 0.03
    }
    bias_filler {
      type: "constant"
      value: 0.2
    }
  }
}
layer {
  name: "inception_4b/relu_3x3"
  type: "ReLU"
  bottom: "inception_4b/3x3"
  top: "inception_4b/3x3"
}
layer {
  name: "inception_4b/5x5_reduce"
  type: "Convolution"
  bottom: "inception_4a/output"
  top: "inception_4b/5x5_reduce"
  param {
    lr_mult: 1
    decay_mult: 1
  }
  param {
    lr_mult: 2
    decay_mult: 0
  }
  convolution_param {
    num_output: 24
    kernel_size: 1
    weight_filler {
      type: "xavier"
      std: 0.2
    }
    bias_filler {
      type: "constant"
      value: 0.2
    }
  }
}
layer {
  name: "inception_4b/relu_5x5_reduce"
  type: "ReLU"
  bottom: "inception_4b/5x5_reduce"
  top: "inception_4b/5x5_reduce"
}
layer {
  name: "inception_4b/5x5"
  type: "Convolution"
  bottom: "inception_4b/5x5_reduce"
  top: "inception_4b/5x5"
  param {
    lr_mult: 1
    decay_mult: 1
  }
  param {
    lr_mult: 2
    decay_mult: 0
  }
  convolution_param {
    num_output: 64
    pad: 2
    kernel_size: 5
    weight_filler {
      type: "xavier"
      std: 0.03
    }
    bias_filler {
      type: "constant"
      value: 0.2
    }
  }
}
layer {
  name: "inception_4b/relu_5x5"
  type: "ReLU"
  bottom: "inception_4b/5x5"
  top: "inception_4b/5x5"
}
layer {
  name: "inception_4b/pool"
  type: "Pooling"
  bottom: "inception_4a/output"
  top: "inception_4b/pool"
  pooling_param {
    pool: MAX
    kernel_size: 3
    stride: 1
    pad: 1
  }
}
layer {
  name: "inception_4b/pool_proj"
  type: "Convolution"
  bottom: "inception_4b/pool"
  top: "inception_4b/pool_proj"
  param {
    lr_mult: 1
    decay_mult: 1
  }
  param {
    lr_mult: 2
    decay_mult: 0
  }
  convolution_param {
    num_output: 64
    kernel_size: 1
    weight_filler {
      type: "xavier"
      std: 0.1
    }
    bias_filler {
      type: "constant"
      value: 0.2
    }
  }
}
layer {
  name: "inception_4b/relu_pool_proj"
  type: "ReLU"
  bottom: "inception_4b/pool_proj"
  top: "inception_4b/pool_proj"
}
layer {
  name: "inception_4b/output"
  type: "Concat"
  bottom: "inception_4b/1x1"
  bottom: "inception_4b/3x3"
  bottom: "inception_4b/5x5"
  bottom: "inception_4b/pool_proj"
  top: "inception_4b/output"
}
layer {
  name: "inception_4c/1x1"
  type: "Convolution"
  bottom: "inception_4b/output"
  top: "inception_4c/1x1"
  param {
    lr_mult: 1
    decay_mult: 1
  }
  param {
    lr_mult: 2
    decay_mult: 0
  }
  convolution_param {
    num_output: 128
    kernel_size: 1
    weight_filler {
      type: "xavier"
      std: 0.03
    }
    bias_filler {
      type: "constant"
      value: 0.2
    }
  }
}
layer {
  name: "inception_4c/relu_1x1"
  type: "ReLU"
  bottom: "inception_4c/1x1"
  top: "inception_4c/1x1"
}
layer {
  name: "inception_4c/3x3_reduce"
  type: "Convolution"
  bottom: "inception_4b/output"
  top: "inception_4c/3x3_reduce"
  param {
    lr_mult: 1
    decay_mult: 1
  }
  param {
    lr_mult: 2
    decay_mult: 0
  }
  convolution_param {
    num_output: 128
    kernel_size: 1
    weight_filler {
      type: "xavier"
      std: 0.09
    }
    bias_filler {
      type: "constant"
      value: 0.2
    }
  }
}
layer {
  name: "inception_4c/relu_3x3_reduce"
  type: "ReLU"
  bottom: "inception_4c/3x3_reduce"
  top: "inception_4c/3x3_reduce"
}
layer {
  name: "inception_4c/3x3"
  type: "Convolution"
  bottom: "inception_4c/3x3_reduce"
  top: "inception_4c/3x3"
  param {
    lr_mult: 1
    decay_mult: 1
  }
  param {
    lr_mult: 2
    decay_mult: 0
  }
  convolution_param {
    num_output: 256
    pad: 1
    kernel_size: 3
    weight_filler {
      type: "xavier"
      std: 0.03
    }
    bias_filler {
      type: "constant"
      value: 0.2
    }
  }
}
layer {
  name: "inception_4c/relu_3x3"
  type: "ReLU"
  bottom: "inception_4c/3x3"
  top: "inception_4c/3x3"
}
layer {
  name: "inception_4c/5x5_reduce"
  type: "Convolution"
  bottom: "inception_4b/output"
  top: "inception_4c/5x5_reduce"
  param {
    lr_mult: 1
    decay_mult: 1
  }
  param {
    lr_mult: 2
    decay_mult: 0
  }
  convolution_param {
    num_output: 24
    kernel_size: 1
    weight_filler {
      type: "xavier"
      std: 0.2
    }
    bias_filler {
      type: "constant"
      value: 0.2
    }
  }
}
layer {
  name: "inception_4c/relu_5x5_reduce"
  type: "ReLU"
  bottom: "inception_4c/5x5_reduce"
  top: "inception_4c/5x5_reduce"
}
layer {
  name: "inception_4c/5x5"
  type: "Convolution"
  bottom: "inception_4c/5x5_reduce"
  top: "inception_4c/5x5"
  param {
    lr_mult: 1
    decay_mult: 1
  }
  param {
    lr_mult: 2
    decay_mult: 0
  }
  convolution_param {
    num_output: 64
    pad: 2
    kernel_size: 5
    weight_filler {
      type: "xavier"
      std: 0.03
    }
    bias_filler {
      type: "constant"
      value: 0.2
    }
  }
}
layer {
  name: "inception_4c/relu_5x5"
  type: "ReLU"
  bottom: "inception_4c/5x5"
  top: "inception_4c/5x5"
}
layer {
  name: "inception_4c/pool"
  type: "Pooling"
  bottom: "inception_4b/output"
  top: "inception_4c/pool"
  pooling_param {
    pool: MAX
    kernel_size: 3
    stride: 1
    pad: 1
  }
}
layer {
  name: "inception_4c/pool_proj"
  type: "Convolution"
  bottom: "inception_4c/pool"
  top: "inception_4c/pool_proj"
  param {
    lr_mult: 1
    decay_mult: 1
  }
  param {
    lr_mult: 2
    decay_mult: 0
  }
  convolution_param {
    num_output: 64
    kernel_size: 1
    weight_filler {
      type: "xavier"
      std: 0.1
    }
    bias_filler {
      type: "constant"
      value: 0.2
    }
  }
}
layer {
  name: "inception_4c/relu_pool_proj"
  type: "ReLU"
  bottom: "inception_4c/pool_proj"
  top: "inception_4c/pool_proj"
}
layer {
  name: "inception_4c/output"
  type: "Concat"
  bottom: "inception_4c/1x1"
  bottom: "inception_4c/3x3"
  bottom: "inception_4c/5x5"
  bottom: "inception_4c/pool_proj"
  top: "inception_4c/output"
}
layer {
  name: "inception_4d/1x1"
  type: "Convolution"
  bottom: "inception_4c/output"
  top: "inception_4d/1x1"
  param {
    lr_mult: 1
    decay_mult: 1
  }
  param {
    lr_mult: 2
    decay_mult: 0
  }
  convolution_param {
    num_output: 112
    kernel_size: 1
    weight_filler {
      type: "xavier"
      std: 0.03
    }
    bias_filler {
      type: "constant"
      value: 0.2
    }
  }
}
layer {
  name: "inception_4d/relu_1x1"
  type: "ReLU"
  bottom: "inception_4d/1x1"
  top: "inception_4d/1x1"
}
layer {
  name: "inception_4d/3x3_reduce"
  type: "Convolution"
  bottom: "inception_4c/output"
  top: "inception_4d/3x3_reduce"
  param {
    lr_mult: 1
    decay_mult: 1
  }
  param {
    lr_mult: 2
    decay_mult: 0
  }
  convolution_param {
    num_output: 144
    kernel_size: 1
    weight_filler {
      type: "xavier"
      std: 0.09
    }
    bias_filler {
      type: "constant"
      value: 0.2
    }
  }
}
layer {
  name: "inception_4d/relu_3x3_reduce"
  type: "ReLU"
  bottom: "inception_4d/3x3_reduce"
  top: "inception_4d/3x3_reduce"
}
layer {
  name: "inception_4d/3x3"
  type: "Convolution"
  bottom: "inception_4d/3x3_reduce"
  top: "inception_4d/3x3"
  param {
    lr_mult: 1
    decay_mult: 1
  }
  param {
    lr_mult: 2
    decay_mult: 0
  }
  convolution_param {
    num_output: 288
    pad: 1
    kernel_size: 3
    weight_filler {
      type: "xavier"
      std: 0.03
    }
    bias_filler {
      type: "constant"
      value: 0.2
    }
  }
}
layer {
  name: "inception_4d/relu_3x3"
  type: "ReLU"
  bottom: "inception_4d/3x3"
  top: "inception_4d/3x3"
}
layer {
  name: "inception_4d/5x5_reduce"
  type: "Convolution"
  bottom: "inception_4c/output"
  top: "inception_4d/5x5_reduce"
  param {
    lr_mult: 1
    decay_mult: 1
  }
  param {
    lr_mult: 2
    decay_mult: 0
  }
  convolution_param {
    num_output: 32
    kernel_size: 1
    weight_filler {
      type: "xavier"
      std: 0.2
    }
    bias_filler {
      type: "constant"
      value: 0.2
    }
  }
}
layer {
  name: "inception_4d/relu_5x5_reduce"
  type: "ReLU"
  bottom: "inception_4d/5x5_reduce"
  top: "inception_4d/5x5_reduce"
}
layer {
  name: "inception_4d/5x5"
  type: "Convolution"
  bottom: "inception_4d/5x5_reduce"
  top: "inception_4d/5x5"
  param {
    lr_mult: 1
    decay_mult: 1
  }
  param {
    lr_mult: 2
    decay_mult: 0
  }
  convolution_param {
    num_output: 64
    pad: 2
    kernel_size: 5
    weight_filler {
      type: "xavier"
      std: 0.03
    }
    bias_filler {
      type: "constant"
      value: 0.2
    }
  }
}
layer {
  name: "inception_4d/relu_5x5"
  type: "ReLU"
  bottom: "inception_4d/5x5"
  top: "inception_4d/5x5"
}
layer {
  name: "inception_4d/pool"
  type: "Pooling"
  bottom: "inception_4c/output"
  top: "inception_4d/pool"
  pooling_param {
    pool: MAX
    kernel_size: 3
    stride: 1
    pad: 1
  }
}
layer {
  name: "inception_4d/pool_proj"
  type: "Convolution"
  bottom: "inception_4d/pool"
  top: "inception_4d/pool_proj"
  param {
    lr_mult: 1
    decay_mult: 1
  }
  param {
    lr_mult: 2
    decay_mult: 0
  }
  convolution_param {
    num_output: 64
    kernel_size: 1
    weight_filler {
      type: "xavier"
      std: 0.1
    }
    bias_filler {
      type: "constant"
      value: 0.2
    }
  }
}
layer {
  name: "inception_4d/relu_pool_proj"
  type: "ReLU"
  bottom: "inception_4d/pool_proj"
  top: "inception_4d/pool_proj"
}
layer {
  name: "inception_4d/output"
  type: "Concat"
  bottom: "inception_4d/1x1"
  bottom: "inception_4d/3x3"
  bottom: "inception_4d/5x5"
  bottom: "inception_4d/pool_proj"
  top: "inception_4d/output"
}
layer {
  name: "inception_4e/1x1"
  type: "Convolution"
  bottom: "inception_4d/output"
  top: "inception_4e/1x1"
  param {
    lr_mult: 1
    decay_mult: 1
  }
  param {
    lr_mult: 2
    decay_mult: 0
  }
  convolution_param {
    num_output: 256
    kernel_size: 1
    weight_filler {
      type: "xavier"
      std: 0.03
    }
    bias_filler {
      type: "constant"
      value: 0.2
    }
  }
}
layer {
  name: "inception_4e/relu_1x1"
  type: "ReLU"
  bottom: "inception_4e/1x1"
  top: "inception_4e/1x1"
}
layer {
  name: "inception_4e/3x3_reduce"
  type: "Convolution"
  bottom: "inception_4d/output"
  top: "inception_4e/3x3_reduce"
  param {
    lr_mult: 1
    decay_mult: 1
  }
  param {
    lr_mult: 2
    decay_mult: 0
  }
  convolution_param {
    num_output: 160
    kernel_size: 1
    weight_filler {
      type: "xavier"
      std: 0.09
    }
    bias_filler {
      type: "constant"
      value: 0.2
    }
  }
}
layer {
  name: "inception_4e/relu_3x3_reduce"
  type: "ReLU"
  bottom: "inception_4e/3x3_reduce"
  top: "inception_4e/3x3_reduce"
}
layer {
  name: "inception_4e/3x3"
  type: "Convolution"
  bottom: "inception_4e/3x3_reduce"
  top: "inception_4e/3x3"
  param {
    lr_mult: 1
    decay_mult: 1
  }
  param {
    lr_mult: 2
    decay_mult: 0
  }
  convolution_param {
    num_output: 320
    pad: 1
    kernel_size: 3
    weight_filler {
      type: "xavier"
      std: 0.03
    }
    bias_filler {
      type: "constant"
      value: 0.2
    }
  }
}
layer {
  name: "inception_4e/relu_3x3"
  type: "ReLU"
  bottom: "inception_4e/3x3"
  top: "inception_4e/3x3"
}
layer {
  name: "inception_4e/5x5_reduce"
  type: "Convolution"
  bottom: "inception_4d/output"
  top: "inception_4e/5x5_reduce"
  param {
    lr_mult: 1
    decay_mult: 1
  }
  param {
    lr_mult: 2
    decay_mult: 0
  }
  convolution_param {
    num_output: 32
    kernel_size: 1
    weight_filler {
      type: "xavier"
      std: 0.2
    }
    bias_filler {
      type: "constant"
      value: 0.2
    }
  }
}
layer {
  name: "inception_4e/relu_5x5_reduce"
  type: "ReLU"
  bottom: "inception_4e/5x5_reduce"
  top: "inception_4e/5x5_reduce"
}
layer {
  name: "inception_4e/5x5"
  type: "Convolution"
  bottom: "inception_4e/5x5_reduce"
  top: "inception_4e/5x5"
  param {
    lr_mult: 1
    decay_mult: 1
  }
  param {
    lr_mult: 2
    decay_mult: 0
  }
  convolution_param {
    num_output: 128
    pad: 2
    kernel_size: 5
    weight_filler {
      type: "xavier"
      std: 0.03
    }
    bias_filler {
      type: "constant"
      value: 0.2
    }
  }
}
layer {
  name: "inception_4e/relu_5x5"
  type: "ReLU"
  bottom: "inception_4e/5x5"
  top: "inception_4e/5x5"
}
layer {
  name: "inception_4e/pool"
  type: "Pooling"
  bottom: "inception_4d/output"
  top: "inception_4e/pool"
  pooling_param {
    pool: MAX
    kernel_size: 3
    stride: 1
    pad: 1
  }
}
layer {
  name: "inception_4e/pool_proj"
  type: "Convolution"
  bottom: "inception_4e/pool"
  top: "inception_4e/pool_proj"
  param {
    lr_mult: 1
    decay_mult: 1
  }
  param {
    lr_mult: 2
    decay_mult: 0
  }
  convolution_param {
    num_output: 128
    kernel_size: 1
    weight_filler {
      type: "xavier"
      std: 0.1
    }
    bias_filler {
      type: "constant"
      value: 0.2
    }
  }
}
layer {
  name: "inception_4e/relu_pool_proj"
  type: "ReLU"
  bottom: "inception_4e/pool_proj"
  top: "inception_4e/pool_proj"
}
layer {
  name: "inception_4e/output"
  type: "Concat"
  bottom: "inception_4e/1x1"
  bottom: "inception_4e/3x3"
  bottom: "inception_4e/5x5"
  bottom: "inception_4e/pool_proj"
  top: "inception_4e/output"
}
layer {
  name: "pool4/3x3_s2"
  type: "Pooling"
  bottom: "inception_4e/output"
  top: "pool4/3x3_s2"
  pooling_param {
    pool: MAX
    kernel_size: 3
    stride: 2
  }
}
layer {
  name: "inception_5a/1x1"
  type: "Convolution"
  bottom: "pool4/3x3_s2"
  top: "inception_5a/1x1"
  param {
    lr_mult: 1
    decay_mult: 1
  }
  param {
    lr_mult: 2
    decay_mult: 0
  }
  convolution_param {
    num_output: 256
    kernel_size: 1
    weight_filler {
      type: "xavier"
      std: 0.03
    }
    bias_filler {
      type: "constant"
      value: 0.2
    }
  }
}
layer {
  name: "inception_5a/relu_1x1"
  type: "ReLU"
  bottom: "inception_5a/1x1"
  top: "inception_5a/1x1"
}
layer {
  name: "inception_5a/3x3_reduce"
  type: "Convolution"
  bottom: "pool4/3x3_s2"
  top: "inception_5a/3x3_reduce"
  param {
    lr_mult: 1
    decay_mult: 1
  }
  param {
    lr_mult: 2
    decay_mult: 0
  }
  convolution_param {
    num_output: 160
    kernel_size: 1
    weight_filler {
      type: "xavier"
      std: 0.09
    }
    bias_filler {
      type: "constant"
      value: 0.2
    }
  }
}
layer {
  name: "inception_5a/relu_3x3_reduce"
  type: "ReLU"
  bottom: "inception_5a/3x3_reduce"
  top: "inception_5a/3x3_reduce"
}
layer {
  name: "inception_5a/3x3"
  type: "Convolution"
  bottom: "inception_5a/3x3_reduce"
  top: "inception_5a/3x3"
  param {
    lr_mult: 1
    decay_mult: 1
  }
  param {
    lr_mult: 2
    decay_mult: 0
  }
  convolution_param {
    num_output: 320
    pad: 1
    kernel_size: 3
    weight_filler {
      type: "xavier"
      std: 0.03
    }
    bias_filler {
      type: "constant"
      value: 0.2
    }
  }
}
layer {
  name: "inception_5a/relu_3x3"
  type: "ReLU"
  bottom: "inception_5a/3x3"
  top: "inception_5a/3x3"
}
layer {
  name: "inception_5a/5x5_reduce"
  type: "Convolution"
  bottom: "pool4/3x3_s2"
  top: "inception_5a/5x5_reduce"
  param {
    lr_mult: 1
    decay_mult: 1
  }
  param {
    lr_mult: 2
    decay_mult: 0
  }
  convolution_param {
    num_output: 32
    kernel_size: 1
    weight_filler {
      type: "xavier"
      std: 0.2
    }
    bias_filler {
      type: "constant"
      value: 0.2
    }
  }
}
layer {
  name: "inception_5a/relu_5x5_reduce"
  typ
I0817 02:25:14.664379  3141 net.cpp:370] Input 0 -> data
I0817 02:25:14.664531  3141 layer_factory.hpp:74] Creating layer conv1/7x7_s2
I0817 02:25:14.664603  3141 net.cpp:90] Creating Layer conv1/7x7_s2
I0817 02:25:14.664640  3141 net.cpp:410] conv1/7x7_s2 <- data
I0817 02:25:14.664681  3141 net.cpp:368] conv1/7x7_s2 -> conv1/7x7_s2
I0817 02:25:14.664724  3141 net.cpp:120] Setting up conv1/7x7_s2
I0817 02:25:14.665556  3141 net.cpp:127] Top shape: 10 64 112 112 (8028160)
I0817 02:25:14.665613  3141 layer_factory.hpp:74] Creating layer conv1/relu_7x7
I0817 02:25:14.665663  3141 net.cpp:90] Creating Layer conv1/relu_7x7
I0817 02:25:14.665699  3141 net.cpp:410] conv1/relu_7x7 <- conv1/7x7_s2
I0817 02:25:14.665735  3141 net.cpp:357] conv1/relu_7x7 -> conv1/7x7_s2 (in-place)
I0817 02:25:14.665772  3141 net.cpp:120] Setting up conv1/relu_7x7
I0817 02:25:14.665810  3141 net.cpp:127] Top shape: 10 64 112 112 (8028160)
I0817 02:25:14.665841  3141 layer_factory.hpp:74] Creating layer pool1/3x3_s2
I0817 02:25:14.665877  3141 net.cpp:90] Creating Layer pool1/3x3_s2
I0817 02:25:14.665909  3141 net.cpp:410] pool1/3x3_s2 <- conv1/7x7_s2
I0817 02:25:14.665941  3141 net.cpp:368] pool1/3x3_s2 -> pool1/3x3_s2
I0817 02:25:14.665977  3141 net.cpp:120] Setting up pool1/3x3_s2
I0817 02:25:14.666036  3141 net.cpp:127] Top shape: 10 64 56 56 (2007040)
I0817 02:25:14.666070  3141 layer_factory.hpp:74] Creating layer pool1/norm1
I0817 02:25:14.666110  3141 net.cpp:90] Creating Layer pool1/norm1
I0817 02:25:14.666141  3141 net.cpp:410] pool1/norm1 <- pool1/3x3_s2
I0817 02:25:14.666173  3141 net.cpp:368] pool1/norm1 -> pool1/norm1
I0817 02:25:14.666210  3141 net.cpp:120] Setting up pool1/norm1
I0817 02:25:14.666251  3141 net.cpp:127] Top shape: 10 64 56 56 (2007040)
I0817 02:25:14.666283  3141 layer_factory.hpp:74] Creating layer conv2/3x3_reduce
I0817 02:25:14.666318  3141 net.cpp:90] Creating Layer conv2/3x3_reduce
I0817 02:25:14.666350  3141 net.cpp:410] conv2/3x3_reduce <- pool1/norm1
I0817 02:25:14.666384  3141 net.cpp:368] conv2/3x3_reduce -> conv2/3x3_reduce
I0817 02:25:14.666422  3141 net.cpp:120] Setting up conv2/3x3_reduce
I0817 02:25:14.666530  3141 net.cpp:127] Top shape: 10 64 56 56 (2007040)
I0817 02:25:14.666573  3141 layer_factory.hpp:74] Creating layer conv2/relu_3x3_reduce
I0817 02:25:14.666609  3141 net.cpp:90] Creating Layer conv2/relu_3x3_reduce
I0817 02:25:14.666638  3141 net.cpp:410] conv2/relu_3x3_reduce <- conv2/3x3_reduce
I0817 02:25:14.666693  3141 net.cpp:357] conv2/relu_3x3_reduce -> conv2/3x3_reduce (in-place)
I0817 02:25:14.666744  3141 net.cpp:120] Setting up conv2/relu_3x3_reduce
I0817 02:25:14.666781  3141 net.cpp:127] Top shape: 10 64 56 56 (2007040)
I0817 02:25:14.666811  3141 layer_factory.hpp:74] Creating layer conv2/3x3
I0817 02:25:14.666846  3141 net.cpp:90] Creating Layer conv2/3x3
I0817 02:25:14.666877  3141 net.cpp:410] conv2/3x3 <- conv2/3x3_reduce
I0817 02:25:14.666925  3141 net.cpp:368] conv2/3x3 -> conv2/3x3
I0817 02:25:14.666963  3141 net.cpp:120] Setting up conv2/3x3
WARNING: Logging before InitGoogleLogging() is written to STDERR
I0817 02:25:14.667001  3139 net.cpp:42] Initializing net from parameters: 
name: "GoogleNet"
input: "data"
input_dim: 10
input_dim: 3
input_dim: 224
input_dim: 224
force_backward: true
state {
  phase: TEST
}
layer {
  name: "conv1/7x7_s2"
  type: "Convolution"
  bottom: "data"
  top: "conv1/7x7_s2"
  param {
    lr_mult: 1
    decay_mult: 1
  }
  param {
    lr_mult: 2
    decay_mult: 0
  }
  convolution_param {
    num_output: 64
    pad: 3
    kernel_size: 7
    stride: 2
    weight_filler {
      type: "xavier"
      std: 0.1
    }
    bias_filler {
      type: "constant"
      value: 0.2
    }
  }
}
layer {
  name: "conv1/relu_7x7"
  type: "ReLU"
  bottom: "conv1/7x7_s2"
  top: "conv1/7x7_s2"
}
layer {
  name: "pool1/3x3_s2"
  type: "Pooling"
  bottom: "conv1/7x7_s2"
  top: "pool1/3x3_s2"
  pooling_param {
    pool: MAX
    kernel_size: 3
    stride: 2
  }
}
layer {
  name: "pool1/norm1"
  type: "LRN"
  bottom: "pool1/3x3_s2"
  top: "pool1/norm1"
  lrn_param {
    local_size: 5
    alpha: 0.0001
    beta: 0.75
  }
}
layer {
  name: "conv2/3x3_reduce"
  type: "Convolution"
  bottom: "pool1/norm1"
  top: "conv2/3x3_reduce"
  param {
    lr_mult: 1
    decay_mult: 1
  }
  param {
    lr_mult: 2
    decay_mult: 0
  }
  convolution_param {
    num_output: 64
    kernel_size: 1
    weight_filler {
      type: "xavier"
      std: 0.1
    }
    bias_filler {
      type: "constant"
      value: 0.2
    }
  }
}
layer {
  name: "conv2/relu_3x3_reduce"
  type: "ReLU"
  bottom: "conv2/3x3_reduce"
  top: "conv2/3x3_reduce"
}
layer {
  name: "conv2/3x3"
  type: "Convolution"
  bottom: "conv2/3x3_reduce"
  top: "conv2/3x3"
  param {
    lr_mult: 1
    decay_mult: 1
  }
  param {
    lr_mult: 2
    decay_mult: 0
  }
  convolution_param {
    num_output: 192
    pad: 1
    kernel_size: 3
    weight_filler {
      type: "xavier"
      std: 0.03
    }
    bias_filler {
      type: "constant"
      value: 0.2
    }
  }
}
layer {
  name: "conv2/relu_3x3"
  type: "ReLU"
  bottom: "conv2/3x3"
  top: "conv2/3x3"
}
layer {
  name: "conv2/norm2"
  type: "LRN"
  bottom: "conv2/3x3"
  top: "conv2/norm2"
  lrn_param {
    local_size: 5
    alpha: 0.0001
    beta: 0.75
  }
}
layer {
  name: "pool2/3x3_s2"
  type: "Pooling"
  bottom: "conv2/norm2"
  top: "pool2/3x3_s2"
  pooling_param {
    pool: MAX
    kernel_size: 3
    stride: 2
  }
}
layer {
  name: "inception_3a/1x1"
  type: "Convolution"
  bottom: "pool2/3x3_s2"
  top: "inception_3a/1x1"
  param {
    lr_mult: 1
    decay_mult: 1
  }
  param {
    lr_mult: 2
    decay_mult: 0
  }
  convolution_param {
    num_output: 64
    kernel_size: 1
    weight_filler {
      type: "xavier"
      std: 0.03
    }
    bias_filler {
      type: "constant"
      value: 0.2
    }
  }
}
layer {
  name: "inception_3a/relu_1x1"
  type: "ReLU"
  bottom: "inception_3a/1x1"
  top: "inception_3a/1x1"
}
layer {
  name: "inception_3a/3x3_reduce"
  type: "Convolution"
  bottom: "pool2/3x3_s2"
  top: "inception_3a/3x3_reduce"
  param {
…
I0817 02:25:14.738898  3139 net.cpp:120] Setting up inception_5a/5x5
I0817 02:25:14.739084  3143 net.cpp:127] Top shape: 10 128 14 14 (250880)
I0817 02:25:14.739115  3143 layer_factory.hpp:74] Creating layer inception_4e/relu_5x5
I0817 02:25:14.739131  3143 net.cpp:90] Creating Layer inception_4e/relu_5x5
I0817 02:25:14.739141  3143 net.cpp:410] inception_4e/relu_5x5 <- inception_4e/5x5
I0817 02:25:14.739153  3143 net.cpp:357] inception_4e/relu_5x5 -> inception_4e/5x5 (in-place)
I0817 02:25:14.739166  3143 net.cpp:120] Setting up inception_4e/relu_5x5
I0817 02:25:14.739179  3143 net.cpp:127] Top shape: 10 128 14 14 (250880)
I0817 02:25:14.739188  3143 layer_factory.hpp:74] Creating layer inception_4e/pool
I0817 02:25:14.739203  3143 net.cpp:90] Creating Layer inception_4e/pool
I0817 02:25:14.739228  3143 net.cpp:410] inception_4e/pool <- inception_4d/output_inception_4d/output_0_split_3
I0817 02:25:14.739248  3143 net.cpp:368] inception_4e/pool -> inception_4e/pool
I0817 02:25:14.739264  3143 net.cpp:120] Setting up inception_4e/pool
I0817 02:25:14.739291  3143 net.cpp:127] Top shape: 10 528 14 14 (1034880)
I0817 02:25:14.739303  3143 layer_factory.hpp:74] Creating layer inception_4e/pool_proj
I0817 02:25:14.739356  3143 net.cpp:90] Creating Layer inception_4e/pool_proj
I0817 02:25:14.739378  3143 net.cpp:410] inception_4e/pool_proj <- inception_4e/pool
I0817 02:25:14.739394  3143 net.cpp:368] inception_4e/pool_proj -> inception_4e/pool_proj
I0817 02:25:14.739410  3143 net.cpp:120] Setting up inception_4e/pool_proj
I0817 02:25:14.740066  3139 net.cpp:127] Top shape: 10 128 7 7 (62720)
I0817 02:25:14.740099  3139 layer_factory.hpp:74] Creating layer inception_5a/relu_5x5
I0817 02:25:14.740128  3139 net.cpp:90] Creating Layer inception_5a/relu_5x5
I0817 02:25:14.740139  3139 net.cpp:410] inception_5a/relu_5x5 <- inception_5a/5x5
I0817 02:25:14.740162  3139 net.cpp:357] inception_5a/relu_5x5 -> inception_5a/5x5 (in-place)
I0817 02:25:14.740178  3139 net.cpp:120] Setting up inception_5a/relu_5x5
I0817 02:25:14.740191  3139 net.cpp:127] Top shape: 10 128 7 7 (62720)
I0817 02:25:14.740190  3143 net.cpp:127] Top shape: 10 128 14 14 (250880)
I0817 02:25:14.740214  3143 layer_factory.hpp:74] Creating layer inception_4e/relu_pool_proj
I0817 02:25:14.740217  3139 layer_factory.hpp:74] Creating layer inception_5a/pool
I0817 02:25:14.740227  3143 net.cpp:90] Creating Layer inception_4e/relu_pool_proj
I0817 02:25:14.740238  3143 net.cpp:410] inception_4e/relu_pool_proj <- inception_4e/pool_proj
I0817 02:25:14.740250  3143 net.cpp:357] inception_4e/relu_pool_proj -> inception_4e/pool_proj (in-place)
I0817 02:25:14.740263  3143 net.cpp:120] Setting up inception_4e/relu_pool_proj
I0817 02:25:14.740272  3139 net.cpp:90] Creating Layer inception_5a/pool
I0817 02:25:14.740277  3143 net.cpp:127] Top shape: 10 128 14 14 (250880)
I0817 02:25:14.740293  3143 layer_factory.hpp:74] Creating layer inception_4e/output
I0817 02:25:14.740293  3139 net.cpp:410] inception_5a/pool <- pool4/3x3_s2_pool4/3x3_s2_0_split_3
I0817 02:25:14.740305  3143 net.cpp:90] Creating Layer inception_4e/output
I0817 02:25:14.740313  3139 net.cpp:368] inception_5a/pool -> inception_5a/pool
I0817 02:25:14.740316  3143 net.cpp:410] inception_4e/output <- inception_4e/1x1
I0817 02:25:14.740329  3143 net.cpp:410] inception_4e/output <- inception_4e/3x3
I0817 02:25:14.740329  3139 net.cpp:120] Setting up inception_5a/pool
I0817 02:25:14.740339  3143 net.cpp:410] inception_4e/output <- inception_4e/5x5
I0817 02:25:14.740351  3143 net.cpp:410] inception_4e/output <- inception_4e/pool_proj
I0817 02:25:14.740351  3139 net.cpp:127] Top shape: 10 832 7 7 (407680)
I0817 02:25:14.740367  3139 layer_factory.hpp:74] Creating layer inception_5a/pool_proj
I0817 02:25:14.740362  3141 net.cpp:127] Top shape: 10 320 7 7 (156800)
I0817 02:25:14.740370  3143 net.cpp:368] inception_4e/output -> inception_4e/output
I0817 02:25:14.740382  3139 net.cpp:90] Creating Layer inception_5a/pool_proj
I0817 02:25:14.740393  3143 net.cpp:120] Setting up inception_4e/output
I0817 02:25:14.740394  3139 net.cpp:410] inception_5a/pool_proj <- inception_5a/pool
I0817 02:25:14.740393  3141 layer_factory.hpp:74] Creating layer inception_5a/relu_3x3
I0817 02:25:14.740411  3143 net.cpp:127] Top shape: 10 832 14 14 (1630720)
I0817 02:25:14.740418  3141 net.cpp:90] Creating Layer inception_5a/relu_3x3
I0817 02:25:14.740419  3139 net.cpp:368] inception_5a/pool_proj -> inception_5a/pool_proj
I0817 02:25:14.740420  3143 layer_factory.hpp:74] Creating layer pool4/3x3_s2
I0817 02:25:14.740432  3141 net.cpp:410] inception_5a/relu_3x3 <- inception_5a/3x3
I0817 02:25:14.740438  3139 net.cpp:120] Setting up inception_5a/pool_proj
I0817 02:25:14.740444  3141 net.cpp:357] inception_5a/relu_3x3 -> inception_5a/3x3 (in-place)
I0817 02:25:14.740445  3143 net.cpp:90] Creating Layer pool4/3x3_s2
I0817 02:25:14.740459  3141 net.cpp:120] Setting up inception_5a/relu_3x3
I0817 02:25:14.740461  3143 net.cpp:410] pool4/3x3_s2 <- inception_4e/output
I0817 02:25:14.740473  3141 net.cpp:127] Top shape: 10 320 7 7 (156800)
I0817 02:25:14.740478  3143 net.cpp:368] pool4/3x3_s2 -> pool4/3x3_s2
I0817 02:25:14.740483  3141 layer_factory.hpp:74] Creating layer inception_5a/5x5_reduce
I0817 02:25:14.740491  3143 net.cpp:120] Setting up pool4/3x3_s2
I0817 02:25:14.740501  3141 net.cpp:90] Creating Layer inception_5a/5x5_reduce
I0817 02:25:14.740510  3143 net.cpp:127] Top shape: 10 832 7 7 (407680)
I0817 02:25:14.740522  3143 layer_factory.hpp:74] Creating layer pool4/3x3_s2_pool4/3x3_s2_0_split
I0817 02:25:14.740530  3141 net.cpp:410] inception_5a/5x5_reduce <- pool4/3x3_s2_pool4/3x3_s2_0_split_2
I0817 02:25:14.740536  3143 net.cpp:90] Creating Layer pool4/3x3_s2_pool4/3x3_s2_0_split
I0817 02:25:14.740548  3141 net.cpp:368] inception_5a/5x5_reduce -> inception_5a/5x5_reduce
I0817 02:25:14.740555  3143 net.cpp:410] pool4/3x3_s2_pool4/3x3_s2_0_split <- pool4/3x3_s2
I0817 02:25:14.740564  3141 net.cpp:120] Setting up inception_5a/5x5_reduce
I0817 02:25:14.740568  3143 net.cpp:368] pool4/3x3_s2_pool4/3x3_s2_0_split -> pool4/3x3_s2_pool4/3x3_s2_0_split_0
I0817 02:25:14.740582  3143 net.cpp:368] pool4/3x3_s2_pool4/3x3_s2_0_split -> pool4/3x3_s2_pool4/3x3_s2_0_split_1
I0817 02:25:14.740597  3143 net.cpp:368] pool4/3x3_s2_pool4/3x3_s2_0_split -> pool4/3x3_s2_pool4/3x3_s2_0_split_2
I0817 02:25:14.740610  3143 net.cpp:368] pool4/3x3_s2_pool4/3x3_s2_0_split -> pool4/3x3_s2_pool4/3x3_s2_0_split_3
I0817 02:25:14.740634  3143 net.cpp:120] Setting up pool4/3x3_s2_pool4/3x3_s2_0_split
I0817 02:25:14.740654  3143 net.cpp:127] Top shape: 10 832 7 7 (407680)
I0817 02:25:14.740666  3143 net.cpp:127] Top shape: 10 832 7 7 (407680)
I0817 02:25:14.740689  3143 net.cpp:127] Top shape: 10 832 7 7 (407680)
I0817 02:25:14.740710  3143 net.cpp:127] Top shape: 10 832 7 7 (407680)
I0817 02:25:14.740742  3143 layer_factory.hpp:74] Creating layer inception_5a/1x1
I0817 02:25:14.740768  3143 net.cpp:90] Creating Layer inception_5a/1x1
I0817 02:25:14.740803  3143 net.cpp:410] inception_5a/1x1 <- pool4/3x3_s2_pool4/3x3_s2_0_split_0
I0817 02:25:14.740839  3143 net.cpp:368] inception_5a/1x1 -> inception_5a/1x1
I0817 02:25:14.740870  3143 net.cpp:120] Setting up inception_5a/1x1
I0817 02:25:14.740881  3141 net.cpp:127] Top shape: 10 32 7 7 (15680)
I0817 02:25:14.740901  3141 layer_factory.hpp:74] Creating layer inception_5a/relu_5x5_reduce
I0817 02:25:14.740924  3141 net.cpp:90] Creating Layer inception_5a/relu_5x5_reduce
I0817 02:25:14.740936  3141 net.cpp:410] inception_5a/relu_5x5_reduce <- inception_5a/5x5_reduce
I0817 02:25:14.740953  3141 net.cpp:357] inception_5a/relu_5x5_reduce -> inception_5a/5x5_reduce (in-place)
I0817 02:25:14.740968  3141 net.cpp:120] Setting up inception_5a/relu_5x5_reduce
I0817 02:25:14.740990  3141 net.cpp:127] Top shape: 10 32 7 7 (15680)
I0817 02:25:14.741003  3141 layer_factory.hpp:74] Creating layer inception_5a/5x5
I0817 02:25:14.741017  3141 net.cpp:90] Creating Layer inception_5a/5x5
I0817 02:25:14.741027  3141 net.cpp:410] inception_5a/5x5 <- inception_5a/5x5_reduce
I0817 02:25:14.741051  3141 net.cpp:368] inception_5a/5x5 -> inception_5a/5x5
I0817 02:25:14.741080  3141 net.cpp:120] Setting up inception_5a/5x5
I0817 02:25:14.741660  3139 net.cpp:127] Top shape: 10 128 7 7 (62720)
I0817 02:25:14.741696  3139 layer_factory.hpp:74] Creating layer inception_5a/relu_pool_proj
I0817 02:25:14.741714  3139 net.cpp:90] Creating Layer inception_5a/relu_pool_proj
I0817 02:25:14.741739  3139 net.cpp:410] inception_5a/relu_pool_proj <- inception_5a/pool_proj
I0817 02:25:14.741777  3139 net.cpp:357] inception_5a/relu_pool_proj -> inception_5a/pool_proj (in-place)
I0817 02:25:14.741806  3139 net.cpp:120] Setting up inception_5a/relu_pool_proj
I0817 02:25:14.741837  3139 net.cpp:127] Top shape: 10 128 7 7 (62720)
I0817 02:25:14.741849  3139 layer_factory.hpp:74] Creating layer inception_5a/output
I0817 02:25:14.741869  3139 net.cpp:90] Creating Layer inception_5a/output
I0817 02:25:14.741894  3139 net.cpp:410] inception_5a/output <- inception_5a/1x1
I0817 02:25:14.741910  3139 net.cpp:410] inception_5a/output <- inception_5a/3x3
I0817 02:25:14.741922  3139 net.cpp:410] inception_5a/output <- inception_5a/5x5
I0817 02:25:14.741935  3139 net.cpp:410] inception_5a/output <- inception_5a/pool_proj
I0817 02:25:14.741958  3139 net.cpp:368] inception_5a/output -> inception_5a/output
I0817 02:25:14.741976  3139 net.cpp:120] Setting up inception_5a/output
I0817 02:25:14.741991  3139 net.cpp:127] Top shape: 10 832 7 7 (407680)
I0817 02:25:14.742010  3139 layer_factory.hpp:74] Creating layer inception_5a/output_inception_5a/output_0_split
I0817 02:25:14.742027  3139 net.cpp:90] Creating Layer inception_5a/output_inception_5a/output_0_split
I0817 02:25:14.742043  3139 net.cpp:410] inception_5a/output_inception_5a/output_0_split <- inception_5a/output
I0817 02:25:14.742079  3139 net.cpp:368] inception_5a/output_inception_5a/output_0_split -> inception_5a/output_inception_5a/output_0_split_0
I0817 02:25:14.742112  3139 net.cpp:368] inception_5a/output_inception_5a/output_0_split -> inception_5a/output_inception_5a/output_0_split_1
I0817 02:25:14.742143  3139 net.cpp:368] inception_5a/output_inception_5a/output_0_split -> inception_5a/output_inception_5a/output_0_split_2
I0817 02:25:14.742182  3139 net.cpp:368] inception_5a/output_inception_5a/output_0_split -> inception_5a/output_inception_5a/output_0_split_3
I0817 02:25:14.742207  3139 net.cpp:120] Setting up inception_5a/output_inception_5a/output_0_split
I0817 02:25:14.742223  3139 net.cpp:127] Top shape: 10 832 7 7 (407680)
I0817 02:25:14.742245  3139 net.cpp:127] Top shape: 10 832 7 7 (407680)
I0817 02:25:14.742259  3139 net.cpp:127] Top shape: 10 832 7 7 (407680)
I0817 02:25:14.742269  3139 net.cpp:127] Top shape: 10 832 7 7 (407680)
I0817 02:25:14.742279  3139 layer_factory.hpp:74] Creating layer inception_5b/1x1
I0817 02:25:14.742298  3139 net.cpp:90] Creating Layer inception_5b/1x1
I0817 02:25:14.742311  3141 net.cpp:127] Top shape: 10 128 7 7 (62720)
I0817 02:25:14.742318  3139 net.cpp:410] inception_5b/1x1 <- inception_5a/output_inception_5a/output_0_split_0
I0817 02:25:14.742334  3141 layer_factory.hpp:74] Creating layer inception_5a/relu_5x5
I0817 02:25:14.742343  3139 net.cpp:368] inception_5b/1x1 -> inception_5b/1x1
I0817 02:25:14.742348  3141 net.cpp:90] Creating Layer inception_5a/relu_5x5
I0817 02:25:14.742360  3141 net.cpp:410] inception_5a/relu_5x5 <- inception_5a/5x5
I0817 02:25:14.742362  3139 net.cpp:120] Setting up inception_5b/1x1
I0817 02:25:14.742372  3141 net.cpp:357] inception_5a/relu_5x5 -> inception_5a/5x5 (in-place)
I0817 02:25:14.742386  3141 net.cpp:120] Setting up inception_5a/relu_5x5
I0817 02:25:14.742410  3141 net.cpp:127] Top shape: 10 128 7 7 (62720)
I0817 02:25:14.742421  3141 layer_factory.hpp:74] Creating layer inception_5a/pool
I0817 02:25:14.742470  3141 net.cpp:90] Creating Layer inception_5a/pool
I0817 02:25:14.742492  3141 net.cpp:410] inception_5a/pool <- pool4/3x3_s2_pool4/3x3_s2_0_split_3
I0817 02:25:14.742507  3141 net.cpp:368] inception_5a/pool -> inception_5a/pool
I0817 02:25:14.742522  3141 net.cpp:120] Setting up inception_5a/pool
I0817 02:25:14.742539  3141 net.cpp:127] Top shape: 10 832 7 7 (407680)
I0817 02:25:14.742559  3141 layer_factory.hpp:74] Creating layer inception_5a/pool_proj
I0817 02:25:14.742581  3141 net.cpp:90] Creating Layer inception_5a/pool_proj
I0817 02:25:14.742599  3141 net.cpp:410] inception_5a/pool_proj <- inception_5a/pool
I0817 02:25:14.742616  3141 net.cpp:368] inception_5a/pool_proj -> inception_5a/pool_proj
I0817 02:25:14.742643  3141 net.cpp:120] Setting up inception_5a/pool_proj
I0817 02:25:14.743860  3143 net.cpp:127] Top shape: 10 256 7 7 (125440)
I0817 02:25:14.743903  3143 layer_factory.hpp:74] Creating layer inception_5a/relu_1x1
I0817 02:25:14.743903  3141 net.cpp:127] Top shape: 10 128 7 7 (62720)
I0817 02:25:14.743926  3143 net.cpp:90] Creating Layer inception_5a/relu_1x1
I0817 02:25:14.743933  3141 layer_factory.hpp:74] Creating layer inception_5a/relu_pool_proj
I0817 02:25:14.743942  3143 net.cpp:410] inception_5a/relu_1x1 <- inception_5a/1x1
I0817 02:25:14.743953  3141 net.cpp:90] Creating Layer inception_5a/relu_pool_proj
I0817 02:25:14.743966  3141 net.cpp:410] inception_5a/relu_pool_proj <- inception_5a/pool_proj
I0817 02:25:14.743966  3143 net.cpp:357] inception_5a/relu_1x1 -> inception_5a/1x1 (in-place)
I0817 02:25:14.743978  3141 net.cpp:357] inception_5a/relu_pool_proj -> inception_5a/pool_proj (in-place)
I0817 02:25:14.743988  3143 net.cpp:120] Setting up inception_5a/relu_1x1
I0817 02:25:14.743993  3141 net.cpp:120] Setting up inception_5a/relu_pool_proj
I0817 02:25:14.744007  3141 net.cpp:127] Top shape: 10 128 7 7 (62720)
I0817 02:25:14.744014  3143 net.cpp:127] Top shape: 10 256 7 7 (125440)
I0817 02:25:14.744016  3141 layer_factory.hpp:74] Creating layer inception_5a/output
I0817 02:25:14.744030  3143 layer_factory.hpp:74] Creating layer inception_5a/3x3_reduce
I0817 02:25:14.744058  3141 net.cpp:90] Creating Layer inception_5a/output
I0817 02:25:14.744066  3143 net.cpp:90] Creating Layer inception_5a/3x3_reduce
I0817 02:25:14.744071  3141 net.cpp:410] inception_5a/output <- inception_5a/1x1
I0817 02:25:14.744082  3143 net.cpp:410] inception_5a/3x3_reduce <- pool4/3x3_s2_pool4/3x3_s2_0_split_1
I0817 02:25:14.744084  3141 net.cpp:410] inception_5a/output <- inception_5a/3x3
I0817 02:25:14.744102  3141 net.cpp:410] inception_5a/output <- inception_5a/5x5
I0817 02:25:14.744108  3143 net.cpp:368] inception_5a/3x3_reduce -> inception_5a/3x3_reduce
I0817 02:25:14.744112  3141 net.cpp:410] inception_5a/output <- inception_5a/pool_proj
I0817 02:25:14.744130  3143 net.cpp:120] Setting up inception_5a/3x3_reduce
I0817 02:25:14.744138  3141 net.cpp:368] inception_5a/output -> inception_5a/output
I0817 02:25:14.744153  3141 net.cpp:120] Setting up inception_5a/output
I0817 02:25:14.744168  3141 net.cpp:127] Top shape: 10 832 7 7 (407680)
I0817 02:25:14.744177  3141 layer_factory.hpp:74] Creating layer inception_5a/output_inception_5a/output_0_split
I0817 02:25:14.744189  3141 net.cpp:90] Creating Layer inception_5a/output_inception_5a/output_0_split
I0817 02:25:14.744199  3141 net.cpp:410] inception_5a/output_inception_5a/output_0_split <- inception_5a/output
I0817 02:25:14.744210  3141 net.cpp:368] inception_5a/output_inception_5a/output_0_split -> inception_5a/output_inception_5a/output_0_split_0
I0817 02:25:14.744236  3141 net.cpp:368] inception_5a/output_inception_5a/output_0_split -> inception_5a/output_inception_5a/output_0_split_1
I0817 02:25:14.744277  3141 net.cpp:368] inception_5a/output_inception_5a/output_0_split -> inception_5a/output_inception_5a/output_0_split_2
I0817 02:25:14.744305  3141 net.cpp:368] inception_5a/output_inception_5a/output_0_split -> inception_5a/output_inception_5a/output_0_split_3
I0817 02:25:14.744320  3141 net.cpp:120] Setting up inception_5a/output_inception_5a/output_0_split
I0817 02:25:14.744334  3141 net.cpp:127] Top shape: 10 832 7 7 (407680)
I0817 02:25:14.744345  3141 net.cpp:127] Top shape: 10 832 7 7 (407680)
I0817 02:25:14.744355  3141 net.cpp:127] Top shape: 10 832 7 7 (407680)
I0817 02:25:14.744364  3141 net.cpp:127] Top shape: 10 832 7 7 (407680)
I0817 02:25:14.744379  3141 layer_factory.hpp:74] Creating layer inception_5b/1x1
I0817 02:25:14.744398  3141 net.cpp:90] Creating Layer inception_5b/1x1
I0817 02:25:14.744418  3141 net.cpp:410] inception_5b/1x1 <- inception_5a/output_inception_5a/output_0_split_0
I0817 02:25:14.744463  3141 net.cpp:368] inception_5b/1x1 -> inception_5b/1x1
I0817 02:25:14.744493  3141 net.cpp:120] Setting up inception_5b/1x1
I0817 02:25:14.745929  3139 net.cpp:127] Top shape: 10 384 7 7 (188160)
I0817 02:25:14.745967  3139 layer_factory.hpp:74] Creating layer inception_5b/relu_1x1
I0817 02:25:14.745985  3139 net.cpp:90] Creating Layer inception_5b/relu_1x1
I0817 02:25:14.745998  3139 net.cpp:410] inception_5b/relu_1x1 <- inception_5b/1x1
I0817 02:25:14.746016  3139 net.cpp:357] inception_5b/relu_1x1 -> inception_5b/1x1 (in-place)
I0817 02:25:14.746032  3139 net.cpp:120] Setting up inception_5b/relu_1x1
I0817 02:25:14.746059  3139 net.cpp:127] Top shape: 10 384 7 7 (188160)
I0817 02:25:14.746072  3139 layer_factory.hpp:74] Creating layer inception_5b/3x3_reduce
I0817 02:25:14.746088  3139 net.cpp:90] Creating Layer inception_5b/3x3_reduce
I0817 02:25:14.746098  3139 net.cpp:410] inception_5b/3x3_reduce <- inception_5a/output_inception_5a/output_0_split_1
I0817 02:25:14.746129  3139 net.cpp:368] inception_5b/3x3_reduce -> inception_5b/3x3_reduce
I0817 02:25:14.746148  3139 net.cpp:120] Setting up inception_5b/3x3_reduce
I0817 02:25:14.746247  3143 net.cpp:127] Top shape: 10 160 7 7 (78400)
I0817 02:25:14.746289  3143 layer_factory.hpp:74] Creating layer inception_5a/relu_3x3_reduce
I0817 02:25:14.746310  3143 net.cpp:90] Creating Layer inception_5a/relu_3x3_reduce
I0817 02:25:14.746336  3143 net.cpp:410] inception_5a/relu_3x3_reduce <- inception_5a/3x3_reduce
I0817 02:25:14.746383  3143 net.cpp:357] inception_5a/relu_3x3_reduce -> inception_5a/3x3_reduce (in-place)
I0817 02:25:14.746404  3143 net.cpp:120] Setting up inception_5a/relu_3x3_reduce
I0817 02:25:14.746439  3143 net.cpp:127] Top shape: 10 160 7 7 (78400)
I0817 02:25:14.746464  3143 layer_factory.hpp:74] Creating layer inception_5a/3x3
I0817 02:25:14.746492  3143 net.cpp:90] Creating Layer inception_5a/3x3
I0817 02:25:14.746512  3143 net.cpp:410] inception_5a/3x3 <- inception_5a/3x3_reduce
I0817 02:25:14.746532  3143 net.cpp:368] inception_5a/3x3 -> inception_5a/3x3
I0817 02:25:14.746568  3143 net.cpp:120] Setting up inception_5a/3x3
I0817 02:25:14.748111  3141 net.cpp:127] Top shape: 10 384 7 7 (188160)
I0817 02:25:14.748147  3141 layer_factory.hpp:74] Creating layer inception_5b/relu_1x1
I0817 02:25:14.748162  3141 net.cpp:90] Creating Layer inception_5b/relu_1x1
I0817 02:25:14.748173  3141 net.cpp:410] inception_5b/relu_1x1 <- inception_5b/1x1
I0817 02:25:14.748185  3141 net.cpp:357] inception_5b/relu_1x1 -> inception_5b/1x1 (in-place)
I0817 02:25:14.748199  3141 net.cpp:120] Setting up inception_5b/relu_1x1
I0817 02:25:14.748211  3141 net.cpp:127] Top shape: 10 384 7 7 (188160)
I0817 02:25:14.748224  3139 net.cpp:127] Top shape: 10 192 7 7 (94080)
I0817 02:25:14.748229  3141 layer_factory.hpp:74] Creating layer inception_5b/3x3_reduce
I0817 02:25:14.748250  3139 layer_factory.hpp:74] Creating layer inception_5b/relu_3x3_reduce
I0817 02:25:14.748251  3141 net.cpp:90] Creating Layer inception_5b/3x3_reduce
I0817 02:25:14.748267  3141 net.cpp:410] inception_5b/3x3_reduce <- inception_5a/output_inception_5a/output_0_split_1
I0817 02:25:14.748280  3139 net.cpp:90] Creating Layer inception_5b/relu_3x3_reduce
I0817 02:25:14.748286  3141 net.cpp:368] inception_5b/3x3_reduce -> inception_5b/3x3_reduce
I0817 02:25:14.748294  3139 net.cpp:410] inception_5b/relu_3x3_reduce <- inception_5b/3x3_reduce
I0817 02:25:14.748301  3141 net.cpp:120] Setting up inception_5b/3x3_reduce
I0817 02:25:14.748308  3139 net.cpp:357] inception_5b/relu_3x3_reduce -> inception_5b/3x3_reduce (in-place)
I0817 02:25:14.748323  3139 net.cpp:120] Setting up inception_5b/relu_3x3_reduce
I0817 02:25:14.748337  3139 net.cpp:127] Top shape: 10 192 7 7 (94080)
I0817 02:25:14.748358  3139 layer_factory.hpp:74] Creating layer inception_5b/3x3
I0817 02:25:14.748389  3139 net.cpp:90] Creating Layer inception_5b/3x3
I0817 02:25:14.748411  3139 net.cpp:410] inception_5b/3x3 <- inception_5b/3x3_reduce
I0817 02:25:14.748428  3139 net.cpp:368] inception_5b/3x3 -> inception_5b/3x3
I0817 02:25:14.748445  3139 net.cpp:120] Setting up inception_5b/3x3
I0817 02:25:14.750205  3141 net.cpp:127] Top shape: 10 192 7 7 (94080)
I0817 02:25:14.750259  3141 layer_factory.hpp:74] Creating layer inception_5b/relu_3x3_reduce
I0817 02:25:14.750277  3141 net.cpp:90] Creating Layer inception_5b/relu_3x3_reduce
I0817 02:25:14.750289  3141 net.cpp:410] inception_5b/relu_3x3_reduce <- inception_5b/3x3_reduce
I0817 02:25:14.750306  3141 net.cpp:357] inception_5b/relu_3x3_reduce -> inception_5b/3x3_reduce (in-place)
I0817 02:25:14.750321  3141 net.cpp:120] Setting up inception_5b/relu_3x3_reduce
I0817 02:25:14.750341  3141 net.cpp:127] Top shape: 10 192 7 7 (94080)
I0817 02:25:14.750356  3141 layer_factory.hpp:74] Creating layer inception_5b/3x3
I0817 02:25:14.750371  3141 net.cpp:90] Creating Layer inception_5b/3x3
I0817 02:25:14.750382  3141 net.cpp:410] inception_5b/3x3 <- inception_5b/3x3_reduce
I0817 02:25:14.750399  3141 net.cpp:368] inception_5b/3x3 -> inception_5b/3x3
I0817 02:25:14.750416  3141 net.cpp:120] Setting up inception_5b/3x3
I0817 02:25:14.753756  3143 net.cpp:127] Top shape: 10 320 7 7 (156800)
I0817 02:25:14.753808  3143 layer_factory.hpp:74] Creating layer inception_5a/relu_3x3
I0817 02:25:14.753835  3143 net.cpp:90] Creating Layer inception_5a/relu_3x3
I0817 02:25:14.753854  3143 net.cpp:410] inception_5a/relu_3x3 <- inception_5a/3x3
I0817 02:25:14.753873  3143 net.cpp:357] inception_5a/relu_3x3 -> inception_5a/3x3 (in-place)
I0817 02:25:14.753918  3143 net.cpp:120] Setting up inception_5a/relu_3x3
I0817 02:25:14.753938  3143 net.cpp:127] Top shape: 10 320 7 7 (156800)
I0817 02:25:14.753973  3143 layer_factory.hpp:74] Creating layer inception_5a/5x5_reduce
I0817 02:25:14.753998  3143 net.cpp:90] Creating Layer inception_5a/5x5_reduce
I0817 02:25:14.754021  3143 net.cpp:410] inception_5a/5x5_reduce <- pool4/3x3_s2_pool4/3x3_s2_0_split_2
I0817 02:25:14.754043  3143 net.cpp:368] inception_5a/5x5_reduce -> inception_5a/5x5_reduce
I0817 02:25:14.754073  3143 net.cpp:120] Setting up inception_5a/5x5_reduce
I0817 02:25:14.754513  3143 net.cpp:127] Top shape: 10 32 7 7 (15680)
I0817 02:25:14.754554  3143 layer_factory.hpp:74] Creating layer inception_5a/relu_5x5_reduce
I0817 02:25:14.754575  3143 net.cpp:90] Creating Layer inception_5a/relu_5x5_reduce
I0817 02:25:14.754590  3143 net.cpp:410] inception_5a/relu_5x5_reduce <- inception_5a/5x5_reduce
I0817 02:25:14.754607  3143 net.cpp:357] inception_5a/relu_5x5_reduce -> inception_5a/5x5_reduce (in-place)
I0817 02:25:14.754624  3143 net.cpp:120] Setting up inception_5a/relu_5x5_reduce
I0817 02:25:14.754642  3143 net.cpp:127] Top shape: 10 32 7 7 (15680)
I0817 02:25:14.754657  3143 layer_factory.hpp:74] Creating layer inception_5a/5x5
I0817 02:25:14.754678  3143 net.cpp:90] Creating Layer inception_5a/5x5
I0817 02:25:14.754709  3143 net.cpp:410] inception_5a/5x5 <- inception_5a/5x5_reduce
I0817 02:25:14.754729  3143 net.cpp:368] inception_5a/5x5 -> inception_5a/5x5
I0817 02:25:14.754750  3143 net.cpp:120] Setting up inception_5a/5x5
I0817 02:25:14.755208  3139 net.cpp:127] Top shape: 10 384 7 7 (188160)
I0817 02:25:14.755251  3139 layer_factory.hpp:74] Creating layer inception_5b/relu_3x3
I0817 02:25:14.755275  3139 net.cpp:90] Creating Layer inception_5b/relu_3x3
I0817 02:25:14.755290  3139 net.cpp:410] inception_5b/relu_3x3 <- inception_5b/3x3
I0817 02:25:14.755314  3139 net.cpp:357] inception_5b/relu_3x3 -> inception_5b/3x3 (in-place)
I0817 02:25:14.755343  3139 net.cpp:120] Setting up inception_5b/relu_3x3
I0817 02:25:14.755362  3139 net.cpp:127] Top shape: 10 384 7 7 (188160)
I0817 02:25:14.755390  3139 layer_factory.hpp:74] Creating layer inception_5b/5x5_reduce
I0817 02:25:14.755415  3139 net.cpp:90] Creating Layer inception_5b/5x5_reduce
I0817 02:25:14.755450  3139 net.cpp:410] inception_5b/5x5_reduce <- inception_5a/output_inception_5a/output_0_split_2
I0817 02:25:14.755475  3139 net.cpp:368] inception_5b/5x5_reduce -> inception_5b/5x5_reduce
I0817 02:25:14.755504  3139 net.cpp:120] Setting up inception_5b/5x5_reduce
I0817 02:25:14.755980  3143 net.cpp:127] Top shape: 10 128 7 7 (62720)
I0817 02:25:14.755995  3139 net.cpp:127] Top shape: 10 48 7 7 (23520)
I0817 02:25:14.756016  3143 layer_factory.hpp:74] Creating layer inception_5a/relu_5x5
I0817 02:25:14.756028  3139 layer_factory.hpp:74] Creating layer inception_5b/relu_5x5_reduce
I0817 02:25:14.756037  3143 net.cpp:90] Creating Layer inception_5a/relu_5x5
I0817 02:25:14.756044  3139 net.cpp:90] Creating Layer inception_5b/relu_5x5_reduce
I0817 02:25:14.756050  3143 net.cpp:410] inception_5a/relu_5x5 <- inception_5a/5x5
I0817 02:25:14.756057  3139 net.cpp:410] inception_5b/relu_5x5_reduce <- inception_5b/5x5_reduce
I0817 02:25:14.756063  3143 net.cpp:357] inception_5a/relu_5x5 -> inception_5a/5x5 (in-place)
I0817 02:25:14.756078  3143 net.cpp:120] Setting up inception_5a/relu_5x5
I0817 02:25:14.756083  3139 net.cpp:357] inception_5b/relu_5x5_reduce -> inception_5b/5x5_reduce (in-place)
I0817 02:25:14.756090  3143 net.cpp:127] Top shape: 10 128 7 7 (62720)
I0817 02:25:14.756108  3143 layer_factory.hpp:74] Creating layer inception_5a/pool
I0817 02:25:14.756108  3139 net.cpp:120] Setting up inception_5b/relu_5x5_reduce
I0817 02:25:14.756129  3139 net.cpp:127] Top shape: 10 48 7 7 (23520)
I0817 02:25:14.756150  3139 layer_factory.hpp:74] Creating layer inception_5b/5x5
I0817 02:25:14.756157  3143 net.cpp:90] Creating Layer inception_5a/pool
I0817 02:25:14.756168  3139 net.cpp:90] Creating Layer inception_5b/5x5
I0817 02:25:14.756171  3143 net.cpp:410] inception_5a/pool <- pool4/3x3_s2_pool4/3x3_s2_0_split_3
I0817 02:25:14.756181  3139 net.cpp:410] inception_5b/5x5 <- inception_5b/5x5_reduce
I0817 02:25:14.756206  3143 net.cpp:368] inception_5a/pool -> inception_5a/pool
I0817 02:25:14.756223  3143 net.cpp:120] Setting up inception_5a/pool
I0817 02:25:14.756229  3139 net.cpp:368] inception_5b/5x5 -> inception_5b/5x5
I0817 02:25:14.756242  3143 net.cpp:127] Top shape: 10 832 7 7 (407680)
I0817 02:25:14.756254  3143 layer_factory.hpp:74] Creating layer inception_5a/pool_proj
I0817 02:25:14.756252  3139 net.cpp:120] Setting up inception_5b/5x5
I0817 02:25:14.756273  3143 net.cpp:90] Creating Layer inception_5a/pool_proj
I0817 02:25:14.756285  3143 net.cpp:410] inception_5a/pool_proj <- inception_5a/pool
I0817 02:25:14.756299  3143 net.cpp:368] inception_5a/pool_proj -> inception_5a/pool_proj
I0817 02:25:14.756314  3143 net.cpp:120] Setting up inception_5a/pool_proj
I0817 02:25:14.757519  3141 net.cpp:127] Top shape: 10 384 7 7 (188160)
I0817 02:25:14.757561  3141 layer_factory.hpp:74] Creating layer inception_5b/relu_3x3
I0817 02:25:14.757580  3141 net.cpp:90] Creating Layer inception_5b/relu_3x3
I0817 02:25:14.757580  3143 net.cpp:127] Top shape: 10 128 7 7 (62720)
I0817 02:25:14.757592  3141 net.cpp:410] inception_5b/relu_3x3 <- inception_5b/3x3
I0817 02:25:14.757602  3143 layer_factory.hpp:74] Creating layer inception_5a/relu_pool_proj
I0817 02:25:14.757611  3141 net.cpp:357] inception_5b/relu_3x3 -> inception_5b/3x3 (in-place)
I0817 02:25:14.757617  3143 net.cpp:90] Creating Layer inception_5a/relu_pool_proj
I0817 02:25:14.757627  3141 net.cpp:120] Setting up inception_5b/relu_3x3
I0817 02:25:14.757628  3143 net.cpp:410] inception_5a/relu_pool_proj <- inception_5a/pool_proj
I0817 02:25:14.757640  3141 net.cpp:127] Top shape: 10 384 7 7 (188160)
I0817 02:25:14.757647  3143 net.cpp:357] inception_5a/relu_pool_proj -> inception_5a/pool_proj (in-place)
I0817 02:25:14.757650  3141 layer_factory.hpp:74] Creating layer inception_5b/5x5_reduce
I0817 02:25:14.757663  3143 net.cpp:120] Setting up inception_5a/relu_pool_proj
I0817 02:25:14.757666  3141 net.cpp:90] Creating Layer inception_5b/5x5_reduce
I0817 02:25:14.757675  3143 net.cpp:127] Top shape: 10 128 7 7 (62720)
I0817 02:25:14.757678  3141 net.cpp:410] inception_5b/5x5_reduce <- inception_5a/output_inception_5a/output_0_split_2
I0817 02:25:14.757686  3143 layer_factory.hpp:74] Creating layer inception_5a/output
I0817 02:25:14.757697  3141 net.cpp:368] inception_5b/5x5_reduce -> inception_5b/5x5_reduce
I0817 02:25:14.757699  3143 net.cpp:90] Creating Layer inception_5a/output
I0817 02:25:14.757715  3143 net.cpp:410] inception_5a/output <- inception_5a/1x1
I0817 02:25:14.757720  3141 net.cpp:120] Setting up inception_5b/5x5_reduce
I0817 02:25:14.757726  3143 net.cpp:410] inception_5a/output <- inception_5a/3x3
I0817 02:25:14.757738  3143 net.cpp:410] inception_5a/output <- inception_5a/5x5
I0817 02:25:14.757750  3143 net.cpp:410] inception_5a/output <- inception_5a/pool_proj
I0817 02:25:14.757761  3143 net.cpp:368] inception_5a/output -> inception_5a/output
I0817 02:25:14.757788  3143 net.cpp:120] Setting up inception_5a/output
I0817 02:25:14.757807  3143 net.cpp:127] Top shape: 10 832 7 7 (407680)
I0817 02:25:14.757817  3143 layer_factory.hpp:74] Creating layer inception_5a/output_inception_5a/output_0_split
I0817 02:25:14.757848  3143 net.cpp:90] Creating Layer inception_5a/output_inception_5a/output_0_split
I0817 02:25:14.757860  3143 net.cpp:410] inception_5a/output_inception_5a/output_0_split <- inception_5a/output
I0817 02:25:14.757872  3143 net.cpp:368] inception_5a/output_inception_5a/output_0_split -> inception_5a/output_inception_5a/output_0_split_0
I0817 02:25:14.757887  3143 net.cpp:368] inception_5a/output_inception_5a/output_0_split -> inception_5a/output_inception_5a/output_0_split_1
I0817 02:25:14.757910  3143 net.cpp:368] inception_5a/output_inception_5a/output_0_split -> inception_5a/output_inception_5a/output_0_split_2
I0817 02:25:14.757926  3143 net.cpp:368] inception_5a/output_inception_5a/output_0_split -> inception_5a/output_inception_5a/output_0_split_3
I0817 02:25:14.757961  3143 net.cpp:120] Setting up inception_5a/output_inception_5a/output_0_split
I0817 02:25:14.757977  3143 net.cpp:127] Top shape: 10 832 7 7 (407680)
I0817 02:25:14.757988  3143 net.cpp:127] Top shape: 10 832 7 7 (407680)
I0817 02:25:14.758004  3143 net.cpp:127] Top shape: 10 832 7 7 (407680)
I0817 02:25:14.758016  3143 net.cpp:127] Top shape: 10 832 7 7 (407680)
I0817 02:25:14.758025  3143 layer_factory.hpp:74] Creating layer inception_5b/1x1
I0817 02:25:14.758043  3143 net.cpp:90] Creating Layer inception_5b/1x1
I0817 02:25:14.758061  3143 net.cpp:410] inception_5b/1x1 <- inception_5a/output_inception_5a/output_0_split_0
I0817 02:25:14.758081  3143 net.cpp:368] inception_5b/1x1 -> inception_5b/1x1
I0817 02:25:14.758096  3143 net.cpp:120] Setting up inception_5b/1x1
I0817 02:25:14.758138  3139 net.cpp:127] Top shape: 10 128 7 7 (62720)
I0817 02:25:14.758180  3139 layer_factory.hpp:74] Creating layer inception_5b/relu_5x5
I0817 02:25:14.758199  3139 net.cpp:90] Creating Layer inception_5b/relu_5x5
I0817 02:25:14.758218  3139 net.cpp:410] inception_5b/relu_5x5 <- inception_5b/5x5
I0817 02:25:14.758232  3139 net.cpp:357] inception_5b/relu_5x5 -> inception_5b/5x5 (in-place)
I0817 02:25:14.758240  3141 net.cpp:127] Top shape: 10 48 7 7 (23520)
I0817 02:25:14.758252  3139 net.cpp:120] Setting up inception_5b/relu_5x5
I0817 02:25:14.758271  3139 net.cpp:127] Top shape: 10 128 7 7 (62720)
I0817 02:25:14.758276  3141 layer_factory.hpp:74] Creating layer inception_5b/relu_5x5_reduce
I0817 02:25:14.758294  3139 layer_factory.hpp:74] Creating layer inception_5b/pool
I0817 02:25:14.758301  3141 net.cpp:90] Creating Layer inception_5b/relu_5x5_reduce
I0817 02:25:14.758311  3139 net.cpp:90] Creating Layer inception_5b/pool
I0817 02:25:14.758323  3139 net.cpp:410] inception_5b/pool <- inception_5a/output_inception_5a/output_0_split_3
I0817 02:25:14.758322  3141 net.cpp:410] inception_5b/relu_5x5_reduce <- inception_5b/5x5_reduce
I0817 02:25:14.758342  3139 net.cpp:368] inception_5b/pool -> inception_5b/pool
I0817 02:25:14.758350  3141 net.cpp:357] inception_5b/relu_5x5_reduce -> inception_5b/5x5_reduce (in-place)
I0817 02:25:14.758371  3139 net.cpp:120] Setting up inception_5b/pool
I0817 02:25:14.758375  3141 net.cpp:120] Setting up inception_5b/relu_5x5_reduce
I0817 02:25:14.758390  3139 net.cpp:127] Top shape: 10 832 7 7 (407680)
I0817 02:25:14.758402  3139 layer_factory.hpp:74] Creating layer inception_5b/pool_proj
I0817 02:25:14.758400  3141 net.cpp:127] Top shape: 10 48 7 7 (23520)
I0817 02:25:14.758417  3139 net.cpp:90] Creating Layer inception_5b/pool_proj
I0817 02:25:14.758424  3141 layer_factory.hpp:74] Creating layer inception_5b/5x5
I0817 02:25:14.758443  3139 net.cpp:410] inception_5b/pool_proj <- inception_5b/pool
I0817 02:25:14.758447  3141 net.cpp:90] Creating Layer inception_5b/5x5
I0817 02:25:14.758460  3139 net.cpp:368] inception_5b/pool_proj -> inception_5b/pool_proj
I0817 02:25:14.758466  3141 net.cpp:410] inception_5b/5x5 <- inception_5b/5x5_reduce
I0817 02:25:14.758477  3139 net.cpp:120] Setting up inception_5b/pool_proj
I0817 02:25:14.758503  3141 net.cpp:368] inception_5b/5x5 -> inception_5b/5x5
I0817 02:25:14.758534  3141 net.cpp:120] Setting up inception_5b/5x5
I0817 02:25:14.759649  3139 net.cpp:127] Top shape: 10 128 7 7 (62720)
I0817 02:25:14.759688  3139 layer_factory.hpp:74] Creating layer inception_5b/relu_pool_proj
I0817 02:25:14.759706  3139 net.cpp:90] Creating Layer inception_5b/relu_pool_proj
I0817 02:25:14.759717  3139 net.cpp:410] inception_5b/relu_pool_proj <- inception_5b/pool_proj
I0817 02:25:14.759742  3139 net.cpp:357] inception_5b/relu_pool_proj -> inception_5b/pool_proj (in-place)
I0817 02:25:14.759769  3139 net.cpp:120] Setting up inception_5b/relu_pool_proj
I0817 02:25:14.759785  3139 net.cpp:127] Top shape: 10 128 7 7 (62720)
I0817 02:25:14.759795  3139 layer_factory.hpp:74] Creating layer inception_5b/output
I0817 02:25:14.759812  3139 net.cpp:90] Creating Layer inception_5b/output
I0817 02:25:14.759847  3139 net.cpp:410] inception_5b/output <- inception_5b/1x1
I0817 02:25:14.759925  3139 net.cpp:410] inception_5b/output <- inception_5b/3x3
I0817 02:25:14.759943  3139 net.cpp:410] inception_5b/output <- inception_5b/5x5
I0817 02:25:14.759954  3139 net.cpp:410] inception_5b/output <- inception_5b/pool_proj
I0817 02:25:14.759974  3139 net.cpp:368] inception_5b/output -> inception_5b/output
I0817 02:25:14.759989  3139 net.cpp:120] Setting up inception_5b/output
I0817 02:25:14.760015  3139 net.cpp:127] Top shape: 10 1024 7 7 (501760)
I0817 02:25:14.760028  3139 layer_factory.hpp:74] Creating layer pool5/7x7_s1
I0817 02:25:14.760043  3139 net.cpp:90] Creating Layer pool5/7x7_s1
I0817 02:25:14.760064  3139 net.cpp:410] pool5/7x7_s1 <- inception_5b/output
I0817 02:25:14.760093  3139 net.cpp:368] pool5/7x7_s1 -> pool5/7x7_s1
I0817 02:25:14.760120  3139 net.cpp:120] Setting up pool5/7x7_s1
I0817 02:25:14.760138  3139 net.cpp:127] Top shape: 10 1024 1 1 (10240)
I0817 02:25:14.760149  3139 layer_factory.hpp:74] Creating layer pool5/drop_7x7_s1
I0817 02:25:14.760184  3139 net.cpp:90] Creating Layer pool5/drop_7x7_s1
I0817 02:25:14.760196  3139 net.cpp:410] pool5/drop_7x7_s1 <- pool5/7x7_s1
I0817 02:25:14.760224  3139 net.cpp:357] pool5/drop_7x7_s1 -> pool5/7x7_s1 (in-place)
I0817 02:25:14.760249  3139 net.cpp:120] Setting up pool5/drop_7x7_s1
I0817 02:25:14.760272  3139 net.cpp:127] Top shape: 10 1024 1 1 (10240)
I0817 02:25:14.760294  3139 layer_factory.hpp:74] Creating layer loss3/classifier
I0817 02:25:14.760309  3141 net.cpp:127] Top shape: 10 128 7 7 (62720)
I0817 02:25:14.760320  3139 net.cpp:90] Creating Layer loss3/classifier
I0817 02:25:14.760334  3139 net.cpp:410] loss3/classifier <- pool5/7x7_s1
I0817 02:25:14.760334  3141 layer_factory.hpp:74] Creating layer inception_5b/relu_5x5
I0817 02:25:14.760351  3141 net.cpp:90] Creating Layer inception_5b/relu_5x5
I0817 02:25:14.760362  3141 net.cpp:410] inception_5b/relu_5x5 <- inception_5b/5x5
I0817 02:25:14.760366  3139 net.cpp:368] loss3/classifier -> loss3/classifier
I0817 02:25:14.760375  3141 net.cpp:357] inception_5b/relu_5x5 -> inception_5b/5x5 (in-place)
I0817 02:25:14.760386  3139 net.cpp:120] Setting up loss3/classifier
I0817 02:25:14.760388  3141 net.cpp:120] Setting up inception_5b/relu_5x5
I0817 02:25:14.760407  3141 net.cpp:127] Top shape: 10 128 7 7 (62720)
I0817 02:25:14.760423  3141 layer_factory.hpp:74] Creating layer inception_5b/pool
I0817 02:25:14.760443  3141 net.cpp:90] Creating Layer inception_5b/pool
I0817 02:25:14.760464  3141 net.cpp:410] inception_5b/pool <- inception_5a/output_inception_5a/output_0_split_3
I0817 02:25:14.760479  3141 net.cpp:368] inception_5b/pool -> inception_5b/pool
I0817 02:25:14.760495  3141 net.cpp:120] Setting up inception_5b/pool
I0817 02:25:14.760515  3141 net.cpp:127] Top shape: 10 832 7 7 (407680)
I0817 02:25:14.760535  3141 layer_factory.hpp:74] Creating layer inception_5b/pool_proj
I0817 02:25:14.760550  3141 net.cpp:90] Creating Layer inception_5b/pool_proj
I0817 02:25:14.760561  3141 net.cpp:410] inception_5b/pool_proj <- inception_5b/pool
I0817 02:25:14.760574  3141 net.cpp:368] inception_5b/pool_proj -> inception_5b/pool_proj
I0817 02:25:14.760602  3141 net.cpp:120] Setting up inception_5b/pool_proj
I0817 02:25:14.761800  3143 net.cpp:127] Top shape: 10 384 7 7 (188160)
I0817 02:25:14.761803  3141 net.cpp:127] Top shape: 10 128 7 7 (62720)
I0817 02:25:14.761832  3141 layer_factory.hpp:74] Creating layer inception_5b/relu_pool_proj
I0817 02:25:14.761837  3143 layer_factory.hpp:74] Creating layer inception_5b/relu_1x1
I0817 02:25:14.761847  3141 net.cpp:90] Creating Layer inception_5b/relu_pool_proj
I0817 02:25:14.761857  3141 net.cpp:410] inception_5b/relu_pool_proj <- inception_5b/pool_proj
I0817 02:25:14.761854  3143 net.cpp:90] Creating Layer inception_5b/relu_1x1
I0817 02:25:14.761869  3141 net.cpp:357] inception_5b/relu_pool_proj -> inception_5b/pool_proj (in-place)
I0817 02:25:14.761880  3143 net.cpp:410] inception_5b/relu_1x1 <- inception_5b/1x1
I0817 02:25:14.761884  3141 net.cpp:120] Setting up inception_5b/relu_pool_proj
I0817 02:25:14.761894  3143 net.cpp:357] inception_5b/relu_1x1 -> inception_5b/1x1 (in-place)
I0817 02:25:14.761909  3141 net.cpp:127] Top shape: 10 128 7 7 (62720)
I0817 02:25:14.761914  3143 net.cpp:120] Setting up inception_5b/relu_1x1
I0817 02:25:14.761919  3141 layer_factory.hpp:74] Creating layer inception_5b/output
I0817 02:25:14.761929  3143 net.cpp:127] Top shape: 10 384 7 7 (188160)
I0817 02:25:14.761932  3141 net.cpp:90] Creating Layer inception_5b/output
I0817 02:25:14.761940  3143 layer_factory.hpp:74] Creating layer inception_5b/3x3_reduce
I0817 02:25:14.761943  3141 net.cpp:410] inception_5b/output <- inception_5b/1x1
I0817 02:25:14.761953  3143 net.cpp:90] Creating Layer inception_5b/3x3_reduce
I0817 02:25:14.761955  3141 net.cpp:410] inception_5b/output <- inception_5b/3x3
I0817 02:25:14.761965  3143 net.cpp:410] inception_5b/3x3_reduce <- inception_5a/output_inception_5a/output_0_split_1
I0817 02:25:14.761970  3141 net.cpp:410] inception_5b/output <- inception_5b/5x5
I0817 02:25:14.761981  3141 net.cpp:410] inception_5b/output <- inception_5b/pool_proj
I0817 02:25:14.761988  3143 net.cpp:368] inception_5b/3x3_reduce -> inception_5b/3x3_reduce
I0817 02:25:14.762001  3141 net.cpp:368] inception_5b/output -> inception_5b/output
I0817 02:25:14.762007  3143 net.cpp:120] Setting up inception_5b/3x3_reduce
I0817 02:25:14.762015  3141 net.cpp:120] Setting up inception_5b/output
I0817 02:25:14.762032  3141 net.cpp:127] Top shape: 10 1024 7 7 (501760)
I0817 02:25:14.762047  3141 layer_factory.hpp:74] Creating layer pool5/7x7_s1
I0817 02:25:14.762064  3141 net.cpp:90] Creating Layer pool5/7x7_s1
I0817 02:25:14.762087  3141 net.cpp:410] pool5/7x7_s1 <- inception_5b/output
I0817 02:25:14.762102  3141 net.cpp:368] pool5/7x7_s1 -> pool5/7x7_s1
I0817 02:25:14.762116  3141 net.cpp:120] Setting up pool5/7x7_s1
I0817 02:25:14.762140  3141 net.cpp:127] Top shape: 10 1024 1 1 (10240)
I0817 02:25:14.762152  3141 layer_factory.hpp:74] Creating layer pool5/drop_7x7_s1
I0817 02:25:14.762181  3141 net.cpp:90] Creating Layer pool5/drop_7x7_s1
I0817 02:25:14.762193  3141 net.cpp:410] pool5/drop_7x7_s1 <- pool5/7x7_s1
I0817 02:25:14.762207  3141 net.cpp:357] pool5/drop_7x7_s1 -> pool5/7x7_s1 (in-place)
I0817 02:25:14.762231  3141 net.cpp:120] Setting up pool5/drop_7x7_s1
I0817 02:25:14.762250  3141 net.cpp:127] Top shape: 10 1024 1 1 (10240)
I0817 02:25:14.762260  3141 layer_factory.hpp:74] Creating layer loss3/classifier
I0817 02:25:14.762290  3141 net.cpp:90] Creating Layer loss3/classifier
I0817 02:25:14.762302  3141 net.cpp:410] loss3/classifier <- pool5/7x7_s1
I0817 02:25:14.762320  3141 net.cpp:368] loss3/classifier -> loss3/classifier
I0817 02:25:14.762344  3141 net.cpp:120] Setting up loss3/classifier
I0817 02:25:14.763792  3143 net.cpp:127] Top shape: 10 192 7 7 (94080)
I0817 02:25:14.763828  3143 layer_factory.hpp:74] Creating layer inception_5b/relu_3x3_reduce
I0817 02:25:14.763844  3143 net.cpp:90] Creating Layer inception_5b/relu_3x3_reduce
I0817 02:25:14.763854  3143 net.cpp:410] inception_5b/relu_3x3_reduce <- inception_5b/3x3_reduce
I0817 02:25:14.763866  3143 net.cpp:357] inception_5b/relu_3x3_reduce -> inception_5b/3x3_reduce (in-place)
I0817 02:25:14.763880  3143 net.cpp:120] Setting up inception_5b/relu_3x3_reduce
I0817 02:25:14.763892  3143 net.cpp:127] Top shape: 10 192 7 7 (94080)
I0817 02:25:14.763908  3143 layer_factory.hpp:74] Creating layer inception_5b/3x3
I0817 02:25:14.763929  3143 net.cpp:90] Creating Layer inception_5b/3x3
I0817 02:25:14.763949  3143 net.cpp:410] inception_5b/3x3 <- inception_5b/3x3_reduce
I0817 02:25:14.763968  3143 net.cpp:368] inception_5b/3x3 -> inception_5b/3x3
I0817 02:25:14.763984  3143 net.cpp:120] Setting up inception_5b/3x3
I0817 02:25:14.770539  3143 net.cpp:127] Top shape: 10 384 7 7 (188160)
I0817 02:25:14.770592  3143 layer_factory.hpp:74] Creating layer inception_5b/relu_3x3
I0817 02:25:14.770612  3143 net.cpp:90] Creating Layer inception_5b/relu_3x3
I0817 02:25:14.770624  3143 net.cpp:410] inception_5b/relu_3x3 <- inception_5b/3x3
I0817 02:25:14.770638  3143 net.cpp:357] inception_5b/relu_3x3 -> inception_5b/3x3 (in-place)
I0817 02:25:14.770683  3143 net.cpp:120] Setting up inception_5b/relu_3x3
I0817 02:25:14.770697  3143 net.cpp:127] Top shape: 10 384 7 7 (188160)
I0817 02:25:14.770706  3143 layer_factory.hpp:74] Creating layer inception_5b/5x5_reduce
I0817 02:25:14.770720  3143 net.cpp:90] Creating Layer inception_5b/5x5_reduce
I0817 02:25:14.770737  3143 net.cpp:410] inception_5b/5x5_reduce <- inception_5a/output_inception_5a/output_0_split_2
I0817 02:25:14.770769  3143 net.cpp:368] inception_5b/5x5_reduce -> inception_5b/5x5_reduce
I0817 02:25:14.770810  3143 net.cpp:120] Setting up inception_5b/5x5_reduce
I0817 02:25:14.771162  3139 net.cpp:127] Top shape: 10 1000 (10000)
I0817 02:25:14.771214  3139 layer_factory.hpp:74] Creating layer prob
I0817 02:25:14.771239  3139 net.cpp:90] Creating Layer prob
I0817 02:25:14.771291  3139 net.cpp:410] prob <- loss3/classifier
I0817 02:25:14.771342  3139 net.cpp:368] prob -> prob
I0817 02:25:14.771389  3139 net.cpp:120] Setting up prob
I0817 02:25:14.771417  3143 net.cpp:127] Top shape: 10 48 7 7 (23520)
I0817 02:25:14.771438  3139 net.cpp:127] Top shape: 10 1000 (10000)
I0817 02:25:14.771451  3143 layer_factory.hpp:74] Creating layer inception_5b/relu_5x5_reduce
I0817 02:25:14.771455  3139 net.cpp:194] prob does not need backward computation.
I0817 02:25:14.771467  3143 net.cpp:90] Creating Layer inception_5b/relu_5x5_reduce
I0817 02:25:14.771473  3139 net.cpp:194] loss3/classifier does not need backward computation.
I0817 02:25:14.771479  3143 net.cpp:410] inception_5b/relu_5x5_reduce <- inception_5b/5x5_reduce
I0817 02:25:14.771484  3139 net.cpp:194] pool5/drop_7x7_s1 does not need backward computation.
I0817 02:25:14.771513  3139 net.cpp:194] pool5/7x7_s1 does not need backward computation.
I0817 02:25:14.771530  3143 net.cpp:357] inception_5b/relu_5x5_reduce -> inception_5b/5x5_reduce (in-place)
I0817 02:25:14.771533  3139 net.cpp:194] inception_5b/output does not need backward computation.
I0817 02:25:14.771549  3143 net.cpp:120] Setting up inception_5b/relu_5x5_reduce
I0817 02:25:14.771555  3139 net.cpp:194] inception_5b/relu_pool_proj does not need backward computation.
I0817 02:25:14.771564  3143 net.cpp:127] Top shape: 10 48 7 7 (23520)
I0817 02:25:14.771567  3139 net.cpp:194] inception_5b/pool_proj does not need backward computation.
I0817 02:25:14.771574  3143 layer_factory.hpp:74] Creating layer inception_5b/5x5
I0817 02:25:14.771577  3139 net.cpp:194] inception_5b/pool does not need backward computation.
I0817 02:25:14.771587  3143 net.cpp:90] Creating Layer inception_5b/5x5
I0817 02:25:14.771589  3139 net.cpp:194] inception_5b/relu_5x5 does not need backward computation.
…
I0817 02:25:14.773259  3139 net.cpp:194] inception_3b/relu_pool_proj does not need backward computation.
I0817 02:25:14.773270  3139 net.cpp:194] inception_3b/pool_proj does not need backward computation.
I0817 02:25:14.773282  3139 net.cpp:194] inception_3b/pool does not need backward computation.
I0817 02:25:14.773291  3139 net.cpp:194] inception_3b/relu_5x5 does not need backward computation.
I0817 02:25:14.773301  3139 net.cpp:194] inception_3b/5x5 does not need backward computation.
I0817 02:25:14.773316  3139 net.cpp:194] inception_3b/relu_5x5_reduce does not need backward computation.
I0817 02:25:14.773339  3143 net.cpp:127] Top shape: 10 128 7 7 (62720)
I0817 02:25:14.773339  3139 net.cpp:194] inception_3b/5x5_reduce does not need backward computation.
I0817 02:25:14.773368  3139 net.cpp:194] inception_3b/relu_3x3 does not need backward computation.
I0817 02:25:14.773375  3143 layer_factory.hpp:74] Creating layer inception_5b/relu_5x5
I0817 02:25:14.773381  3139 net.cpp:194] inception_3b/3x3 does not need backward computation.
I0817 02:25:14.773392  3143 net.cpp:90] Creating Layer inception_5b/relu_5x5
I0817 02:25:14.773393  3139 net.cpp:194] inception_3b/relu_3x3_reduce does not need backward computation.
I0817 02:25:14.773403  3143 net.cpp:410] inception_5b/relu_5x5 <- inception_5b/5x5
I0817 02:25:14.773409  3139 net.cpp:194] inception_3b/3x3_reduce does not need backward computation.
I0817 02:25:14.773416  3143 net.cpp:357] inception_5b/relu_5x5 -> inception_5b/5x5 (in-place)
I0817 02:25:14.773421  3139 net.cpp:194] inception_3b/relu_1x1 does not need backward computation.
I0817 02:25:14.773429  3143 net.cpp:120] Setting up inception_5b/relu_5x5
I0817 02:25:14.773432  3139 net.cpp:194] inception_3b/1x1 does not need backward computation.
I0817 02:25:14.773432  3141 net.cpp:127] Top shape: 10 1000 (10000)
I0817 02:25:14.773442  3143 net.cpp:127] Top shape: 10 128 7 7 (62720)
I0817 02:25:14.773444  3139 net.cpp:194] inception_3a/output_inception_3a/output_0_split does not need backward computation.
I0817 02:25:14.773460  3143 layer_factory.hpp:74] Creating layer inception_5b/pool
I0817 02:25:14.773464  3139 net.cpp:194] inception_3a/output does not need backward computation.
I0817 02:25:14.773466  3141 layer_factory.hpp:74] Creating layer prob
I0817 02:25:14.773478  3139 net.cpp:194] inception_3a/relu_pool_proj does not need backward computation.
I0817 02:25:14.773480  3143 net.cpp:90] Creating Layer inception_5b/pool
I0817 02:25:14.773486  3141 net.cpp:90] Creating Layer prob
I0817 02:25:14.773497  3143 net.cpp:410] inception_5b/pool <- inception_5a/output_inception_5a/output_0_split_3
I0817 02:25:14.773495  3139 net.cpp:194] inception_3a/pool_proj does not need backward computation.
I0817 02:25:14.773511  3143 net.cpp:368] inception_5b/pool -> inception_5b/pool
I0817 02:25:14.773509  3141 net.cpp:410] prob <- loss3/classifier
I0817 02:25:14.773520  3139 net.cpp:194] inception_3a/pool does not need backward computation.
I0817 02:25:14.773527  3143 net.cpp:120] Setting up inception_5b/pool
I0817 02:25:14.773541  3139 net.cpp:194] inception_3a/relu_5x5 does not need backward computation.
I0817 02:25:14.773551  3143 net.cpp:127] Top shape: 10 832 7 7 (407680)
I0817 02:25:14.773548  3141 net.cpp:368] prob -> prob
I0817 02:25:14.773584  3143 layer_factory.hpp:74] Creating layer inception_5b/pool_proj
I0817 02:25:14.773586  3139 net.cpp:194] inception_3a/5x5 does not need backward computation.
I0817 02:25:14.773603  3143 net.cpp:90] Creating Layer inception_5b/pool_proj
I0817 02:25:14.773605  3141 net.cpp:120] Setting up prob
I0817 02:25:14.773615  3143 net.cpp:410] inception_5b/pool_proj <- inception_5b/pool
I0817 02:25:14.773610  3139 net.cpp:194] inception_3a/relu_5x5_reduce does not need backward computation.
I0817 02:25:14.773634  3143 net.cpp:368] inception_5b/pool_proj -> inception_5b/pool_proj
I0817 02:25:14.773638  3139 net.cpp:194] inception_3a/5x5_reduce does not need backward computation.
I0817 02:25:14.773654  3139 net.cpp:194] inception_3a/relu_3x3 does not need backward computation.
I0817 02:25:14.773655  3143 net.cpp:120] Setting up inception_5b/pool_proj
I0817 02:25:14.773658  3141 net.cpp:127] Top shape: 10 1000 (10000)
I0817 02:25:14.773665  3139 net.cpp:194] inception_3a/3x3 does not need backward computation.
I0817 02:25:14.773681  3139 net.cpp:194] inception_3a/relu_3x3_reduce does not need backward computation.
I0817 02:25:14.773682  3141 net.cpp:194] prob does not need backward computation.
I0817 02:25:14.773692  3139 net.cpp:194] inception_3a/3x3_reduce does not need backward computation.
I0817 02:25:14.773699  3141 net.cpp:194] loss3/classifier does not need backward computation.
…
