libdc1394 error: Failed to initialize libdc1394
WARNING: Logging before InitGoogleLogging() is written to STDERR
I0816 01:53:51.299033     6 net.cpp:42] Initializing net from parameters: 
name: "GoogleNet"
input: "data"
input_dim: 10
input_dim: 3
input_dim: 224
input_dim: 224
force_backward: true
state {
  phase: TEST
}
layer {
  name: "conv1/7x7_s2"
  type: "Convolution"
  bottom: "data"
  top: "conv1/7x7_s2"
  param {
    lr_mult: 1
    decay_mult: 1
  }
  param {
    lr_mult: 2
    decay_mult: 0
  }
  convolution_param {
    num_output: 64
    pad: 3
    kernel_size: 7
    stride: 2
    weight_filler {
      type: "xavier"
      std: 0.1
    }
    bias_filler {
      type: "constant"
      value: 0.2
    }
  }
}
layer {
  name: "conv1/relu_7x7"
  type: "ReLU"
  bottom: "conv1/7x7_s2"
  top: "conv1/7x7_s2"
}
layer {
  name: "pool1/3x3_s2"
  type: "Pooling"
  bottom: "conv1/7x7_s2"
  top: "pool1/3x3_s2"
  pooling_param {
    pool: MAX
    kernel_size: 3
    stride: 2
  }
}
layer {
  name: "pool1/norm1"
  type: "LRN"
  bottom: "pool1/3x3_s2"
  top: "pool1/norm1"
  lrn_param {
    local_size: 5
    alpha: 0.0001
    beta: 0.75
  }
}
layer {
  name: "conv2/3x3_reduce"
  type: "Convolution"
  bottom: "pool1/norm1"
  top: "conv2/3x3_reduce"
  param {
    lr_mult: 1
    decay_mult: 1
  }
  param {
    lr_mult: 2
    decay_mult: 0
  }
  convolution_param {
    num_output: 64
    kernel_size: 1
    weight_filler {
      type: "xavier"
      std: 0.1
    }
    bias_filler {
      type: "constant"
      value: 0.2
    }
  }
}
layer {
  name: "conv2/relu_3x3_reduce"
  type: "ReLU"
  bottom: "conv2/3x3_reduce"
  top: "conv2/3x3_reduce"
}
layer {
  name: "conv2/3x3"
  type: "Convolution"
  bottom: "conv2/3x3_reduce"
  top: "conv2/3x3"
  param {
    lr_mult: 1
    decay_mult: 1
  }
  param {
    lr_mult: 2
    decay_mult: 0
  }
  convolution_param {
    num_output: 192
    pad: 1
    kernel_size: 3
    weight_filler {
      type: "xavier"
      std: 0.03
    }
    bias_filler {
      type: "constant"
      value: 0.2
    }
  }
}
layer {
  name: "conv2/relu_3x3"
  type: "ReLU"
  bottom: "conv2/3x3"
  top: "conv2/3x3"
}
layer {
  name: "conv2/norm2"
  type: "LRN"
  bottom: "conv2/3x3"
  top: "conv2/norm2"
  lrn_param {
    local_size: 5
    alpha: 0.0001
    beta: 0.75
  }
}
layer {
  name: "pool2/3x3_s2"
  type: "Pooling"
  bottom: "conv2/norm2"
  top: "pool2/3x3_s2"
  pooling_param {
    pool: MAX
    kernel_size: 3
    stride: 2
  }
}
layer {
  name: "inception_3a/1x1"
  type: "Convolution"
  bottom: "pool2/3x3_s2"
  top: "inception_3a/1x1"
  param {
    lr_mult: 1
    decay_mult: 1
  }
  param {
    lr_mult: 2
    decay_mult: 0
  }
  convolution_param {
    num_output: 64
    kernel_size: 1
    weight_filler {
      type: "xavier"
      std: 0.03
    }
    bias_filler {
      type: "constant"
      value: 0.2
    }
  }
}
layer {
  name: "inception_3a/relu_1x1"
  type: "ReLU"
  bottom: "inception_3a/1x1"
  top: "inception_3a/1x1"
}
layer {
  name: "inception_3a/3x3_reduce"
  type: "Convolution"
  bottom: "pool2/3x3_s2"
  top: "inception_3a/3x3_reduce"
  param {
    lr_mult: 1
    decay_mult: 1
  }
  param {
    lr_mult: 2
    decay_mult: 0
  }
  convolution_param {
    num_output: 96
    kernel_size: 1
    weight_filler {
      type: "xavier"
      std: 0.09
    }
    bias_filler {
      type: "constant"
      value: 0.2
    }
  }
}
layer {
  name: "inception_3a/relu_3x3_reduce"
  type: "ReLU"
  bottom: "inception_3a/3x3_reduce"
  top: "inception_3a/3x3_reduce"
}
layer {
  name: "inception_3a/3x3"
  type: "Convolution"
  bottom: "inception_3a/3x3_reduce"
  top: "inception_3a/3x3"
  param {
    lr_mult: 1
    decay_mult: 1
  }
  param {
    lr_mult: 2
    decay_mult: 0
  }
  convolution_param {
    num_output: 128
    pad: 1
    kernel_size: 3
    weight_filler {
      type: "xavier"
      std: 0.03
    }
    bias_filler {
      type: "constant"
      value: 0.2
    }
  }
}
layer {
  name: "inception_3a/relu_3x3"
  type: "ReLU"
  bottom: "inception_3a/3x3"
  top: "inception_3a/3x3"
}
layer {
  name: "inception_3a/5x5_reduce"
  type: "Convolution"
  bottom: "pool2/3x3_s2"
  top: "inception_3a/5x5_reduce"
  param {
    lr_mult: 1
    decay_mult: 1
  }
  param {
    lr_mult: 2
    decay_mult: 0
  }
  convolution_param {
    num_output: 16
    kernel_size: 1
    weight_filler {
      type: "xavier"
      std: 0.2
    }
    bias_filler {
      type: "constant"
      value: 0.2
    }
  }
}
layer {
  name: "inception_3a/relu_5x5_reduce"
  type: "ReLU"
  bottom: "inception_3a/5x5_reduce"
  top: "inception_3a/5x5_reduce"
}
layer {
  name: "inception_3a/5x5"
  type: "Convolution"
  bottom: "inception_3a/5x5_reduce"
  top: "inception_3a/5x5"
  param {
    lr_mult: 1
    decay_mult: 1
  }
  param {
    lr_mult: 2
    decay_mult: 0
  }
  convolution_param {
    num_output: 32
    pad: 2
    kernel_size: 5
    weight_filler {
      type: "xavier"
      std: 0.03
    }
    bias_filler {
      type: "constant"
      value: 0.2
    }
  }
}
layer {
  name: "inception_3a/relu_5x5"
  type: "ReLU"
  bottom: "inception_3a/5x5"
  top: "inception_3a/5x5"
}
layer {
  name: "inception_3a/pool"
  type: "Pooling"
  bottom: "pool2/3x3_s2"
  top: "inception_3a/pool"
  pooling_param {
    pool: MAX
    kernel_size: 3
    stride: 1
    pad: 1
  }
}
layer {
  name: "inception_3a/pool_proj"
  type: "Convolution"
  bottom: "inception_3a/pool"
  top: "inception_3a/pool_proj"
  param {
    lr_mult: 1
    decay_mult: 1
  }
  param {
    lr_mult: 2
    decay_mult: 0
  }
  convolution_param {
    num_output: 32
    kernel_size: 1
    weight_filler {
      type: "xavier"
      std: 0.1
    }
    bias_filler {
      type: "constant"
      value: 0.2
    }
  }
}
layer {
  name: "inception_3a/relu_pool_proj"
  type: "ReLU"
  bottom: "inception_3a/pool_proj"
  top: "inception_3a/pool_proj"
}
layer {
  name: "inception_3a/output"
  type: "Concat"
  bottom: "inception_3a/1x1"
  bottom: "inception_3a/3x3"
  bottom: "inception_3a/5x5"
  bottom: "inception_3a/pool_proj"
  top: "inception_3a/output"
}
layer {
  name: "inception_3b/1x1"
  type: "Convolution"
  bottom: "inception_3a/output"
  top: "inception_3b/1x1"
  param {
    lr_mult: 1
    decay_mult: 1
  }
  param {
    lr_mult: 2
    decay_mult: 0
  }
  convolution_param {
    num_output: 128
    kernel_size: 1
    weight_filler {
      type: "xavier"
      std: 0.03
    }
    bias_filler {
      type: "constant"
      value: 0.2
    }
  }
}
layer {
  name: "inception_3b/relu_1x1"
  type: "ReLU"
  bottom: "inception_3b/1x1"
  top: "inception_3b/1x1"
}
layer {
  name: "inception_3b/3x3_reduce"
  type: "Convolution"
  bottom: "inception_3a/output"
  top: "inception_3b/3x3_reduce"
  param {
    lr_mult: 1
    decay_mult: 1
  }
  param {
    lr_mult: 2
    decay_mult: 0
  }
  convolution_param {
    num_output: 128
    kernel_size: 1
    weight_filler {
      type: "xavier"
      std: 0.09
    }
    bias_filler {
      type: "constant"
      value: 0.2
    }
  }
}
layer {
  name: "inception_3b/relu_3x3_reduce"
  type: "ReLU"
  bottom: "inception_3b/3x3_reduce"
  top: "inception_3b/3x3_reduce"
}
layer {
  name: "inception_3b/3x3"
  type: "Convolution"
  bottom: "inception_3b/3x3_reduce"
  top: "inception_3b/3x3"
  param {
    lr_mult: 1
    decay_mult: 1
  }
  param {
    lr_mult: 2
    decay_mult: 0
  }
  convolution_param {
    num_output: 192
    pad: 1
    kernel_size: 3
    weight_filler {
      type: "xavier"
      std: 0.03
    }
    bias_filler {
      type: "constant"
      value: 0.2
    }
  }
}
layer {
  name: "inception_3b/relu_3x3"
  type: "ReLU"
  bottom: "inception_3b/3x3"
  top: "inception_3b/3x3"
}
layer {
  name: "inception_3b/5x5_reduce"
  type: "Convolution"
  bottom: "inception_3a/output"
  top: "inception_3b/5x5_reduce"
  param {
    lr_mult: 1
    decay_mult: 1
  }
  param {
    lr_mult: 2
    decay_mult: 0
  }
  convolution_param {
    num_output: 32
    kernel_size: 1
    weight_filler {
      type: "xavier"
      std: 0.2
    }
    bias_filler {
      type: "constant"
      value: 0.2
    }
  }
}
layer {
  name: "inception_3b/relu_5x5_reduce"
  type: "ReLU"
  bottom: "inception_3b/5x5_reduce"
  top: "inception_3b/5x5_reduce"
}
layer {
  name: "inception_3b/5x5"
  type: "Convolution"
  bottom: "inception_3b/5x5_reduce"
  top: "inception_3b/5x5"
  param {
    lr_mult: 1
    decay_mult: 1
  }
  param {
    lr_mult: 2
    decay_mult: 0
  }
  convolution_param {
    num_output: 96
    pad: 2
    kernel_size: 5
    weight_filler {
      type: "xavier"
      std: 0.03
    }
    bias_filler {
      type: "constant"
      value: 0.2
    }
  }
}
layer {
  name: "inception_3b/relu_5x5"
  type: "ReLU"
  bottom: "inception_3b/5x5"
  top: "inception_3b/5x5"
}
layer {
  name: "inception_3b/pool"
  type: "Pooling"
  bottom: "inception_3a/output"
  top: "inception_3b/pool"
  pooling_param {
    pool: MAX
    kernel_size: 3
    stride: 1
    pad: 1
  }
}
layer {
  name: "inception_3b/pool_proj"
  type: "Convolution"
  bottom: "inception_3b/pool"
  top: "inception_3b/pool_proj"
  param {
    lr_mult: 1
    decay_mult: 1
  }
  param {
    lr_mult: 2
    decay_mult: 0
  }
  convolution_param {
    num_output: 64
    kernel_size: 1
    weight_filler {
      type: "xavier"
      std: 0.1
    }
    bias_filler {
      type: "constant"
      value: 0.2
    }
  }
}
layer {
  name: "inception_3b/relu_pool_proj"
  type: "ReLU"
  bottom: "inception_3b/pool_proj"
  top: "inception_3b/pool_proj"
}
layer {
  name: "inception_3b/output"
  type: "Concat"
  bottom: "inception_3b/1x1"
  bottom: "inception_3b/3x3"
  bottom: "inception_3b/5x5"
  bottom: "inception_3b/pool_proj"
  top: "inception_3b/output"
}
layer {
  name: "pool3/3x3_s2"
  type: "Pooling"
  bottom: "inception_3b/output"
  top: "pool3/3x3_s2"
  pooling_param {
    pool: MAX
    kernel_size: 3
    stride: 2
  }
}
layer {
  name: "inception_4a/1x1"
  type: "Convolution"
  bottom: "pool3/3x3_s2"
  top: "inception_4a/1x1"
  param {
    lr_mult: 1
    decay_mult: 1
  }
  param {
    lr_mult: 2
    decay_mult: 0
  }
  convolution_param {
    num_output: 192
    kernel_size: 1
    weight_filler {
      type: "xavier"
      std: 0.03
    }
    bias_filler {
      type: "constant"
      value: 0.2
    }
  }
}
layer {
  name: "inception_4a/relu_1x1"
  type: "ReLU"
  bottom: "inception_4a/1x1"
  top: "inception_4a/1x1"
}
layer {
  name: "inception_4a/3x3_reduce"
  type: "Convolution"
  bottom: "pool3/3x3_s2"
  top: "inception_4a/3x3_reduce"
  param {
    lr_mult: 1
    decay_mult: 1
  }
  param {
    lr_mult: 2
    decay_mult: 0
  }
  convolution_param {
    num_output: 96
    kernel_size: 1
    weight_filler {
      type: "xavier"
      std: 0.09
    }
    bias_filler {
      type: "constant"
      value: 0.2
    }
  }
}
layer {
  name: "inception_4a/relu_3x3_reduce"
  type: "ReLU"
  bottom: "inception_4a/3x3_reduce"
  top: "inception_4a/3x3_reduce"
}
layer {
  name: "inception_4a/3x3"
  type: "Convolution"
  bottom: "inception_4a/3x3_reduce"
  top: "inception_4a/3x3"
  param {
    lr_mult: 1
    decay_mult: 1
  }
  param {
    lr_mult: 2
    decay_mult: 0
  }
  convolution_param {
    num_output: 208
    pad: 1
    kernel_size: 3
    weight_filler {
      type: "xavier"
      std: 0.03
    }
    bias_filler {
      type: "constant"
      value: 0.2
    }
  }
}
layer {
  name: "inception_4a/relu_3x3"
  type: "ReLU"
  bottom: "inception_4a/3x3"
  top: "inception_4a/3x3"
}
layer {
  name: "inception_4a/5x5_reduce"
  type: "Convolution"
  bottom: "pool3/3x3_s2"
  top: "inception_4a/5x5_reduce"
  param {
    lr_mult: 1
    decay_mult: 1
  }
  param {
    lr_mult: 2
    decay_mult: 0
  }
  convolution_param {
    num_output: 16
    kernel_size: 1
    weight_filler {
      type: "xavier"
      std: 0.2
    }
    bias_filler {
      type: "constant"
      value: 0.2
    }
  }
}
layer {
  name: "inception_4a/relu_5x5_reduce"
  type: "ReLU"
  bottom: "inception_4a/5x5_reduce"
  top: "inception_4a/5x5_reduce"
}
layer {
  name: "inception_4a/5x5"
  type: "Convolution"
  bottom: "inception_4a/5x5_reduce"
  top: "inception_4a/5x5"
  param {
    lr_mult: 1
    decay_mult: 1
  }
  param {
    lr_mult: 2
    decay_mult: 0
  }
  convolution_param {
    num_output: 48
    pad: 2
    kernel_size: 5
    weight_filler {
      type: "xavier"
      std: 0.03
    }
    bias_filler {
      type: "constant"
      value: 0.2
    }
  }
}
layer {
  name: "inception_4a/relu_5x5"
  type: "ReLU"
  bottom: "inception_4a/5x5"
  top: "inception_4a/5x5"
}
layer {
  name: "inception_4a/pool"
  type: "Pooling"
  bottom: "pool3/3x3_s2"
  top: "inception_4a/pool"
  pooling_param {
    pool: MAX
    kernel_size: 3
    stride: 1
    pad: 1
  }
}
layer {
  name: "inception_4a/pool_proj"
  type: "Convolution"
  bottom: "inception_4a/pool"
  top: "inception_4a/pool_proj"
  param {
    lr_mult: 1
    decay_mult: 1
  }
  param {
    lr_mult: 2
    decay_mult: 0
  }
  convolution_param {
    num_output: 64
    kernel_size: 1
    weight_filler {
      type: "xavier"
      std: 0.1
    }
    bias_filler {
      type: "constant"
      value: 0.2
    }
  }
}
layer {
  name: "inception_4a/relu_pool_proj"
  type: "ReLU"
  bottom: "inception_4a/pool_proj"
  top: "inception_4a/pool_proj"
}
layer {
  name: "inception_4a/output"
  type: "Concat"
  bottom: "inception_4a/1x1"
  bottom: "inception_4a/3x3"
  bottom: "inception_4a/5x5"
  bottom: "inception_4a/pool_proj"
  top: "inception_4a/output"
}
layer {
  name: "inception_4b/1x1"
  type: "Convolution"
  bottom: "inception_4a/output"
  top: "inception_4b/1x1"
  param {
    lr_mult: 1
    decay_mult: 1
  }
  param {
    lr_mult: 2
    decay_mult: 0
  }
  convolution_param {
    num_output: 160
    kernel_size: 1
    weight_filler {
      type: "xavier"
      std: 0.03
    }
    bias_filler {
      type: "constant"
      value: 0.2
    }
  }
}
layer {
  name: "inception_4b/relu_1x1"
  type: "ReLU"
  bottom: "inception_4b/1x1"
  top: "inception_4b/1x1"
}
layer {
  name: "inception_4b/3x3_reduce"
  type: "Convolution"
  bottom: "inception_4a/output"
  top: "inception_4b/3x3_reduce"
  param {
    lr_mult: 1
    decay_mult: 1
  }
  param {
    lr_mult: 2
    decay_mult: 0
  }
  convolution_param {
    num_output: 112
    kernel_size: 1
    weight_filler {
      type: "xavier"
      std: 0.09
    }
    bias_filler {
      type: "constant"
      value: 0.2
    }
  }
}
layer {
  name: "inception_4b/relu_3x3_reduce"
  type: "ReLU"
  bottom: "inception_4b/3x3_reduce"
  top: "inception_4b/3x3_reduce"
}
layer {
  name: "inception_4b/3x3"
  type: "Convolution"
  bottom: "inception_4b/3x3_reduce"
  top: "inception_4b/3x3"
  param {
    lr_mult: 1
    decay_mult: 1
  }
  param {
    lr_mult: 2
    decay_mult: 0
  }
  convolution_param {
    num_output: 224
    pad: 1
    kernel_size: 3
    weight_filler {
      type: "xavier"
      std: 0.03
    }
    bias_filler {
      type: "constant"
      value: 0.2
    }
  }
}
layer {
  name: "inception_4b/relu_3x3"
  type: "ReLU"
  bottom: "inception_4b/3x3"
  top: "inception_4b/3x3"
}
layer {
  name: "inception_4b/5x5_reduce"
  type: "Convolution"
  bottom: "inception_4a/output"
  top: "inception_4b/5x5_reduce"
  param {
    lr_mult: 1
    decay_mult: 1
  }
  param {
    lr_mult: 2
    decay_mult: 0
  }
  convolution_param {
    num_output: 24
    kernel_size: 1
    weight_filler {
      type: "xavier"
      std: 0.2
    }
    bias_filler {
      type: "constant"
      value: 0.2
    }
  }
}
layer {
  name: "inception_4b/relu_5x5_reduce"
  type: "ReLU"
  bottom: "inception_4b/5x5_reduce"
  top: "inception_4b/5x5_reduce"
}
layer {
  name: "inception_4b/5x5"
  type: "Convolution"
  bottom: "inception_4b/5x5_reduce"
  top: "inception_4b/5x5"
  param {
    lr_mult: 1
    decay_mult: 1
  }
  param {
    lr_mult: 2
    decay_mult: 0
  }
  convolution_param {
    num_output: 64
    pad: 2
    kernel_size: 5
    weight_filler {
      type: "xavier"
      std: 0.03
    }
    bias_filler {
      type: "constant"
      value: 0.2
    }
  }
}
layer {
  name: "inception_4b/relu_5x5"
  type: "ReLU"
  bottom: "inception_4b/5x5"
  top: "inception_4b/5x5"
}
layer {
  name: "inception_4b/pool"
  type: "Pooling"
  bottom: "inception_4a/output"
  top: "inception_4b/pool"
  pooling_param {
    pool: MAX
    kernel_size: 3
    stride: 1
    pad: 1
  }
}
layer {
  name: "inception_4b/pool_proj"
  type: "Convolution"
  bottom: "inception_4b/pool"
  top: "inception_4b/pool_proj"
  param {
    lr_mult: 1
    decay_mult: 1
  }
  param {
    lr_mult: 2
    decay_mult: 0
  }
  convolution_param {
    num_output: 64
    kernel_size: 1
    weight_filler {
      type: "xavier"
      std: 0.1
    }
    bias_filler {
      type: "constant"
      value: 0.2
    }
  }
}
layer {
  name: "inception_4b/relu_pool_proj"
  type: "ReLU"
  bottom: "inception_4b/pool_proj"
  top: "inception_4b/pool_proj"
}
layer {
  name: "inception_4b/output"
  type: "Concat"
  bottom: "inception_4b/1x1"
  bottom: "inception_4b/3x3"
  bottom: "inception_4b/5x5"
  bottom: "inception_4b/pool_proj"
  top: "inception_4b/output"
}
layer {
  name: "inception_4c/1x1"
  type: "Convolution"
  bottom: "inception_4b/output"
  top: "inception_4c/1x1"
  param {
    lr_mult: 1
    decay_mult: 1
  }
  param {
    lr_mult: 2
    decay_mult: 0
  }
  convolution_param {
    num_output: 128
    kernel_size: 1
    weight_filler {
      type: "xavier"
      std: 0.03
    }
    bias_filler {
      type: "constant"
      value: 0.2
    }
  }
}
layer {
  name: "inception_4c/relu_1x1"
  type: "ReLU"
  bottom: "inception_4c/1x1"
  top: "inception_4c/1x1"
}
layer {
  name: "inception_4c/3x3_reduce"
  type: "Convolution"
  bottom: "inception_4b/output"
  top: "inception_4c/3x3_reduce"
  param {
    lr_mult: 1
    decay_mult: 1
  }
  param {
    lr_mult: 2
    decay_mult: 0
  }
  convolution_param {
    num_output: 128
    kernel_size: 1
    weight_filler {
      type: "xavier"
      std: 0.09
    }
    bias_filler {
      type: "constant"
      value: 0.2
    }
  }
}
layer {
  name: "inception_4c/relu_3x3_reduce"
  type: "ReLU"
  bottom: "inception_4c/3x3_reduce"
  top: "inception_4c/3x3_reduce"
}
layer {
  name: "inception_4c/3x3"
  type: "Convolution"
  bottom: "inception_4c/3x3_reduce"
  top: "inception_4c/3x3"
  param {
    lr_mult: 1
    decay_mult: 1
  }
  param {
    lr_mult: 2
    decay_mult: 0
  }
  convolution_param {
    num_output: 256
    pad: 1
    kernel_size: 3
    weight_filler {
      type: "xavier"
      std: 0.03
    }
    bias_filler {
      type: "constant"
      value: 0.2
    }
  }
}
layer {
  name: "inception_4c/relu_3x3"
  type: "ReLU"
  bottom: "inception_4c/3x3"
  top: "inception_4c/3x3"
}
layer {
  name: "inception_4c/5x5_reduce"
  type: "Convolution"
  bottom: "inception_4b/output"
  top: "inception_4c/5x5_reduce"
  param {
    lr_mult: 1
    decay_mult: 1
  }
  param {
    lr_mult: 2
    decay_mult: 0
  }
  convolution_param {
    num_output: 24
    kernel_size: 1
    weight_filler {
      type: "xavier"
      std: 0.2
    }
    bias_filler {
      type: "constant"
      value: 0.2
    }
  }
}
layer {
  name: "inception_4c/relu_5x5_reduce"
  type: "ReLU"
  bottom: "inception_4c/5x5_reduce"
  top: "inception_4c/5x5_reduce"
}
layer {
  name: "inception_4c/5x5"
  type: "Convolution"
  bottom: "inception_4c/5x5_reduce"
  top: "inception_4c/5x5"
  param {
    lr_mult: 1
    decay_mult: 1
  }
  param {
    lr_mult: 2
    decay_mult: 0
  }
  convolution_param {
    num_output: 64
    pad: 2
    kernel_size: 5
    weight_filler {
      type: "xavier"
      std: 0.03
    }
    bias_filler {
      type: "constant"
      value: 0.2
    }
  }
}
layer {
  name: "inception_4c/relu_5x5"
  type: "ReLU"
  bottom: "inception_4c/5x5"
  top: "inception_4c/5x5"
}
layer {
  name: "inception_4c/pool"
  type: "Pooling"
  bottom: "inception_4b/output"
  top: "inception_4c/pool"
  pooling_param {
    pool: MAX
    kernel_size: 3
    stride: 1
    pad: 1
  }
}
layer {
  name: "inception_4c/pool_proj"
  type: "Convolution"
  bottom: "inception_4c/pool"
  top: "inception_4c/pool_proj"
  param {
    lr_mult: 1
    decay_mult: 1
  }
  param {
    lr_mult: 2
    decay_mult: 0
  }
  convolution_param {
    num_output: 64
    kernel_size: 1
    weight_filler {
      type: "xavier"
      std: 0.1
    }
    bias_filler {
      type: "constant"
      value: 0.2
    }
  }
}
layer {
  name: "inception_4c/relu_pool_proj"
  type: "ReLU"
  bottom: "inception_4c/pool_proj"
  top: "inception_4c/pool_proj"
}
layer {
  name: "inception_4c/output"
  type: "Concat"
  bottom: "inception_4c/1x1"
  bottom: "inception_4c/3x3"
  bottom: "inception_4c/5x5"
  bottom: "inception_4c/pool_proj"
  top: "inception_4c/output"
}
layer {
  name: "inception_4d/1x1"
  type: "Convolution"
  bottom: "inception_4c/output"
  top: "inception_4d/1x1"
  param {
    lr_mult: 1
    decay_mult: 1
  }
  param {
    lr_mult: 2
    decay_mult: 0
  }
  convolution_param {
    num_output: 112
    kernel_size: 1
    weight_filler {
      type: "xavier"
      std: 0.03
    }
    bias_filler {
      type: "constant"
      value: 0.2
    }
  }
}
layer {
  name: "inception_4d/relu_1x1"
  type: "ReLU"
  bottom: "inception_4d/1x1"
  top: "inception_4d/1x1"
}
layer {
  name: "inception_4d/3x3_reduce"
  type: "Convolution"
  bottom: "inception_4c/output"
  top: "inception_4d/3x3_reduce"
  param {
    lr_mult: 1
    decay_mult: 1
  }
  param {
    lr_mult: 2
    decay_mult: 0
  }
  convolution_param {
    num_output: 144
    kernel_size: 1
    weight_filler {
      type: "xavier"
      std: 0.09
    }
    bias_filler {
      type: "constant"
      value: 0.2
    }
  }
}
layer {
  name: "inception_4d/relu_3x3_reduce"
  type: "ReLU"
  bottom: "inception_4d/3x3_reduce"
  top: "inception_4d/3x3_reduce"
}
layer {
  name: "inception_4d/3x3"
  type: "Convolution"
  bottom: "inception_4d/3x3_reduce"
  top: "inception_4d/3x3"
  param {
    lr_mult: 1
    decay_mult: 1
  }
  param {
    lr_mult: 2
    decay_mult: 0
  }
  convolution_param {
    num_output: 288
    pad: 1
    kernel_size: 3
    weight_filler {
      type: "xavier"
      std: 0.03
    }
    bias_filler {
      type: "constant"
      value: 0.2
    }
  }
}
layer {
  name: "inception_4d/relu_3x3"
  type: "ReLU"
  bottom: "inception_4d/3x3"
  top: "inception_4d/3x3"
}
layer {
  name: "inception_4d/5x5_reduce"
  type: "Convolution"
  bottom: "inception_4c/output"
  top: "inception_4d/5x5_reduce"
  param {
    lr_mult: 1
    decay_mult: 1
  }
  param {
    lr_mult: 2
    decay_mult: 0
  }
  convolution_param {
    num_output: 32
    kernel_size: 1
    weight_filler {
      type: "xavier"
      std: 0.2
    }
    bias_filler {
      type: "constant"
      value: 0.2
    }
  }
}
layer {
  name: "inception_4d/relu_5x5_reduce"
  type: "ReLU"
  bottom: "inception_4d/5x5_reduce"
  top: "inception_4d/5x5_reduce"
}
layer {
  name: "inception_4d/5x5"
  type: "Convolution"
  bottom: "inception_4d/5x5_reduce"
  top: "inception_4d/5x5"
  param {
    lr_mult: 1
    decay_mult: 1
  }
  param {
    lr_mult: 2
    decay_mult: 0
  }
  convolution_param {
    num_output: 64
    pad: 2
    kernel_size: 5
    weight_filler {
      type: "xavier"
      std: 0.03
    }
    bias_filler {
      type: "constant"
      value: 0.2
    }
  }
}
layer {
  name: "inception_4d/relu_5x5"
  type: "ReLU"
  bottom: "inception_4d/5x5"
  top: "inception_4d/5x5"
}
layer {
  name: "inception_4d/pool"
  type: "Pooling"
  bottom: "inception_4c/output"
  top: "inception_4d/pool"
  pooling_param {
    pool: MAX
    kernel_size: 3
    stride: 1
    pad: 1
  }
}
layer {
  name: "inception_4d/pool_proj"
  type: "Convolution"
  bottom: "inception_4d/pool"
  top: "inception_4d/pool_proj"
  param {
    lr_mult: 1
    decay_mult: 1
  }
  param {
    lr_mult: 2
    decay_mult: 0
  }
  convolution_param {
    num_output: 64
    kernel_size: 1
    weight_filler {
      type: "xavier"
      std: 0.1
    }
    bias_filler {
      type: "constant"
      value: 0.2
    }
  }
}
layer {
  name: "inception_4d/relu_pool_proj"
  type: "ReLU"
  bottom: "inception_4d/pool_proj"
  top: "inception_4d/pool_proj"
}
layer {
  name: "inception_4d/output"
  type: "Concat"
  bottom: "inception_4d/1x1"
  bottom: "inception_4d/3x3"
  bottom: "inception_4d/5x5"
  bottom: "inception_4d/pool_proj"
  top: "inception_4d/output"
}
layer {
  name: "inception_4e/1x1"
  type: "Convolution"
  bottom: "inception_4d/output"
  top: "inception_4e/1x1"
  param {
    lr_mult: 1
    decay_mult: 1
  }
  param {
    lr_mult: 2
    decay_mult: 0
  }
  convolution_param {
    num_output: 256
    kernel_size: 1
    weight_filler {
      type: "xavier"
      std: 0.03
    }
    bias_filler {
      type: "constant"
      value: 0.2
    }
  }
}
layer {
  name: "inception_4e/relu_1x1"
  type: "ReLU"
  bottom: "inception_4e/1x1"
  top: "inception_4e/1x1"
}
layer {
  name: "inception_4e/3x3_reduce"
  type: "Convolution"
  bottom: "inception_4d/output"
  top: "inception_4e/3x3_reduce"
  param {
    lr_mult: 1
    decay_mult: 1
  }
  param {
    lr_mult: 2
    decay_mult: 0
  }
  convolution_param {
    num_output: 160
    kernel_size: 1
    weight_filler {
      type: "xavier"
      std: 0.09
    }
    bias_filler {
      type: "constant"
      value: 0.2
    }
  }
}
layer {
  name: "inception_4e/relu_3x3_reduce"
  type: "ReLU"
  bottom: "inception_4e/3x3_reduce"
  top: "inception_4e/3x3_reduce"
}
layer {
  name: "inception_4e/3x3"
  type: "Convolution"
  bottom: "inception_4e/3x3_reduce"
  top: "inception_4e/3x3"
  param {
    lr_mult: 1
    decay_mult: 1
  }
  param {
    lr_mult: 2
    decay_mult: 0
  }
  convolution_param {
    num_output: 320
    pad: 1
    kernel_size: 3
    weight_filler {
      type: "xavier"
      std: 0.03
    }
    bias_filler {
      type: "constant"
      value: 0.2
    }
  }
}
layer {
  name: "inception_4e/relu_3x3"
  type: "ReLU"
  bottom: "inception_4e/3x3"
  top: "inception_4e/3x3"
}
layer {
  name: "inception_4e/5x5_reduce"
  type: "Convolution"
  bottom: "inception_4d/output"
  top: "inception_4e/5x5_reduce"
  param {
    lr_mult: 1
    decay_mult: 1
  }
  param {
    lr_mult: 2
    decay_mult: 0
  }
  convolution_param {
    num_output: 32
    kernel_size: 1
    weight_filler {
      type: "xavier"
      std: 0.2
    }
    bias_filler {
      type: "constant"
      value: 0.2
    }
  }
}
layer {
  name: "inception_4e/relu_5x5_reduce"
  type: "ReLU"
  bottom: "inception_4e/5x5_reduce"
  top: "inception_4e/5x5_reduce"
}
layer {
  name: "inception_4e/5x5"
  type: "Convolution"
  bottom: "inception_4e/5x5_reduce"
  top: "inception_4e/5x5"
  param {
    lr_mult: 1
    decay_mult: 1
  }
  param {
    lr_mult: 2
    decay_mult: 0
  }
  convolution_param {
    num_output: 128
    pad: 2
    kernel_size: 5
    weight_filler {
      type: "xavier"
      std: 0.03
    }
    bias_filler {
      type: "constant"
      value: 0.2
    }
  }
}
layer {
  name: "inception_4e/relu_5x5"
  type: "ReLU"
  bottom: "inception_4e/5x5"
  top: "inception_4e/5x5"
}
layer {
  name: "inception_4e/pool"
  type: "Pooling"
  bottom: "inception_4d/output"
  top: "inception_4e/pool"
  pooling_param {
    pool: MAX
    kernel_size: 3
    stride: 1
    pad: 1
  }
}
layer {
  name: "inception_4e/pool_proj"
  type: "Convolution"
  bottom: "inception_4e/pool"
  top: "inception_4e/pool_proj"
  param {
    lr_mult: 1
    decay_mult: 1
  }
  param {
    lr_mult: 2
    decay_mult: 0
  }
  convolution_param {
    num_output: 128
    kernel_size: 1
    weight_filler {
      type: "xavier"
      std: 0.1
    }
    bias_filler {
      type: "constant"
      value: 0.2
    }
  }
}
layer {
  name: "inception_4e/relu_pool_proj"
  type: "ReLU"
  bottom: "inception_4e/pool_proj"
  top: "inception_4e/pool_proj"
}
layer {
  name: "inception_4e/output"
  type: "Concat"
  bottom: "inception_4e/1x1"
  bottom: "inception_4e/3x3"
  bottom: "inception_4e/5x5"
  bottom: "inception_4e/pool_proj"
  top: "inception_4e/output"
}
layer {
  name: "pool4/3x3_s2"
  type: "Pooling"
  bottom: "inception_4e/output"
  top: "pool4/3x3_s2"
  pooling_param {
    pool: MAX
    kernel_size: 3
    stride: 2
  }
}
layer {
  name: "inception_5a/1x1"
  type: "Convolution"
  bottom: "pool4/3x3_s2"
  top: "inception_5a/1x1"
  param {
    lr_mult: 1
    decay_mult: 1
  }
  param {
    lr_mult: 2
    decay_mult: 0
  }
  convolution_param {
    num_output: 256
    kernel_size: 1
    weight_filler {
      type: "xavier"
      std: 0.03
    }
    bias_filler {
      type: "constant"
      value: 0.2
    }
  }
}
layer {
  name: "inception_5a/relu_1x1"
  type: "ReLU"
  bottom: "inception_5a/1x1"
  top: "inception_5a/1x1"
}
layer {
  name: "inception_5a/3x3_reduce"
  type: "Convolution"
  bottom: "pool4/3x3_s2"
  top: "inception_5a/3x3_reduce"
  param {
    lr_mult: 1
    decay_mult: 1
  }
  param {
    lr_mult: 2
    decay_mult: 0
  }
  convolution_param {
    num_output: 160
    kernel_size: 1
    weight_filler {
      type: "xavier"
      std: 0.09
    }
    bias_filler {
      type: "constant"
      value: 0.2
    }
  }
}
layer {
  name: "inception_5a/relu_3x3_reduce"
  type: "ReLU"
  bottom: "inception_5a/3x3_reduce"
  top: "inception_5a/3x3_reduce"
}
layer {
  name: "inception_5a/3x3"
  type: "Convolution"
  bottom: "inception_5a/3x3_reduce"
  top: "inception_5a/3x3"
  param {
    lr_mult: 1
    decay_mult: 1
  }
  param {
    lr_mult: 2
    decay_mult: 0
  }
  convolution_param {
    num_output: 320
    pad: 1
    kernel_size: 3
    weight_filler {
      type: "xavier"
      std: 0.03
    }
    bias_filler {
      type: "constant"
      value: 0.2
    }
  }
}
layer {
  name: "inception_5a/relu_3x3"
  type: "ReLU"
  bottom: "inception_5a/3x3"
  top: "inception_5a/3x3"
}
layer {
  name: "inception_5a/5x5_reduce"
  type: "Convolution"
  bottom: "pool4/3x3_s2"
  top: "inception_5a/5x5_reduce"
  param {
    lr_mult: 1
    decay_mult: 1
  }
  param {
    lr_mult: 2
    decay_mult: 0
  }
  convolution_param {
    num_output: 32
    kernel_size: 1
    weight_filler {
      type: "xavier"
      std: 0.2
    }
    bias_filler {
      type: "constant"
      value: 0.2
    }
  }
}
layer {
  name: "inception_5a/relu_5x5_reduce"
  typ
I0816 01:53:51.299985     6 net.cpp:370] Input 0 -> data
I0816 01:53:51.300230     6 layer_factory.hpp:74] Creating layer conv1/7x7_s2
I0816 01:53:51.300382     6 net.cpp:90] Creating Layer conv1/7x7_s2
I0816 01:53:51.300535     6 net.cpp:410] conv1/7x7_s2 <- data
I0816 01:53:51.300681     6 net.cpp:368] conv1/7x7_s2 -> conv1/7x7_s2
I0816 01:53:51.300832     6 net.cpp:120] Setting up conv1/7x7_s2
I0816 01:53:51.301578     6 net.cpp:127] Top shape: 10 64 112 112 (8028160)
I0816 01:53:51.301762     6 layer_factory.hpp:74] Creating layer conv1/relu_7x7
I0816 01:53:51.301901     6 net.cpp:90] Creating Layer conv1/relu_7x7
I0816 01:53:51.301988     6 net.cpp:410] conv1/relu_7x7 <- conv1/7x7_s2
I0816 01:53:51.302130     6 net.cpp:357] conv1/relu_7x7 -> conv1/7x7_s2 (in-place)
I0816 01:53:51.302314     6 net.cpp:120] Setting up conv1/relu_7x7
I0816 01:53:51.302438     6 net.cpp:127] Top shape: 10 64 112 112 (8028160)
I0816 01:53:51.302577     6 layer_factory.hpp:74] Creating layer pool1/3x3_s2
I0816 01:53:51.302745     6 net.cpp:90] Creating Layer pool1/3x3_s2
I0816 01:53:51.302902     6 net.cpp:410] pool1/3x3_s2 <- conv1/7x7_s2
I0816 01:53:51.303026     6 net.cpp:368] pool1/3x3_s2 -> pool1/3x3_s2
I0816 01:53:51.303150     6 net.cpp:120] Setting up pool1/3x3_s2
I0816 01:53:51.303268     6 net.cpp:127] Top shape: 10 64 56 56 (2007040)
I0816 01:53:51.303374     6 layer_factory.hpp:74] Creating layer pool1/norm1
I0816 01:53:51.303489     6 net.cpp:90] Creating Layer pool1/norm1
I0816 01:53:51.303578     6 net.cpp:410] pool1/norm1 <- pool1/3x3_s2
I0816 01:53:51.303683     6 net.cpp:368] pool1/norm1 -> pool1/norm1
I0816 01:53:51.303797     6 net.cpp:120] Setting up pool1/norm1
I0816 01:53:51.303892     6 net.cpp:127] Top shape: 10 64 56 56 (2007040)
I0816 01:53:51.303978     6 layer_factory.hpp:74] Creating layer conv2/3x3_reduce
I0816 01:53:51.304067     6 net.cpp:90] Creating Layer conv2/3x3_reduce
I0816 01:53:51.304148     6 net.cpp:410] conv2/3x3_reduce <- pool1/norm1
I0816 01:53:51.304232     6 net.cpp:368] conv2/3x3_reduce -> conv2/3x3_reduce
I0816 01:53:51.304319     6 net.cpp:120] Setting up conv2/3x3_reduce
I0816 01:53:51.304445     6 net.cpp:127] Top shape: 10 64 56 56 (2007040)
I0816 01:53:51.304536     6 layer_factory.hpp:74] Creating layer conv2/relu_3x3_reduce
I0816 01:53:51.304617     6 net.cpp:90] Creating Layer conv2/relu_3x3_reduce
I0816 01:53:51.304699     6 net.cpp:410] conv2/relu_3x3_reduce <- conv2/3x3_reduce
I0816 01:53:51.304782     6 net.cpp:357] conv2/relu_3x3_reduce -> conv2/3x3_reduce (in-place)
I0816 01:53:51.304878     6 net.cpp:120] Setting up conv2/relu_3x3_reduce
I0816 01:53:51.304977     6 net.cpp:127] Top shape: 10 64 56 56 (2007040)
I0816 01:53:51.305096     6 layer_factory.hpp:74] Creating layer conv2/3x3
I0816 01:53:51.305223     6 net.cpp:90] Creating Layer conv2/3x3
I0816 01:53:51.305316     6 net.cpp:410] conv2/3x3 <- conv2/3x3_reduce
I0816 01:53:51.305428     6 net.cpp:368] conv2/3x3 -> conv2/3x3
I0816 01:53:51.305529     6 net.cpp:120] Setting up conv2/3x3
I0816 01:53:51.306355     6 net.cpp:127] Top shape: 10 192 56 56 (6021120)
I0816 01:53:51.306547     6 layer_factory.hpp:74] Creating layer conv2/relu_3x3
I0816 01:53:51.306681     6 net.cpp:90] Creating Layer conv2/relu_3x3
I0816 01:53:51.306797     6 net.cpp:410] conv2/relu_3x3 <- conv2/3x3
I0816 01:53:51.306921     6 net.cpp:357] conv2/relu_3x3 -> conv2/3x3 (in-place)
I0816 01:53:51.307040     6 net.cpp:120] Setting up conv2/relu_3x3
I0816 01:53:51.307160     6 net.cpp:127] Top shape: 10 192 56 56 (6021120)
I0816 01:53:51.307266     6 layer_factory.hpp:74] Creating layer conv2/norm2
I0816 01:53:51.307462     6 net.cpp:90] Creating Layer conv2/norm2
I0816 01:53:51.307554     6 net.cpp:410] conv2/norm2 <- conv2/3x3
I0816 01:53:51.307623     6 net.cpp:368] conv2/norm2 -> conv2/norm2
I0816 01:53:51.307747     6 net.cpp:120] Setting up conv2/norm2
I0816 01:53:51.307870     6 net.cpp:127] Top shape: 10 192 56 56 (6021120)
I0816 01:53:51.307965     6 layer_factory.hpp:74] Creating layer pool2/3x3_s2
I0816 01:53:51.308063     6 net.cpp:90] Creating Layer pool2/3x3_s2
I0816 01:53:51.308145     6 net.cpp:410] pool2/3x3_s2 <- conv2/norm2
I0816 01:53:51.308238     6 net.cpp:368] pool2/3x3_s2 -> pool2/3x3_s2
I0816 01:53:51.308336     6 net.cpp:120] Setting up pool2/3x3_s2
I0816 01:53:51.308423     6 net.cpp:127] Top shape: 10 192 28 28 (1505280)
I0816 01:53:51.308504     6 layer_factory.hpp:74] Creating layer pool2/3x3_s2_pool2/3x3_s2_0_split
I0816 01:53:51.308596     6 net.cpp:90] Creating Layer pool2/3x3_s2_pool2/3x3_s2_0_split
I0816 01:53:51.308733     6 net.cpp:410] pool2/3x3_s2_pool2/3x3_s2_0_split <- pool2/3x3_s2
I0816 01:53:51.308820     6 net.cpp:368] pool2/3x3_s2_pool2/3x3_s2_0_split -> pool2/3x3_s2_pool2/3x3_s2_0_split_0
I0816 01:53:51.308909     6 net.cpp:368] pool2/3x3_s2_pool2/3x3_s2_0_split -> pool2/3x3_s2_pool2/3x3_s2_0_split_1
I0816 01:53:51.308995     6 net.cpp:368] pool2/3x3_s2_pool2/3x3_s2_0_split -> pool2/3x3_s2_pool2/3x3_s2_0_split_2
I0816 01:53:51.309080     6 net.cpp:368] pool2/3x3_s2_pool2/3x3_s2_0_split -> pool2/3x3_s2_pool2/3x3_s2_0_split_3
I0816 01:53:51.309155     6 net.cpp:120] Setting up pool2/3x3_s2_pool2/3x3_s2_0_split
I0816 01:53:51.309216     6 net.cpp:127] Top shape: 10 192 28 28 (1505280)
I0816 01:53:51.309301     6 net.cpp:127] Top shape: 10 192 28 28 (1505280)
I0816 01:53:51.309384     6 net.cpp:127] Top shape: 10 192 28 28 (1505280)
I0816 01:53:51.309485     6 net.cpp:127] Top shape: 10 192 28 28 (1505280)
I0816 01:53:51.309628     6 layer_factory.hpp:74] Creating layer inception_3a/1x1
I0816 01:53:51.309774     6 net.cpp:90] Creating Layer inception_3a/1x1
I0816 01:53:51.309857     6 net.cpp:410] inception_3a/1x1 <- pool2/3x3_s2_pool2/3x3_s2_0_split_0
I0816 01:53:51.309996     6 net.cpp:368] inception_3a/1x1 -> inception_3a/1x1
I0816 01:53:51.310057     6 net.cpp:120] Setting up inception_3a/1x1
I0816 01:53:51.310247     6 net.cpp:127] Top shape: 10 64 28 28 (501760)
I0816 01:53:51.310345     6 layer_factory.hpp:74] Creating layer inception_3a/relu_1x1
I0816 01:53:51.310451     6 net.cpp:90] Creating Layer inception_3a/relu_1x1
I0816 01:53:51.310533     6 net.cpp:410] inception_3a/relu_1x1 <- inception_3a/1x1
I0816 01:53:51.310617     6 net.cpp:357] inception_3a/relu_1x1 -> inception_3a/1x1 (in-place)
I0816 01:53:51.310703     6 net.cpp:120] Setting up inception_3a/relu_1x1
I0816 01:53:51.310788     6 net.cpp:127] Top shape: 10 64 28 28 (501760)
I0816 01:53:51.310868     6 layer_factory.hpp:74] Creating layer inception_3a/3x3_reduce
I0816 01:53:51.310989     6 net.cpp:90] Creating Layer inception_3a/3x3_reduce
I0816 01:53:51.311172     6 net.cpp:410] inception_3a/3x3_reduce <- pool2/3x3_s2_pool2/3x3_s2_0_split_1
I0816 01:53:51.311310     6 net.cpp:368] inception_3a/3x3_reduce -> inception_3a/3x3_reduce
I0816 01:53:51.311467     6 net.cpp:120] Setting up inception_3a/3x3_reduce
I0816 01:53:51.311693     6 net.cpp:127] Top shape: 10 96 28 28 (752640)
I0816 01:53:51.311787     6 layer_factory.hpp:74] Creating layer inception_3a/relu_3x3_reduce
I0816 01:53:51.311877     6 net.cpp:90] Creating Layer inception_3a/relu_3x3_reduce
I0816 01:53:51.311960     6 net.cpp:410] inception_3a/relu_3x3_reduce <- inception_3a/3x3_reduce
I0816 01:53:51.312046     6 net.cpp:357] inception_3a/relu_3x3_reduce -> inception_3a/3x3_reduce (in-place)
I0816 01:53:51.312129     6 net.cpp:120] Setting up inception_3a/relu_3x3_reduce
I0816 01:53:51.312214     6 net.cpp:127] Top shape: 10 96 28 28 (752640)
I0816 01:53:51.312295     6 layer_factory.hpp:74] Creating layer inception_3a/3x3
I0816 01:53:51.312383     6 net.cpp:90] Creating Layer inception_3a/3x3
I0816 01:53:51.312464     6 net.cpp:410] inception_3a/3x3 <- inception_3a/3x3_reduce
I0816 01:53:51.312551     6 net.cpp:368] inception_3a/3x3 -> inception_3a/3x3
I0816 01:53:51.312636     6 net.cpp:120] Setting up inception_3a/3x3
I0816 01:53:51.313302     6 net.cpp:127] Top shape: 10 128 28 28 (1003520)
I0816 01:53:51.313387     6 layer_factory.hpp:74] Creating layer inception_3a/relu_3x3
I0816 01:53:51.313474     6 net.cpp:90] Creating Layer inception_3a/relu_3x3
I0816 01:53:51.313556     6 net.cpp:410] inception_3a/relu_3x3 <- inception_3a/3x3
I0816 01:53:51.313640     6 net.cpp:357] inception_3a/relu_3x3 -> inception_3a/3x3 (in-place)
I0816 01:53:51.313722     6 net.cpp:120] Setting up inception_3a/relu_3x3
I0816 01:53:51.313805     6 net.cpp:127] Top shape: 10 128 28 28 (1003520)
I0816 01:53:51.313885     6 layer_factory.hpp:74] Creating layer inception_3a/5x5_reduce
I0816 01:53:51.313982     6 net.cpp:90] Creating Layer inception_3a/5x5_reduce
I0816 01:53:51.314064     6 net.cpp:410] inception_3a/5x5_reduce <- pool2/3x3_s2_pool2/3x3_s2_0_split_2
I0816 01:53:51.314154     6 net.cpp:368] inception_3a/5x5_reduce -> inception_3a/5x5_reduce
I0816 01:53:51.314239     6 net.cpp:120] Setting up inception_3a/5x5_reduce
I0816 01:53:51.314352     6 net.cpp:127] Top shape: 10 16 28 28 (125440)
I0816 01:53:51.314435     6 layer_factory.hpp:74] Creating layer inception_3a/relu_5x5_reduce
I0816 01:53:51.314518     6 net.cpp:90] Creating Layer inception_3a/relu_5x5_reduce
I0816 01:53:51.314599     6 net.cpp:410] inception_3a/relu_5x5_reduce <- inception_3a/5x5_reduce
I0816 01:53:51.314681     6 net.cpp:357] inception_3a/relu_5x5_reduce -> inception_3a/5x5_reduce (in-place)
I0816 01:53:51.314764     6 net.cpp:120] Setting up inception_3a/relu_5x5_reduce
I0816 01:53:51.314844     6 net.cpp:127] Top shape: 10 16 28 28 (125440)
I0816 01:53:51.314939     6 layer_factory.hpp:74] Creating layer inception_3a/5x5
I0816 01:53:51.315027     6 net.cpp:90] Creating Layer inception_3a/5x5
I0816 01:53:51.315106     6 net.cpp:410] inception_3a/5x5 <- inception_3a/5x5_reduce
I0816 01:53:51.315191     6 net.cpp:368] inception_3a/5x5 -> inception_3a/5x5
I0816 01:53:51.315279     6 net.cpp:120] Setting up inception_3a/5x5
I0816 01:53:51.315439     6 net.cpp:127] Top shape: 10 32 28 28 (250880)
I0816 01:53:51.315524     6 layer_factory.hpp:74] Creating layer inception_3a/relu_5x5
I0816 01:53:51.315610     6 net.cpp:90] Creating Layer inception_3a/relu_5x5
I0816 01:53:51.315690     6 net.cpp:410] inception_3a/relu_5x5 <- inception_3a/5x5
I0816 01:53:51.315773     6 net.cpp:357] inception_3a/relu_5x5 -> inception_3a/5x5 (in-place)
I0816 01:53:51.315853     6 net.cpp:120] Setting up inception_3a/relu_5x5
I0816 01:53:51.315937     6 net.cpp:127] Top shape: 10 32 28 28 (250880)
I0816 01:53:51.316016     6 layer_factory.hpp:74] Creating layer inception_3a/pool
I0816 01:53:51.316102     6 net.cpp:90] Creating Layer inception_3a/pool
I0816 01:53:51.316182     6 net.cpp:410] inception_3a/pool <- pool2/3x3_s2_pool2/3x3_s2_0_split_3
I0816 01:53:51.316267     6 net.cpp:368] inception_3a/pool -> inception_3a/pool
I0816 01:53:51.316347     6 net.cpp:120] Setting up inception_3a/pool
I0816 01:53:51.316444     6 net.cpp:127] Top shape: 10 192 28 28 (1505280)
I0816 01:53:51.316526     6 layer_factory.hpp:74] Creating layer inception_3a/pool_proj
I0816 01:53:51.316611     6 net.cpp:90] Creating Layer inception_3a/pool_proj
I0816 01:53:51.316692     6 net.cpp:410] inception_3a/pool_proj <- inception_3a/pool
I0816 01:53:51.316773     6 net.cpp:368] inception_3a/pool_proj -> inception_3a/pool_proj
I0816 01:53:51.316859     6 net.cpp:120] Setting up inception_3a/pool_proj
I0816 01:53:51.316983     6 net.cpp:127] Top shape: 10 32 28 28 (250880)
I0816 01:53:51.317080     6 layer_factory.hpp:74] Creating layer inception_3a/relu_pool_proj
I0816 01:53:51.317164     6 net.cpp:90] Creating Layer inception_3a/relu_pool_proj
I0816 01:53:51.317245     6 net.cpp:410] inception_3a/relu_pool_proj <- inception_3a/pool_proj
I0816 01:53:51.317375     6 net.cpp:357] inception_3a/relu_pool_proj -> inception_3a/pool_proj (in-place)
I0816 01:53:51.317461     6 net.cpp:120] Setting up inception_3a/relu_pool_proj
I0816 01:53:51.317541     6 net.cpp:127] Top shape: 10 32 28 28 (250880)
I0816 01:53:51.317622     6 layer_factory.hpp:74] Creating layer inception_3a/output
I0816 01:53:51.317760     6 net.cpp:90] Creating Layer inception_3a/output
I0816 01:53:51.317883     6 net.cpp:410] inception_3a/output <- inception_3a/1x1
I0816 01:53:51.318004     6 net.cpp:410] inception_3a/output <- inception_3a/3x3
I0816 01:53:51.318094     6 net.cpp:410] inception_3a/output <- inception_3a/5x5
I0816 01:53:51.318218     6 net.cpp:410] inception_3a/output <- inception_3a/pool_proj
I0816 01:53:51.318323     6 net.cpp:368] inception_3a/output -> inception_3a/output
I0816 01:53:51.318462     6 net.cpp:120] Setting up inception_3a/output
I0816 01:53:51.318666     6 net.cpp:127] Top shape: 10 256 28 28 (2007040)
I0816 01:53:51.318773     6 layer_factory.hpp:74] Creating layer inception_3a/output_inception_3a/output_0_split
I0816 01:53:51.318846     6 net.cpp:90] Creating Layer inception_3a/output_inception_3a/output_0_split
I0816 01:53:51.318933     6 net.cpp:410] inception_3a/output_inception_3a/output_0_split <- inception_3a/output
I0816 01:53:51.319021     6 net.cpp:368] inception_3a/output_inception_3a/output_0_split -> inception_3a/output_inception_3a/output_0_split_0
I0816 01:53:51.319108     6 net.cpp:368] inception_3a/output_inception_3a/output_0_split -> inception_3a/output_inception_3a/output_0_split_1
I0816 01:53:51.319195     6 net.cpp:368] inception_3a/output_inception_3a/output_0_split -> inception_3a/output_inception_3a/output_0_split_2
I0816 01:53:51.319279     6 net.cpp:368] inception_3a/output_inception_3a/output_0_split -> inception_3a/output_inception_3a/output_0_split_3
I0816 01:53:51.319368     6 net.cpp:120] Setting up inception_3a/output_inception_3a/output_0_split
I0816 01:53:51.319454     6 net.cpp:127] Top shape: 10 256 28 28 (2007040)
I0816 01:53:51.319535     6 net.cpp:127] Top shape: 10 256 28 28 (2007040)
I0816 01:53:51.319617     6 net.cpp:127] Top shape: 10 256 28 28 (2007040)
I0816 01:53:51.319697     6 net.cpp:127] Top shape: 10 256 28 28 (2007040)
I0816 01:53:51.319777     6 layer_factory.hpp:74] Creating layer inception_3b/1x1
I0816 01:53:51.319864     6 net.cpp:90] Creating Layer inception_3b/1x1
I0816 01:53:51.319944     6 net.cpp:410] inception_3b/1x1 <- inception_3a/output_inception_3a/output_0_split_0
I0816 01:53:51.320027     6 net.cpp:368] inception_3b/1x1 -> inception_3b/1x1
I0816 01:53:51.320118     6 net.cpp:120] Setting up inception_3b/1x1
I0816 01:53:51.320391     6 net.cpp:127] Top shape: 10 128 28 28 (1003520)
I0816 01:53:51.320462     6 layer_factory.hpp:74] Creating layer inception_3b/relu_1x1
I0816 01:53:51.320545     6 net.cpp:90] Creating Layer inception_3b/relu_1x1
I0816 01:53:51.320626     6 net.cpp:410] inception_3b/relu_1x1 <- inception_3b/1x1
I0816 01:53:51.320708     6 net.cpp:357] inception_3b/relu_1x1 -> inception_3b/1x1 (in-place)
I0816 01:53:51.320790     6 net.cpp:120] Setting up inception_3b/relu_1x1
I0816 01:53:51.320873     6 net.cpp:127] Top shape: 10 128 28 28 (1003520)
I0816 01:53:51.320969     6 layer_factory.hpp:74] Creating layer inception_3b/3x3_reduce
I0816 01:53:51.321056     6 net.cpp:90] Creating Layer inception_3b/3x3_reduce
I0816 01:53:51.321137     6 net.cpp:410] inception_3b/3x3_reduce <- inception_3a/output_inception_3a/output_0_split_1
I0816 01:53:51.321223     6 net.cpp:368] inception_3b/3x3_reduce -> inception_3b/3x3_reduce
I0816 01:53:51.321331     6 net.cpp:120] Setting up inception_3b/3x3_reduce
I0816 01:53:51.321693     6 net.cpp:127] Top shape: 10 128 28 28 (1003520)
I0816 01:53:51.321820     6 layer_factory.hpp:74] Creating layer inception_3b/relu_3x3_reduce
I0816 01:53:51.321919     6 net.cpp:90] Creating Layer inception_3b/relu_3x3_reduce
I0816 01:53:51.322031     6 net.cpp:410] inception_3b/relu_3x3_reduce <- inception_3b/3x3_reduce
I0816 01:53:51.322140     6 net.cpp:357] inception_3b/relu_3x3_reduce -> inception_3b/3x3_reduce (in-place)
I0816 01:53:51.322279     6 net.cpp:120] Setting up inception_3b/relu_3x3_reduce
I0816 01:53:51.322386     6 net.cpp:127] Top shape: 10 128 28 28 (1003520)
I0816 01:53:51.322459     6 layer_factory.hpp:74] Creating layer inception_3b/3x3
I0816 01:53:51.322571     6 net.cpp:90] Creating Layer inception_3b/3x3
I0816 01:53:51.322674     6 net.cpp:410] inception_3b/3x3 <- inception_3b/3x3_reduce
I0816 01:53:51.322777     6 net.cpp:368] inception_3b/3x3 -> inception_3b/3x3
I0816 01:53:51.322892     6 net.cpp:120] Setting up inception_3b/3x3
I0816 01:53:51.324352     6 net.cpp:127] Top shape: 10 192 28 28 (1505280)
I0816 01:53:51.324466     6 layer_factory.hpp:74] Creating layer inception_3b/relu_3x3
I0816 01:53:51.324589     6 net.cpp:90] Creating Layer inception_3b/relu_3x3
I0816 01:53:51.324712     6 net.cpp:410] inception_3b/relu_3x3 <- inception_3b/3x3
I0816 01:53:51.324828     6 net.cpp:357] inception_3b/relu_3x3 -> inception_3b/3x3 (in-place)
I0816 01:53:51.324969     6 net.cpp:120] Setting up inception_3b/relu_3x3
I0816 01:53:51.325114     6 net.cpp:127] Top shape: 10 192 28 28 (1505280)
I0816 01:53:51.325248     6 layer_factory.hpp:74] Creating layer inception_3b/5x5_reduce
I0816 01:53:51.325371     6 net.cpp:90] Creating Layer inception_3b/5x5_reduce
I0816 01:53:51.325428     6 net.cpp:410] inception_3b/5x5_reduce <- inception_3a/output_inception_3a/output_0_split_2
I0816 01:53:51.325528     6 net.cpp:368] inception_3b/5x5_reduce -> inception_3b/5x5_reduce
I0816 01:53:51.325630     6 net.cpp:120] Setting up inception_3b/5x5_reduce
I0816 01:53:51.325825     6 net.cpp:127] Top shape: 10 32 28 28 (250880)
I0816 01:53:51.325975     6 layer_factory.hpp:74] Creating layer inception_3b/relu_5x5_reduce
I0816 01:53:51.326092     6 net.cpp:90] Creating Layer inception_3b/relu_5x5_reduce
I0816 01:53:51.326213     6 net.cpp:410] inception_3b/relu_5x5_reduce <- inception_3b/5x5_reduce
I0816 01:53:51.326370     6 net.cpp:357] inception_3b/relu_5x5_reduce -> inception_3b/5x5_reduce (in-place)
I0816 01:53:51.326468     6 net.cpp:120] Setting up inception_3b/relu_5x5_reduce
I0816 01:53:51.326617     6 net.cpp:127] Top shape: 10 32 28 28 (250880)
I0816 01:53:51.326752     6 layer_factory.hpp:74] Creating layer inception_3b/5x5
I0816 01:53:51.326910     6 net.cpp:90] Creating Layer inception_3b/5x5
I0816 01:53:51.326995     6 net.cpp:410] inception_3b/5x5 <- inception_3b/5x5_reduce
I0816 01:53:51.327129     6 net.cpp:368] inception_3b/5x5 -> inception_3b/5x5
I0816 01:53:51.327246     6 net.cpp:120] Setting up inception_3b/5x5
I0816 01:53:51.328212     6 net.cpp:127] Top shape: 10 96 28 28 (752640)
I0816 01:53:51.328431     6 layer_factory.hpp:74] Creating layer inception_3b/relu_5x5
I0816 01:53:51.328655     6 net.cpp:90] Creating Layer inception_3b/relu_5x5
I0816 01:53:51.328857     6 net.cpp:410] inception_3b/relu_5x5 <- inception_3b/5x5
I0816 01:53:51.329423     6 net.cpp:357] inception_3b/relu_5x5 -> inception_3b/5x5 (in-place)
I0816 01:53:51.329569     6 net.cpp:120] Setting up inception_3b/relu_5x5
I0816 01:53:51.329702     6 net.cpp:127] Top shape: 10 96 28 28 (752640)
I0816 01:53:51.329823     6 layer_factory.hpp:74] Creating layer inception_3b/pool
I0816 01:53:51.329960     6 net.cpp:90] Creating Layer inception_3b/pool
I0816 01:53:51.330077     6 net.cpp:410] inception_3b/pool <- inception_3a/output_inception_3a/output_0_split_3
I0816 01:53:51.330209     6 net.cpp:368] inception_3b/pool -> inception_3b/pool
I0816 01:53:51.330327     6 net.cpp:120] Setting up inception_3b/pool
I0816 01:53:51.330446     6 net.cpp:127] Top shape: 10 256 28 28 (2007040)
I0816 01:53:51.330556     6 layer_factory.hpp:74] Creating layer inception_3b/pool_proj
I0816 01:53:51.330698     6 net.cpp:90] Creating Layer inception_3b/pool_proj
I0816 01:53:51.330776     6 net.cpp:410] inception_3b/pool_proj <- inception_3b/pool
I0816 01:53:51.330850     6 net.cpp:368] inception_3b/pool_proj -> inception_3b/pool_proj
I0816 01:53:51.331185     6 net.cpp:120] Setting up inception_3b/pool_proj
I0816 01:53:51.331552     6 net.cpp:127] Top shape: 10 64 28 28 (501760)
I0816 01:53:51.331709     6 layer_factory.hpp:74] Creating layer inception_3b/relu_pool_proj
I0816 01:53:51.331835     6 net.cpp:90] Creating Layer inception_3b/relu_pool_proj
I0816 01:53:51.331954     6 net.cpp:410] inception_3b/relu_pool_proj <- inception_3b/pool_proj
I0816 01:53:51.332072     6 net.cpp:357] inception_3b/relu_pool_proj -> inception_3b/pool_proj (in-place)
I0816 01:53:51.332207     6 net.cpp:120] Setting up inception_3b/relu_pool_proj
I0816 01:53:51.332330     6 net.cpp:127] Top shape: 10 64 28 28 (501760)
I0816 01:53:51.332393     6 layer_factory.hpp:74] Creating layer inception_3b/output
I0816 01:53:51.332458     6 net.cpp:90] Creating Layer inception_3b/output
I0816 01:53:51.332576     6 net.cpp:410] inception_3b/output <- inception_3b/1x1
I0816 01:53:51.332734     6 net.cpp:410] inception_3b/output <- inception_3b/3x3
I0816 01:53:51.332892     6 net.cpp:410] inception_3b/output <- inception_3b/5x5
I0816 01:53:51.333050     6 net.cpp:410] inception_3b/output <- inception_3b/pool_proj
I0816 01:53:51.333211     6 net.cpp:368] inception_3b/output -> inception_3b/output
I0816 01:53:51.333364     6 net.cpp:120] Setting up inception_3b/output
I0816 01:53:51.333519     6 net.cpp:127] Top shape: 10 480 28 28 (3763200)
I0816 01:53:51.333634     6 layer_factory.hpp:74] Creating layer pool3/3x3_s2
I0816 01:53:51.333783     6 net.cpp:90] Creating Layer pool3/3x3_s2
I0816 01:53:51.333889     6 net.cpp:410] pool3/3x3_s2 <- inception_3b/output
I0816 01:53:51.334000     6 net.cpp:368] pool3/3x3_s2 -> pool3/3x3_s2
I0816 01:53:51.334177     6 net.cpp:120] Setting up pool3/3x3_s2
I0816 01:53:51.334321     6 net.cpp:127] Top shape: 10 480 14 14 (940800)
I0816 01:53:51.334451     6 layer_factory.hpp:74] Creating layer pool3/3x3_s2_pool3/3x3_s2_0_split
I0816 01:53:51.334568     6 net.cpp:90] Creating Layer pool3/3x3_s2_pool3/3x3_s2_0_split
I0816 01:53:51.334674     6 net.cpp:410] pool3/3x3_s2_pool3/3x3_s2_0_split <- pool3/3x3_s2
I0816 01:53:51.334803     6 net.cpp:368] pool3/3x3_s2_pool3/3x3_s2_0_split -> pool3/3x3_s2_pool3/3x3_s2_0_split_0
I0816 01:53:51.334920     6 net.cpp:368] pool3/3x3_s2_pool3/3x3_s2_0_split -> pool3/3x3_s2_pool3/3x3_s2_0_split_1
I0816 01:53:51.335060     6 net.cpp:368] pool3/3x3_s2_pool3/3x3_s2_0_split -> pool3/3x3_s2_pool3/3x3_s2_0_split_2
I0816 01:53:51.335140     6 net.cpp:368] pool3/3x3_s2_pool3/3x3_s2_0_split -> pool3/3x3_s2_pool3/3x3_s2_0_split_3
I0816 01:53:51.335243     6 net.cpp:120] Setting up pool3/3x3_s2_pool3/3x3_s2_0_split
I0816 01:53:51.335360     6 net.cpp:127] Top shape: 10 480 14 14 (940800)
I0816 01:53:51.335453     6 net.cpp:127] Top shape: 10 480 14 14 (940800)
I0816 01:53:51.335557     6 net.cpp:127] Top shape: 10 480 14 14 (940800)
I0816 01:53:51.335640     6 net.cpp:127] Top shape: 10 480 14 14 (940800)
I0816 01:53:51.335723     6 layer_factory.hpp:74] Creating layer inception_4a/1x1
I0816 01:53:51.335813     6 net.cpp:90] Creating Layer inception_4a/1x1
I0816 01:53:51.335893     6 net.cpp:410] inception_4a/1x1 <- pool3/3x3_s2_pool3/3x3_s2_0_split_0
I0816 01:53:51.335981     6 net.cpp:368] inception_4a/1x1 -> inception_4a/1x1
I0816 01:53:51.336069     6 net.cpp:120] Setting up inception_4a/1x1
I0816 01:53:51.336666     6 net.cpp:127] Top shape: 10 192 14 14 (376320)
I0816 01:53:51.336742     6 layer_factory.hpp:74] Creating layer inception_4a/relu_1x1
I0816 01:53:51.336833     6 net.cpp:90] Creating Layer inception_4a/relu_1x1
I0816 01:53:51.336912     6 net.cpp:410] inception_4a/relu_1x1 <- inception_4a/1x1
I0816 01:53:51.336995     6 net.cpp:357] inception_4a/relu_1x1 -> inception_4a/1x1 (in-place)
I0816 01:53:51.337077     6 net.cpp:120] Setting up inception_4a/relu_1x1
I0816 01:53:51.337162     6 net.cpp:127] Top shape: 10 192 14 14 (376320)
I0816 01:53:51.337239     6 layer_factory.hpp:74] Creating layer inception_4a/3x3_reduce
I0816 01:53:51.337326     6 net.cpp:90] Creating Layer inception_4a/3x3_reduce
I0816 01:53:51.337409     6 net.cpp:410] inception_4a/3x3_reduce <- pool3/3x3_s2_pool3/3x3_s2_0_split_1
I0816 01:53:51.337502     6 net.cpp:368] inception_4a/3x3_reduce -> inception_4a/3x3_reduce
I0816 01:53:51.337604     6 net.cpp:120] Setting up inception_4a/3x3_reduce
I0816 01:53:51.337977     6 net.cpp:127] Top shape: 10 96 14 14 (188160)
I0816 01:53:51.338074     6 layer_factory.hpp:74] Creating layer inception_4a/relu_3x3_reduce
I0816 01:53:51.338160     6 net.cpp:90] Creating Layer inception_4a/relu_3x3_reduce
I0816 01:53:51.338243     6 net.cpp:410] inception_4a/relu_3x3_reduce <- inception_4a/3x3_reduce
I0816 01:53:51.338325     6 net.cpp:357] inception_4a/relu_3x3_reduce -> inception_4a/3x3_reduce (in-place)
I0816 01:53:51.338409     6 net.cpp:120] Setting up inception_4a/relu_3x3_reduce
I0816 01:53:51.338495     6 net.cpp:127] Top shape: 10 96 14 14 (188160)
I0816 01:53:51.338601     6 layer_factory.hpp:74] Creating layer inception_4a/3x3
I0816 01:53:51.338765     6 net.cpp:90] Creating Layer inception_4a/3x3
I0816 01:53:51.338873     6 net.cpp:410] inception_4a/3x3 <- inception_4a/3x3_reduce
I0816 01:53:51.339040     6 net.cpp:368] inception_4a/3x3 -> inception_4a/3x3
I0816 01:53:51.339143     6 net.cpp:120] Setting up inception_4a/3x3
I0816 01:53:51.340337     6 net.cpp:127] Top shape: 10 208 14 14 (407680)
I0816 01:53:51.340612     6 layer_factory.hpp:74] Creating layer inception_4a/relu_3x3
I0816 01:53:51.340775     6 net.cpp:90] Creating Layer inception_4a/relu_3x3
I0816 01:53:51.340924     6 net.cpp:410] inception_4a/relu_3x3 <- inception_4a/3x3
I0816 01:53:51.341068     6 net.cpp:357] inception_4a/relu_3x3 -> inception_4a/3x3 (in-place)
I0816 01:53:51.341166     6 net.cpp:120] Setting up inception_4a/relu_3x3
I0816 01:53:51.341258     6 net.cpp:127] Top shape: 10 208 14 14 (407680)
I0816 01:53:51.341342     6 layer_factory.hpp:74] Creating layer inception_4a/5x5_reduce
I0816 01:53:51.341434     6 net.cpp:90] Creating Layer inception_4a/5x5_reduce
I0816 01:53:51.341528     6 net.cpp:410] inception_4a/5x5_reduce <- pool3/3x3_s2_pool3/3x3_s2_0_split_2
I0816 01:53:51.341619     6 net.cpp:368] inception_4a/5x5_reduce -> inception_4a/5x5_reduce
I0816 01:53:51.341704     6 net.cpp:120] Setting up inception_4a/5x5_reduce
I0816 01:53:51.341845     6 net.cpp:127] Top shape: 10 16 14 14 (31360)
I0816 01:53:51.341933     6 layer_factory.hpp:74] Creating layer inception_4a/relu_5x5_reduce
I0816 01:53:51.342017     6 net.cpp:90] Creating Layer inception_4a/relu_5x5_reduce
I0816 01:53:51.342100     6 net.cpp:410] inception_4a/relu_5x5_reduce <- inception_4a/5x5_reduce
I0816 01:53:51.342228     6 net.cpp:357] inception_4a/relu_5x5_reduce -> inception_4a/5x5_reduce (in-place)
I0816 01:53:51.342375     6 net.cpp:120] Setting up inception_4a/relu_5x5_reduce
I0816 01:53:51.342492     6 net.cpp:127] Top shape: 10 16 14 14 (31360)
I0816 01:53:51.342591     6 layer_factory.hpp:74] Creating layer inception_4a/5x5
I0816 01:53:51.342680     6 net.cpp:90] Creating Layer inception_4a/5x5
I0816 01:53:51.342761     6 net.cpp:410] inception_4a/5x5 <- inception_4a/5x5_reduce
I0816 01:53:51.342849     6 net.cpp:368] inception_4a/5x5 -> inception_4a/5x5
I0816 01:53:51.342938     6 net.cpp:120] Setting up inception_4a/5x5
I0816 01:53:51.343142     6 net.cpp:127] Top shape: 10 48 14 14 (94080)
I0816 01:53:51.343243     6 layer_factory.hpp:74] Creating layer inception_4a/relu_5x5
I0816 01:53:51.343351     6 net.cpp:90] Creating Layer inception_4a/relu_5x5
I0816 01:53:51.343437     6 net.cpp:410] inception_4a/relu_5x5 <- inception_4a/5x5
I0816 01:53:51.343518     6 net.cpp:357] inception_4a/relu_5x5 -> inception_4a/5x5 (in-place)
I0816 01:53:51.343603     6 net.cpp:120] Setting up inception_4a/relu_5x5
I0816 01:53:51.343688     6 net.cpp:127] Top shape: 10 48 14 14 (94080)
I0816 01:53:51.343767     6 layer_factory.hpp:74] Creating layer inception_4a/pool
I0816 01:53:51.343850     6 net.cpp:90] Creating Layer inception_4a/pool
I0816 01:53:51.343932     6 net.cpp:410] inception_4a/pool <- pool3/3x3_s2_pool3/3x3_s2_0_split_3
I0816 01:53:51.344020     6 net.cpp:368] inception_4a/pool -> inception_4a/pool
I0816 01:53:51.344105     6 net.cpp:120] Setting up inception_4a/pool
I0816 01:53:51.344193     6 net.cpp:127] Top shape: 10 480 14 14 (940800)
I0816 01:53:51.344271     6 layer_factory.hpp:74] Creating layer inception_4a/pool_proj
I0816 01:53:51.344372     6 net.cpp:90] Creating Layer inception_4a/pool_proj
I0816 01:53:51.344449     6 net.cpp:410] inception_4a/pool_proj <- inception_4a/pool
I0816 01:53:51.344568     6 net.cpp:368] inception_4a/pool_proj -> inception_4a/pool_proj
I0816 01:53:51.344770     6 net.cpp:120] Setting up inception_4a/pool_proj
I0816 01:53:51.345155     6 net.cpp:127] Top shape: 10 64 14 14 (125440)
I0816 01:53:51.345226     6 layer_factory.hpp:74] Creating layer inception_4a/relu_pool_proj
I0816 01:53:51.345293     6 net.cpp:90] Creating Layer inception_4a/relu_pool_proj
I0816 01:53:51.345394     6 net.cpp:410] inception_4a/relu_pool_proj <- inception_4a/pool_proj
I0816 01:53:51.345491     6 net.cpp:357] inception_4a/relu_pool_proj -> inception_4a/pool_proj (in-place)
I0816 01:53:51.345582     6 net.cpp:120] Setting up inception_4a/relu_pool_proj
I0816 01:53:51.345666     6 net.cpp:127] Top shape: 10 64 14 14 (125440)
I0816 01:53:51.345749     6 layer_factory.hpp:74] Creating layer inception_4a/output
I0816 01:53:51.345834     6 net.cpp:90] Creating Layer inception_4a/output
I0816 01:53:51.345916     6 net.cpp:410] inception_4a/output <- inception_4a/1x1
I0816 01:53:51.345996     6 net.cpp:410] inception_4a/output <- inception_4a/3x3
I0816 01:53:51.346081     6 net.cpp:410] inception_4a/output <- inception_4a/5x5
I0816 01:53:51.346161     6 net.cpp:410] inception_4a/output <- inception_4a/pool_proj
I0816 01:53:51.346246     6 net.cpp:368] inception_4a/output -> inception_4a/output
I0816 01:53:51.346328     6 net.cpp:120] Setting up inception_4a/output
I0816 01:53:51.346420     6 net.cpp:127] Top shape: 10 512 14 14 (1003520)
I0816 01:53:51.346498     6 layer_factory.hpp:74] Creating layer inception_4a/output_inception_4a/output_0_split
I0816 01:53:51.346591     6 net.cpp:90] Creating Layer inception_4a/output_inception_4a/output_0_split
I0816 01:53:51.346674     6 net.cpp:410] inception_4a/output_inception_4a/output_0_split <- inception_4a/output
I0816 01:53:51.346756     6 net.cpp:368] inception_4a/output_inception_4a/output_0_split -> inception_4a/output_inception_4a/output_0_split_0
I0816 01:53:51.346842     6 net.cpp:368] inception_4a/output_inception_4a/output_0_split -> inception_4a/output_inception_4a/output_0_split_1
I0816 01:53:51.346927     6 net.cpp:368] inception_4a/output_inception_4a/output_0_split -> inception_4a/output_inception_4a/output_0_split_2
I0816 01:53:51.347015     6 net.cpp:368] inception_4a/output_inception_4a/output_0_split -> inception_4a/output_inception_4a/output_0_split_3
I0816 01:53:51.347101     6 net.cpp:120] Setting up inception_4a/output_inception_4a/output_0_split
I0816 01:53:51.347184     6 net.cpp:127] Top shape: 10 512 14 14 (1003520)
I0816 01:53:51.347266     6 net.cpp:127] Top shape: 10 512 14 14 (1003520)
I0816 01:53:51.347349     6 net.cpp:127] Top shape: 10 512 14 14 (1003520)
I0816 01:53:51.347429     6 net.cpp:127] Top shape: 10 512 14 14 (1003520)
I0816 01:53:51.347508     6 layer_factory.hpp:74] Creating layer inception_4b/1x1
I0816 01:53:51.347607     6 net.cpp:90] Creating Layer inception_4b/1x1
I0816 01:53:51.347689     6 net.cpp:410] inception_4b/1x1 <- inception_4a/output_inception_4a/output_0_split_0
I0816 01:53:51.347779     6 net.cpp:368] inception_4b/1x1 -> inception_4b/1x1
I0816 01:53:51.347865     6 net.cpp:120] Setting up inception_4b/1x1
I0816 01:53:51.348405     6 net.cpp:127] Top shape: 10 160 14 14 (313600)
I0816 01:53:51.348533     6 layer_factory.hpp:74] Creating layer inception_4b/relu_1x1
I0816 01:53:51.348747     6 net.cpp:90] Creating Layer inception_4b/relu_1x1
I0816 01:53:51.348860     6 net.cpp:410] inception_4b/relu_1x1 <- inception_4b/1x1
I0816 01:53:51.348994     6 net.cpp:357] inception_4b/relu_1x1 -> inception_4b/1x1 (in-place)
I0816 01:53:51.349094     6 net.cpp:120] Setting up inception_4b/relu_1x1
I0816 01:53:51.349185     6 net.cpp:127] Top shape: 10 160 14 14 (313600)
I0816 01:53:51.349278     6 layer_factory.hpp:74] Creating layer inception_4b/3x3_reduce
I0816 01:53:51.349370     6 net.cpp:90] Creating Layer inception_4b/3x3_reduce
I0816 01:53:51.349452     6 net.cpp:410] inception_4b/3x3_reduce <- inception_4a/output_inception_4a/output_0_split_1
I0816 01:53:51.349545     6 net.cpp:368] inception_4b/3x3_reduce -> inception_4b/3x3_reduce
I0816 01:53:51.349630     6 net.cpp:120] Setting up inception_4b/3x3_reduce
I0816 01:53:51.350025     6 net.cpp:127] Top shape: 10 112 14 14 (219520)
I0816 01:53:51.350114     6 layer_factory.hpp:74] Creating layer inception_4b/relu_3x3_reduce
I0816 01:53:51.350195     6 net.cpp:90] Creating Layer inception_4b/relu_3x3_reduce
I0816 01:53:51.350273     6 net.cpp:410] inception_4b/relu_3x3_reduce <- inception_4b/3x3_reduce
I0816 01:53:51.350391     6 net.cpp:357] inception_4b/relu_3x3_reduce -> inception_4b/3x3_reduce (in-place)
I0816 01:53:51.350477     6 net.cpp:120] Setting up inception_4b/relu_3x3_reduce
I0816 01:53:51.350601     6 net.cpp:127] Top shape: 10 112 14 14 (219520)
I0816 01:53:51.350667     6 layer_factory.hpp:74] Creating layer inception_4b/3x3
I0816 01:53:51.350834     6 net.cpp:90] Creating Layer inception_4b/3x3
I0816 01:53:51.350944     6 net.cpp:410] inception_4b/3x3 <- inception_4b/3x3_reduce
I0816 01:53:51.350999     6 net.cpp:368] inception_4b/3x3 -> inception_4b/3x3
I0816 01:53:51.351063     6 net.cpp:120] Setting up inception_4b/3x3
I0816 01:53:51.352361     6 net.cpp:127] Top shape: 10 224 14 14 (439040)
I0816 01:53:51.352449     6 layer_factory.hpp:74] Creating layer inception_4b/relu_3x3
I0816 01:53:51.352545     6 net.cpp:90] Creating Layer inception_4b/relu_3x3
I0816 01:53:51.352622     6 net.cpp:410] inception_4b/relu_3x3 <- inception_4b/3x3
I0816 01:53:51.352717     6 net.cpp:357] inception_4b/relu_3x3 -> inception_4b/3x3 (in-place)
I0816 01:53:51.352807     6 net.cpp:120] Setting up inception_4b/relu_3x3
I0816 01:53:51.352934     6 net.cpp:127] Top shape: 10 224 14 14 (439040)
I0816 01:53:51.353019     6 layer_factory.hpp:74] Creating layer inception_4b/5x5_reduce
I0816 01:53:51.353106     6 net.cpp:90] Creating Layer inception_4b/5x5_reduce
I0816 01:53:51.353184     6 net.cpp:410] inception_4b/5x5_reduce <- inception_4a/output_inception_4a/output_0_split_2
I0816 01:53:51.353268     6 net.cpp:368] inception_4b/5x5_reduce -> inception_4b/5x5_reduce
I0816 01:53:51.353353     6 net.cpp:120] Setting up inception_4b/5x5_reduce
I0816 01:53:51.353503     6 net.cpp:127] Top shape: 10 24 14 14 (47040)
I0816 01:53:51.353597     6 layer_factory.hpp:74] Creating layer inception_4b/relu_5x5_reduce
I0816 01:53:51.353688     6 net.cpp:90] Creating Layer inception_4b/relu_5x5_reduce
I0816 01:53:51.353765     6 net.cpp:410] inception_4b/relu_5x5_reduce <- inception_4b/5x5_reduce
I0816 01:53:51.353844     6 net.cpp:357] inception_4b/relu_5x5_reduce -> inception_4b/5x5_reduce (in-place)
I0816 01:53:51.353924     6 net.cpp:120] Setting up inception_4b/relu_5x5_reduce
I0816 01:53:51.354002     6 net.cpp:127] Top shape: 10 24 14 14 (47040)
I0816 01:53:51.354080     6 layer_factory.hpp:74] Creating layer inception_4b/5x5
I0816 01:53:51.354158     6 net.cpp:90] Creating Layer inception_4b/5x5
I0816 01:53:51.354260     6 net.cpp:410] inception_4b/5x5 <- inception_4b/5x5_reduce
I0816 01:53:51.354358     6 net.cpp:368] inception_4b/5x5 -> inception_4b/5x5
I0816 01:53:51.354434     6 net.cpp:120] Setting up inception_4b/5x5
I0816 01:53:51.354748     6 net.cpp:127] Top shape: 10 64 14 14 (125440)
I0816 01:53:51.354823     6 layer_factory.hpp:74] Creating layer inception_4b/relu_5x5
I0816 01:53:51.354895     6 net.cpp:90] Creating Layer inception_4b/relu_5x5
I0816 01:53:51.354974     6 net.cpp:410] inception_4b/relu_5x5 <- inception_4b/5x5
I0816 01:53:51.355051     6 net.cpp:357] inception_4b/relu_5x5 -> inception_4b/5x5 (in-place)
I0816 01:53:51.355126     6 net.cpp:120] Setting up inception_4b/relu_5x5
I0816 01:53:51.355222     6 net.cpp:127] Top shape: 10 64 14 14 (125440)
I0816 01:53:51.355309     6 layer_factory.hpp:74] Creating layer inception_4b/pool
I0816 01:53:51.355408     6 net.cpp:90] Creating Layer inception_4b/pool
I0816 01:53:51.355510     6 net.cpp:410] inception_4b/pool <- inception_4a/output_inception_4a/output_0_split_3
I0816 01:53:51.355609     6 net.cpp:368] inception_4b/pool -> inception_4b/pool
I0816 01:53:51.355707     6 net.cpp:120] Setting up inception_4b/pool
I0816 01:53:51.355794     6 net.cpp:127] Top shape: 10 512 14 14 (1003520)
I0816 01:53:51.355873     6 layer_factory.hpp:74] Creating layer inception_4b/pool_proj
I0816 01:53:51.355965     6 net.cpp:90] Creating Layer inception_4b/pool_proj
I0816 01:53:51.356046     6 net.cpp:410] inception_4b/pool_proj <- inception_4b/pool
I0816 01:53:51.356128     6 net.cpp:368] inception_4b/pool_proj -> inception_4b/pool_proj
I0816 01:53:51.356211     6 net.cpp:120] Setting up inception_4b/pool_proj
I0816 01:53:51.356469     6 net.cpp:127] Top shape: 10 64 14 14 (125440)
I0816 01:53:51.356547     6 layer_factory.hpp:74] Creating layer inception_4b/relu_pool_proj
I0816 01:53:51.356639     6 net.cpp:90] Creating Layer inception_4b/relu_pool_proj
I0816 01:53:51.356720     6 net.cpp:410] inception_4b/relu_pool_proj <- inception_4b/pool_proj
I0816 01:53:51.356803     6 net.cpp:357] inception_4b/relu_pool_proj -> inception_4b/pool_proj (in-place)
I0816 01:53:51.356884     6 net.cpp:120] Setting up inception_4b/relu_pool_proj
I0816 01:53:51.356963     6 net.cpp:127] Top shape: 10 64 14 14 (125440)
I0816 01:53:51.357040     6 layer_factory.hpp:74] Creating layer inception_4b/output
I0816 01:53:51.357120     6 net.cpp:90] Creating Layer inception_4b/output
I0816 01:53:51.357197     6 net.cpp:410] inception_4b/output <- inception_4b/1x1
I0816 01:53:51.357275     6 net.cpp:410] inception_4b/output <- inception_4b/3x3
I0816 01:53:51.357353     6 net.cpp:410] inception_4b/output <- inception_4b/5x5
I0816 01:53:51.357431     6 net.cpp:410] inception_4b/output <- inception_4b/pool_proj
I0816 01:53:51.357512     6 net.cpp:368] inception_4b/output -> inception_4b/output
I0816 01:53:51.357592     6 net.cpp:120] Setting up inception_4b/output
I0816 01:53:51.357674     6 net.cpp:127] Top shape: 10 512 14 14 (1003520)
I0816 01:53:51.357751     6 layer_factory.hpp:74] Creating layer inception_4b/output_inception_4b/output_0_split
I0816 01:53:51.357831     6 net.cpp:90] Creating Layer inception_4b/output_inception_4b/output_0_split
I0816 01:53:51.357909     6 net.cpp:410] inception_4b/output_inception_4b/output_0_split <- inception_4b/output
I0816 01:53:51.357987     6 net.cpp:368] inception_4b/output_inception_4b/output_0_split -> inception_4b/output_inception_4b/output_0_split_0
I0816 01:53:51.358068     6 net.cpp:368] inception_4b/output_inception_4b/output_0_split -> inception_4b/output_inception_4b/output_0_split_1
I0816 01:53:51.358149     6 net.cpp:368] inception_4b/output_inception_4b/output_0_split -> inception_4b/output_inception_4b/output_0_split_2
I0816 01:53:51.358232     6 net.cpp:368] inception_4b/output_inception_4b/output_0_split -> inception_4b/output_inception_4b/output_0_split_3
I0816 01:53:51.358325     6 net.cpp:120] Setting up inception_4b/output_inception_4b/output_0_split
I0816 01:53:51.358423     6 net.cpp:127] Top shape: 10 512 14 14 (1003520)
I0816 01:53:51.358569     6 net.cpp:127] Top shape: 10 512 14 14 (1003520)
I0816 01:53:51.358736     6 net.cpp:127] Top shape: 10 512 14 14 (1003520)
I0816 01:53:51.358855     6 net.cpp:127] Top shape: 10 512 14 14 (1003520)
I0816 01:53:51.358950     6 layer_factory.hpp:74] Creating layer inception_4c/1x1
I0816 01:53:51.359045     6 net.cpp:90] Creating Layer inception_4c/1x1
I0816 01:53:51.359127     6 net.cpp:410] inception_4c/1x1 <- inception_4b/output_inception_4b/output_0_split_0
I0816 01:53:51.359216     6 net.cpp:368] inception_4c/1x1 -> inception_4c/1x1
I0816 01:53:51.359318     6 net.cpp:120] Setting up inception_4c/1x1
I0816 01:53:51.359776     6 net.cpp:127] Top shape: 10 128 14 14 (250880)
I0816 01:53:51.359863     6 layer_factory.hpp:74] Creating layer inception_4c/relu_1x1
I0816 01:53:51.359943     6 net.cpp:90] Creating Layer inception_4c/relu_1x1
I0816 01:53:51.360023     6 net.cpp:410] inception_4c/relu_1x1 <- inception_4c/1x1
I0816 01:53:51.360101     6 net.cpp:357] inception_4c/relu_1x1 -> inception_4c/1x1 (in-place)
I0816 01:53:51.360182     6 net.cpp:120] Setting up inception_4c/relu_1x1
I0816 01:53:51.360260     6 net.cpp:127] Top shape: 10 128 14 14 (250880)
I0816 01:53:51.360337     6 layer_factory.hpp:74] Creating layer inception_4c/3x3_reduce
I0816 01:53:51.360427     6 net.cpp:90] Creating Layer inception_4c/3x3_reduce
I0816 01:53:51.360512     6 net.cpp:410] inception_4c/3x3_reduce <- inception_4b/output_inception_4b/output_0_split_1
I0816 01:53:51.360612     6 net.cpp:368] inception_4c/3x3_reduce -> inception_4c/3x3_reduce
I0816 01:53:51.360697     6 net.cpp:120] Setting up inception_4c/3x3_reduce
I0816 01:53:51.361155     6 net.cpp:127] Top shape: 10 128 14 14 (250880)
I0816 01:53:51.361243     6 layer_factory.hpp:74] Creating layer inception_4c/relu_3x3_reduce
I0816 01:53:51.361332     6 net.cpp:90] Creating Layer inception_4c/relu_3x3_reduce
I0816 01:53:51.361419     6 net.cpp:410] inception_4c/relu_3x3_reduce <- inception_4c/3x3_reduce
I0816 01:53:51.361506     6 net.cpp:357] inception_4c/relu_3x3_reduce -> inception_4c/3x3_reduce (in-place)
I0816 01:53:51.361613     6 net.cpp:120] Setting up inception_4c/relu_3x3_reduce
I0816 01:53:51.361759     6 net.cpp:127] Top shape: 10 128 14 14 (250880)
I0816 01:53:51.361915     6 layer_factory.hpp:74] Creating layer inception_4c/3x3
I0816 01:53:51.362095     6 net.cpp:90] Creating Layer inception_4c/3x3
I0816 01:53:51.362197     6 net.cpp:410] inception_4c/3x3 <- inception_4c/3x3_reduce
I0816 01:53:51.362303     6 net.cpp:368] inception_4c/3x3 -> inception_4c/3x3
I0816 01:53:51.362398     6 net.cpp:120] Setting up inception_4c/3x3
I0816 01:53:51.364042     6 net.cpp:127] Top shape: 10 256 14 14 (501760)
I0816 01:53:51.364162     6 layer_factory.hpp:74] Creating layer inception_4c/relu_3x3
I0816 01:53:51.364269     6 net.cpp:90] Creating Layer inception_4c/relu_3x3
I0816 01:53:51.364382     6 net.cpp:410] inception_4c/relu_3x3 <- inception_4c/3x3
I0816 01:53:51.364514     6 net.cpp:357] inception_4c/relu_3x3 -> inception_4c/3x3 (in-place)
I0816 01:53:51.364617     6 net.cpp:120] Setting up inception_4c/relu_3x3
I0816 01:53:51.364711     6 net.cpp:127] Top shape: 10 256 14 14 (501760)
I0816 01:53:51.364809     6 layer_factory.hpp:74] Creating layer inception_4c/5x5_reduce
I0816 01:53:51.364922     6 net.cpp:90] Creating Layer inception_4c/5x5_reduce
I0816 01:53:51.365022     6 net.cpp:410] inception_4c/5x5_reduce <- inception_4b/output_inception_4b/output_0_split_2
I0816 01:53:51.365125     6 net.cpp:368] inception_4c/5x5_reduce -> inception_4c/5x5_reduce
I0816 01:53:51.365209     6 net.cpp:120] Setting up inception_4c/5x5_reduce
I0816 01:53:51.365411     6 net.cpp:127] Top shape: 10 24 14 14 (47040)
I0816 01:53:51.365524     6 layer_factory.hpp:74] Creating layer inception_4c/relu_5x5_reduce
I0816 01:53:51.365617     6 net.cpp:90] Creating Layer inception_4c/relu_5x5_reduce
I0816 01:53:51.365710     6 net.cpp:410] inception_4c/relu_5x5_reduce <- inception_4c/5x5_reduce
I0816 01:53:51.365800     6 net.cpp:357] inception_4c/relu_5x5_reduce -> inception_4c/5x5_reduce (in-place)
I0816 01:53:51.365907     6 net.cpp:120] Setting up inception_4c/relu_5x5_reduce
I0816 01:53:51.366008     6 net.cpp:127] Top shape: 10 24 14 14 (47040)
I0816 01:53:51.366092     6 layer_factory.hpp:74] Creating layer inception_4c/5x5
I0816 01:53:51.366183     6 net.cpp:90] Creating Layer inception_4c/5x5
I0816 01:53:51.366271     6 net.cpp:410] inception_4c/5x5 <- inception_4c/5x5_reduce
I0816 01:53:51.366426     6 net.cpp:368] inception_4c/5x5 -> inception_4c/5x5
I0816 01:53:51.366518     6 net.cpp:120] Setting up inception_4c/5x5
I0816 01:53:51.366921     6 net.cpp:127] Top shape: 10 64 14 14 (125440)
I0816 01:53:51.367076     6 layer_factory.hpp:74] Creating layer inception_4c/relu_5x5
I0816 01:53:51.367210     6 net.cpp:90] Creating Layer inception_4c/relu_5x5
I0816 01:53:51.367332     6 net.cpp:410] inception_4c/relu_5x5 <- inception_4c/5x5
I0816 01:53:51.367421     6 net.cpp:357] inception_4c/relu_5x5 -> inception_4c/5x5 (in-place)
I0816 01:53:51.367529     6 net.cpp:120] Setting up inception_4c/relu_5x5
I0816 01:53:51.367619     6 net.cpp:127] Top shape: 10 64 14 14 (125440)
I0816 01:53:51.367684     6 layer_factory.hpp:74] Creating layer inception_4c/pool
I0816 01:53:51.367787     6 net.cpp:90] Creating Layer inception_4c/pool
I0816 01:53:51.367903     6 net.cpp:410] inception_4c/pool <- inception_4b/output_inception_4b/output_0_split_3
I0816 01:53:51.368041     6 net.cpp:368] inception_4c/pool -> inception_4c/pool
I0816 01:53:51.368141     6 net.cpp:120] Setting up inception_4c/pool
I0816 01:53:51.368243     6 net.cpp:127] Top shape: 10 512 14 14 (1003520)
I0816 01:53:51.368312     6 layer_factory.hpp:74] Creating layer inception_4c/pool_proj
I0816 01:53:51.368412     6 net.cpp:90] Creating Layer inception_4c/pool_proj
I0816 01:53:51.368500     6 net.cpp:410] inception_4c/pool_proj <- inception_4c/pool
I0816 01:53:51.368638     6 net.cpp:368] inception_4c/pool_proj -> inception_4c/pool_proj
I0816 01:53:51.368718     6 net.cpp:120] Setting up inception_4c/pool_proj
I0816 01:53:51.369035     6 net.cpp:127] Top shape: 10 64 14 14 (125440)
I0816 01:53:51.369146     6 layer_factory.hpp:74] Creating layer inception_4c/relu_pool_proj
I0816 01:53:51.369253     6 net.cpp:90] Creating Layer inception_4c/relu_pool_proj
I0816 01:53:51.369349     6 net.cpp:410] inception_4c/relu_pool_proj <- inception_4c/pool_proj
I0816 01:53:51.369436     6 net.cpp:357] inception_4c/relu_pool_proj -> inception_4c/pool_proj (in-place)
I0816 01:53:51.369519     6 net.cpp:120] Setting up inception_4c/relu_pool_proj
I0816 01:53:51.369599     6 net.cpp:127] Top shape: 10 64 14 14 (125440)
I0816 01:53:51.369678     6 layer_factory.hpp:74] Creating layer inception_4c/output
I0816 01:53:51.369770     6 net.cpp:90] Creating Layer inception_4c/output
I0816 01:53:51.369861     6 net.cpp:410] inception_4c/output <- inception_4c/1x1
I0816 01:53:51.369966     6 net.cpp:410] inception_4c/output <- inception_4c/3x3
I0816 01:53:51.370044     6 net.cpp:410] inception_4c/output <- inception_4c/5x5
I0816 01:53:51.370122     6 net.cpp:410] inception_4c/output <- inception_4c/pool_proj
I0816 01:53:51.370199     6 net.cpp:368] inception_4c/output -> inception_4c/output
I0816 01:53:51.370278     6 net.cpp:120] Setting up inception_4c/output
I0816 01:53:51.370357     6 net.cpp:127] Top shape: 10 512 14 14 (1003520)
I0816 01:53:51.370431     6 layer_factory.hpp:74] Creating layer inception_4c/output_inception_4c/output_0_split
I0816 01:53:51.370507     6 net.cpp:90] Creating Layer inception_4c/output_inception_4c/output_0_split
I0816 01:53:51.370581     6 net.cpp:410] inception_4c/output_inception_4c/output_0_split <- inception_4c/output
I0816 01:53:51.370661     6 net.cpp:368] inception_4c/output_inception_4c/output_0_split -> inception_4c/output_inception_4c/output_0_split_0
I0816 01:53:51.370741     6 net.cpp:368] inception_4c/output_inception_4c/output_0_split -> inception_4c/output_inception_4c/output_0_split_1
I0816 01:53:51.370805     6 net.cpp:368] inception_4c/output_inception_4c/output_0_split -> inception_4c/output_inception_4c/output_0_split_2
I0816 01:53:51.370914     6 net.cpp:368] inception_4c/output_inception_4c/output_0_split -> inception_4c/output_inception_4c/output_0_split_3
I0816 01:53:51.370985     6 net.cpp:120] Setting up inception_4c/output_inception_4c/output_0_split
I0816 01:53:51.371089     6 net.cpp:127] Top shape: 10 512 14 14 (1003520)
I0816 01:53:51.371186     6 net.cpp:127] Top shape: 10 512 14 14 (1003520)
I0816 01:53:51.371285     6 net.cpp:127] Top shape: 10 512 14 14 (1003520)
I0816 01:53:51.371414     6 net.cpp:127] Top shape: 10 512 14 14 (1003520)
I0816 01:53:51.371527     6 layer_factory.hpp:74] Creating layer inception_4d/1x1
I0816 01:53:51.371614     6 net.cpp:90] Creating Layer inception_4d/1x1
I0816 01:53:51.371676     6 net.cpp:410] inception_4d/1x1 <- inception_4c/output_inception_4c/output_0_split_0
I0816 01:53:51.371758     6 net.cpp:368] inception_4d/1x1 -> inception_4d/1x1
I0816 01:53:51.371851     6 net.cpp:120] Setting up inception_4d/1x1
I0816 01:53:51.372257     6 net.cpp:127] Top shape: 10 112 14 14 (219520)
I0816 01:53:51.372346     6 layer_factory.hpp:74] Creating layer inception_4d/relu_1x1
I0816 01:53:51.372469     6 net.cpp:90] Creating Layer inception_4d/relu_1x1
I0816 01:53:51.372565     6 net.cpp:410] inception_4d/relu_1x1 <- inception_4d/1x1
I0816 01:53:51.372665     6 net.cpp:357] inception_4d/relu_1x1 -> inception_4d/1x1 (in-place)
I0816 01:53:51.372750     6 net.cpp:120] Setting up inception_4d/relu_1x1
I0816 01:53:51.372840     6 net.cpp:127] Top shape: 10 112 14 14 (219520)
I0816 01:53:51.372926     6 layer_factory.hpp:74] Creating layer inception_4d/3x3_reduce
I0816 01:53:51.373010     6 net.cpp:90] Creating Layer inception_4d/3x3_reduce
I0816 01:53:51.373088     6 net.cpp:410] inception_4d/3x3_reduce <- inception_4c/output_inception_4c/output_0_split_1
I0816 01:53:51.373178     6 net.cpp:368] inception_4d/3x3_reduce -> inception_4d/3x3_reduce
I0816 01:53:51.373266     6 net.cpp:120] Setting up inception_4d/3x3_reduce
I0816 01:53:51.373744     6 net.cpp:127] Top shape: 10 144 14 14 (282240)
I0816 01:53:51.373819     6 layer_factory.hpp:74] Creating layer inception_4d/relu_3x3_reduce
I0816 01:53:51.373898     6 net.cpp:90] Creating Layer inception_4d/relu_3x3_reduce
I0816 01:53:51.373976     6 net.cpp:410] inception_4d/relu_3x3_reduce <- inception_4d/3x3_reduce
I0816 01:53:51.374074     6 net.cpp:357] inception_4d/relu_3x3_reduce -> inception_4d/3x3_reduce (in-place)
I0816 01:53:51.374164     6 net.cpp:120] Setting up inception_4d/relu_3x3_reduce
I0816 01:53:51.374260     6 net.cpp:127] Top shape: 10 144 14 14 (282240)
I0816 01:53:51.374342     6 layer_factory.hpp:74] Creating layer inception_4d/3x3
I0816 01:53:51.374424     6 net.cpp:90] Creating Layer inception_4d/3x3
I0816 01:53:51.374542     6 net.cpp:410] inception_4d/3x3 <- inception_4d/3x3_reduce
I0816 01:53:51.374622     6 net.cpp:368] inception_4d/3x3 -> inception_4d/3x3
I0816 01:53:51.374702     6 net.cpp:120] Setting up inception_4d/3x3
I0816 01:53:51.376813     6 net.cpp:127] Top shape: 10 288 14 14 (564480)
I0816 01:53:51.376961     6 layer_factory.hpp:74] Creating layer inception_4d/relu_3x3
I0816 01:53:51.377128     6 net.cpp:90] Creating Layer inception_4d/relu_3x3
I0816 01:53:51.377219     6 net.cpp:410] inception_4d/relu_3x3 <- inception_4d/3x3
I0816 01:53:51.377315     6 net.cpp:357] inception_4d/relu_3x3 -> inception_4d/3x3 (in-place)
I0816 01:53:51.377389     6 net.cpp:120] Setting up inception_4d/relu_3x3
I0816 01:53:51.377477     6 net.cpp:127] Top shape: 10 288 14 14 (564480)
I0816 01:53:51.377600     6 layer_factory.hpp:74] Creating layer inception_4d/5x5_reduce
I0816 01:53:51.377725     6 net.cpp:90] Creating Layer inception_4d/5x5_reduce
I0816 01:53:51.377820     6 net.cpp:410] inception_4d/5x5_reduce <- inception_4c/output_inception_4c/output_0_split_2
I0816 01:53:51.377923     6 net.cpp:368] inception_4d/5x5_reduce -> inception_4d/5x5_reduce
I0816 01:53:51.378017     6 net.cpp:120] Setting up inception_4d/5x5_reduce
I0816 01:53:51.378217     6 net.cpp:127] Top shape: 10 32 14 14 (62720)
I0816 01:53:51.378346     6 layer_factory.hpp:74] Creating layer inception_4d/relu_5x5_reduce
I0816 01:53:51.378473     6 net.cpp:90] Creating Layer inception_4d/relu_5x5_reduce
I0816 01:53:51.378631     6 net.cpp:410] inception_4d/relu_5x5_reduce <- inception_4d/5x5_reduce
I0816 01:53:51.378742     6 net.cpp:357] inception_4d/relu_5x5_reduce -> inception_4d/5x5_reduce (in-place)
I0816 01:53:51.378877     6 net.cpp:120] Setting up inception_4d/relu_5x5_reduce
I0816 01:53:51.379039     6 net.cpp:127] Top shape: 10 32 14 14 (62720)
I0816 01:53:51.379150     6 layer_factory.hpp:74] Creating layer inception_4d/5x5
I0816 01:53:51.379240     6 net.cpp:90] Creating Layer inception_4d/5x5
I0816 01:53:51.379333     6 net.cpp:410] inception_4d/5x5 <- inception_4d/5x5_reduce
I0816 01:53:51.379431     6 net.cpp:368] inception_4d/5x5 -> inception_4d/5x5
I0816 01:53:51.379535     6 net.cpp:120] Setting up inception_4d/5x5
I0816 01:53:51.379922     6 net.cpp:127] Top shape: 10 64 14 14 (125440)
I0816 01:53:51.380033     6 layer_factory.hpp:74] Creating layer inception_4d/relu_5x5
I0816 01:53:51.380117     6 net.cpp:90] Creating Layer inception_4d/relu_5x5
I0816 01:53:51.380204     6 net.cpp:410] inception_4d/relu_5x5 <- inception_4d/5x5
I0816 01:53:51.380286     6 net.cpp:357] inception_4d/relu_5x5 -> inception_4d/5x5 (in-place)
I0816 01:53:51.380365     6 net.cpp:120] Setting up inception_4d/relu_5x5
I0816 01:53:51.380444     6 net.cpp:127] Top shape: 10 64 14 14 (125440)
I0816 01:53:51.380522     6 layer_factory.hpp:74] Creating layer inception_4d/pool
I0816 01:53:51.380609     6 net.cpp:90] Creating Layer inception_4d/pool
I0816 01:53:51.380674     6 net.cpp:410] inception_4d/pool <- inception_4c/output_inception_4c/output_0_split_3
I0816 01:53:51.380779     6 net.cpp:368] inception_4d/pool -> inception_4d/pool
I0816 01:53:51.380861     6 net.cpp:120] Setting up inception_4d/pool
I0816 01:53:51.380928     6 net.cpp:127] Top shape: 10 512 14 14 (1003520)
I0816 01:53:51.380991     6 layer_factory.hpp:74] Creating layer inception_4d/pool_proj
I0816 01:53:51.381073     6 net.cpp:90] Creating Layer inception_4d/pool_proj
I0816 01:53:51.381135     6 net.cpp:410] inception_4d/pool_proj <- inception_4d/pool
I0816 01:53:51.381217     6 net.cpp:368] inception_4d/pool_proj -> inception_4d/pool_proj
I0816 01:53:51.381284     6 net.cpp:120] Setting up inception_4d/pool_proj
I0816 01:53:51.381542     6 net.cpp:127] Top shape: 10 64 14 14 (125440)
I0816 01:53:51.381623     6 layer_factory.hpp:74] Creating layer inception_4d/relu_pool_proj
I0816 01:53:51.381714     6 net.cpp:90] Creating Layer inception_4d/relu_pool_proj
I0816 01:53:51.381783     6 net.cpp:410] inception_4d/relu_pool_proj <- inception_4d/pool_proj
I0816 01:53:51.381891     6 net.cpp:357] inception_4d/relu_pool_proj -> inception_4d/pool_proj (in-place)
I0816 01:53:51.381978     6 net.cpp:120] Setting up inception_4d/relu_pool_proj
I0816 01:53:51.382078     6 net.cpp:127] Top shape: 10 64 14 14 (125440)
I0816 01:53:51.382194     6 layer_factory.hpp:74] Creating layer inception_4d/output
I0816 01:53:51.382262     6 net.cpp:90] Creating Layer inception_4d/output
I0816 01:53:51.382354     6 net.cpp:410] inception_4d/output <- inception_4d/1x1
I0816 01:53:51.382519     6 net.cpp:410] inception_4d/output <- inception_4d/3x3
I0816 01:53:51.382771     6 net.cpp:410] inception_4d/output <- inception_4d/5x5
I0816 01:53:51.382855     6 net.cpp:410] inception_4d/output <- inception_4d/pool_proj
I0816 01:53:51.382995     6 net.cpp:368] inception_4d/output -> inception_4d/output
I0816 01:53:51.383610     6 net.cpp:120] Setting up inception_4d/output
I0816 01:53:51.383831     6 net.cpp:127] Top shape: 10 528 14 14 (1034880)
I0816 01:53:51.383936     6 layer_factory.hpp:74] Creating layer inception_4d/output_inception_4d/output_0_split
I0816 01:53:51.384033     6 net.cpp:90] Creating Layer inception_4d/output_inception_4d/output_0_split
I0816 01:53:51.384135     6 net.cpp:410] inception_4d/output_inception_4d/output_0_split <- inception_4d/output
I0816 01:53:51.384240     6 net.cpp:368] inception_4d/output_inception_4d/output_0_split -> inception_4d/output_inception_4d/output_0_split_0
I0816 01:53:51.384363     6 net.cpp:368] inception_4d/output_inception_4d/output_0_split -> inception_4d/output_inception_4d/output_0_split_1
I0816 01:53:51.384449     6 net.cpp:368] inception_4d/output_inception_4d/output_0_split -> inception_4d/output_inception_4d/output_0_split_2
I0816 01:53:51.384552     6 net.cpp:368] inception_4d/output_inception_4d/output_0_split -> inception_4d/output_inception_4d/output_0_split_3
I0816 01:53:51.384695     6 net.cpp:120] Setting up inception_4d/output_inception_4d/output_0_split
I0816 01:53:51.384781     6 net.cpp:127] Top shape: 10 528 14 14 (1034880)
I0816 01:53:51.384874     6 net.cpp:127] Top shape: 10 528 14 14 (1034880)
I0816 01:53:51.384958     6 net.cpp:127] Top shape: 10 528 14 14 (1034880)
I0816 01:53:51.385033     6 net.cpp:127] Top shape: 10 528 14 14 (1034880)
I0816 01:53:51.385094     6 layer_factory.hpp:74] Creating layer inception_4e/1x1
I0816 01:53:51.385179     6 net.cpp:90] Creating Layer inception_4e/1x1
I0816 01:53:51.385272     6 net.cpp:410] inception_4e/1x1 <- inception_4d/output_inception_4d/output_0_split_0
I0816 01:53:51.385373     6 net.cpp:368] inception_4e/1x1 -> inception_4e/1x1
I0816 01:53:51.385468     6 net.cpp:120] Setting up inception_4e/1x1
I0816 01:53:51.386281     6 net.cpp:127] Top shape: 10 256 14 14 (501760)
I0816 01:53:51.386373     6 layer_factory.hpp:74] Creating layer inception_4e/relu_1x1
I0816 01:53:51.386454     6 net.cpp:90] Creating Layer inception_4e/relu_1x1
I0816 01:53:51.386533     6 net.cpp:410] inception_4e/relu_1x1 <- inception_4e/1x1
I0816 01:53:51.386628     6 net.cpp:357] inception_4e/relu_1x1 -> inception_4e/1x1 (in-place)
I0816 01:53:51.386709     6 net.cpp:120] Setting up inception_4e/relu_1x1
I0816 01:53:51.386795     6 net.cpp:127] Top shape: 10 256 14 14 (501760)
I0816 01:53:51.386872     6 layer_factory.hpp:74] Creating layer inception_4e/3x3_reduce
I0816 01:53:51.386963     6 net.cpp:90] Creating Layer inception_4e/3x3_reduce
I0816 01:53:51.387049     6 net.cpp:410] inception_4e/3x3_reduce <- inception_4d/output_inception_4d/output_0_split_1
I0816 01:53:51.387151     6 net.cpp:368] inception_4e/3x3_reduce -> inception_4e/3x3_reduce
I0816 01:53:51.387233     6 net.cpp:120] Setting up inception_4e/3x3_reduce
I0816 01:53:51.387763     6 net.cpp:127] Top shape: 10 160 14 14 (313600)
I0816 01:53:51.387831     6 layer_factory.hpp:74] Creating layer inception_4e/relu_3x3_reduce
I0816 01:53:51.387912     6 net.cpp:90] Creating Layer inception_4e/relu_3x3_reduce
I0816 01:53:51.387989     6 net.cpp:410] inception_4e/relu_3x3_reduce <- inception_4e/3x3_reduce
I0816 01:53:51.388080     6 net.cpp:357] inception_4e/relu_3x3_reduce -> inception_4e/3x3_reduce (in-place)
I0816 01:53:51.388177     6 net.cpp:120] Setting up inception_4e/relu_3x3_reduce
I0816 01:53:51.388278     6 net.cpp:127] Top shape: 10 160 14 14 (313600)
I0816 01:53:51.388370     6 layer_factory.hpp:74] Creating layer inception_4e/3x3
I0816 01:53:51.388459     6 net.cpp:90] Creating Layer inception_4e/3x3
I0816 01:53:51.388545     6 net.cpp:410] inception_4e/3x3 <- inception_4e/3x3_reduce
I0816 01:53:51.388664     6 net.cpp:368] inception_4e/3x3 -> inception_4e/3x3
I0816 01:53:51.388751     6 net.cpp:120] Setting up inception_4e/3x3
I0816 01:53:51.391582     6 net.cpp:127] Top shape: 10 320 14 14 (627200)
I0816 01:53:51.391785     6 layer_factory.hpp:74] Creating layer inception_4e/relu_3x3
I0816 01:53:51.391953     6 net.cpp:90] Creating Layer inception_4e/relu_3x3
I0816 01:53:51.392112     6 net.cpp:410] inception_4e/relu_3x3 <- inception_4e/3x3
I0816 01:53:51.392282     6 net.cpp:357] inception_4e/relu_3x3 -> inception_4e/3x3 (in-place)
I0816 01:53:51.392470     6 net.cpp:120] Setting up inception_4e/relu_3x3
I0816 01:53:51.392632     6 net.cpp:127] Top shape: 10 320 14 14 (627200)
I0816 01:53:51.392736     6 layer_factory.hpp:74] Creating layer inception_4e/5x5_reduce
I0816 01:53:51.392899     6 net.cpp:90] Creating Layer inception_4e/5x5_reduce
I0816 01:53:51.393100     6 net.cpp:410] inception_4e/5x5_reduce <- inception_4d/output_inception_4d/output_0_split_2
I0816 01:53:51.393223     6 net.cpp:368] inception_4e/5x5_reduce -> inception_4e/5x5_reduce
I0816 01:53:51.393375     6 net.cpp:120] Setting up inception_4e/5x5_reduce
I0816 01:53:51.393570     6 net.cpp:127] Top shape: 10 32 14 14 (62720)
I0816 01:53:51.393748     6 layer_factory.hpp:74] Creating layer inception_4e/relu_5x5_reduce
I0816 01:53:51.393869     6 net.cpp:90] Creating Layer inception_4e/relu_5x5_reduce
I0816 01:53:51.394000     6 net.cpp:410] inception_4e/relu_5x5_reduce <- inception_4e/5x5_reduce
I0816 01:53:51.394114     6 net.cpp:357] inception_4e/relu_5x5_reduce -> inception_4e/5x5_reduce (in-place)
I0816 01:53:51.394243     6 net.cpp:120] Setting up inception_4e/relu_5x5_reduce
I0816 01:53:51.394341     6 net.cpp:127] Top shape: 10 32 14 14 (62720)
I0816 01:53:51.394429     6 layer_factory.hpp:74] Creating layer inception_4e/5x5
I0816 01:53:51.394515     6 net.cpp:90] Creating Layer inception_4e/5x5
I0816 01:53:51.394593     6 net.cpp:410] inception_4e/5x5 <- inception_4e/5x5_reduce
I0816 01:53:51.394692     6 net.cpp:368] inception_4e/5x5 -> inception_4e/5x5
I0816 01:53:51.394778     6 net.cpp:120] Setting up inception_4e/5x5
I0816 01:53:51.395404     6 net.cpp:127] Top shape: 10 128 14 14 (250880)
I0816 01:53:51.395484     6 layer_factory.hpp:74] Creating layer inception_4e/relu_5x5
I0816 01:53:51.395575     6 net.cpp:90] Creating Layer inception_4e/relu_5x5
I0816 01:53:51.395653     6 net.cpp:410] inception_4e/relu_5x5 <- inception_4e/5x5
I0816 01:53:51.395726     6 net.cpp:357] inception_4e/relu_5x5 -> inception_4e/5x5 (in-place)
I0816 01:53:51.395822     6 net.cpp:120] Setting up inception_4e/relu_5x5
I0816 01:53:51.395911     6 net.cpp:127] Top shape: 10 128 14 14 (250880)
I0816 01:53:51.395992     6 layer_factory.hpp:74] Creating layer inception_4e/pool
I0816 01:53:51.396072     6 net.cpp:90] Creating Layer inception_4e/pool
I0816 01:53:51.396137     6 net.cpp:410] inception_4e/pool <- inception_4d/output_inception_4d/output_0_split_3
I0816 01:53:51.396216     6 net.cpp:368] inception_4e/pool -> inception_4e/pool
I0816 01:53:51.396283     6 net.cpp:120] Setting up inception_4e/pool
I0816 01:53:51.396368     6 net.cpp:127] Top shape: 10 528 14 14 (1034880)
I0816 01:53:51.396464     6 layer_factory.hpp:74] Creating layer inception_4e/pool_proj
I0816 01:53:51.396558     6 net.cpp:90] Creating Layer inception_4e/pool_proj
I0816 01:53:51.396639     6 net.cpp:410] inception_4e/pool_proj <- inception_4e/pool
I0816 01:53:51.396723     6 net.cpp:368] inception_4e/pool_proj -> inception_4e/pool_proj
I0816 01:53:51.396803     6 net.cpp:120] Setting up inception_4e/pool_proj
I0816 01:53:51.397243     6 net.cpp:127] Top shape: 10 128 14 14 (250880)
I0816 01:53:51.397318     6 layer_factory.hpp:74] Creating layer inception_4e/relu_pool_proj
I0816 01:53:51.397399     6 net.cpp:90] Creating Layer inception_4e/relu_pool_proj
I0816 01:53:51.397483     6 net.cpp:410] inception_4e/relu_pool_proj <- inception_4e/pool_proj
I0816 01:53:51.397581     6 net.cpp:357] inception_4e/relu_pool_proj -> inception_4e/pool_proj (in-place)
I0816 01:53:51.397680     6 net.cpp:120] Setting up inception_4e/relu_pool_proj
I0816 01:53:51.397763     6 net.cpp:127] Top shape: 10 128 14 14 (250880)
I0816 01:53:51.397836     6 layer_factory.hpp:74] Creating layer inception_4e/output
I0816 01:53:51.397933     6 net.cpp:90] Creating Layer inception_4e/output
I0816 01:53:51.398020     6 net.cpp:410] inception_4e/output <- inception_4e/1x1
I0816 01:53:51.398108     6 net.cpp:410] inception_4e/output <- inception_4e/3x3
I0816 01:53:51.398197     6 net.cpp:410] inception_4e/output <- inception_4e/5x5
I0816 01:53:51.398283     6 net.cpp:410] inception_4e/output <- inception_4e/pool_proj
I0816 01:53:51.398385     6 net.cpp:368] inception_4e/output -> inception_4e/output
I0816 01:53:51.398519     6 net.cpp:120] Setting up inception_4e/output
I0816 01:53:51.398596     6 net.cpp:127] Top shape: 10 832 14 14 (1630720)
I0816 01:53:51.398715     6 layer_factory.hpp:74] Creating layer pool4/3x3_s2
I0816 01:53:51.398871     6 net.cpp:90] Creating Layer pool4/3x3_s2
I0816 01:53:51.399054     6 net.cpp:410] pool4/3x3_s2 <- inception_4e/output
I0816 01:53:51.399180     6 net.cpp:368] pool4/3x3_s2 -> pool4/3x3_s2
I0816 01:53:51.399732     6 net.cpp:120] Setting up pool4/3x3_s2
I0816 01:53:51.399907     6 net.cpp:127] Top shape: 10 832 7 7 (407680)
I0816 01:53:51.400020     6 layer_factory.hpp:74] Creating layer pool4/3x3_s2_pool4/3x3_s2_0_split
I0816 01:53:51.400135     6 net.cpp:90] Creating Layer pool4/3x3_s2_pool4/3x3_s2_0_split
I0816 01:53:51.400241     6 net.cpp:410] pool4/3x3_s2_pool4/3x3_s2_0_split <- pool4/3x3_s2
I0816 01:53:51.400331     6 net.cpp:368] pool4/3x3_s2_pool4/3x3_s2_0_split -> pool4/3x3_s2_pool4/3x3_s2_0_split_0
I0816 01:53:51.400424     6 net.cpp:368] pool4/3x3_s2_pool4/3x3_s2_0_split -> pool4/3x3_s2_pool4/3x3_s2_0_split_1
I0816 01:53:51.400528     6 net.cpp:368] pool4/3x3_s2_pool4/3x3_s2_0_split -> pool4/3x3_s2_pool4/3x3_s2_0_split_2
I0816 01:53:51.400599     6 net.cpp:368] pool4/3x3_s2_pool4/3x3_s2_0_split -> pool4/3x3_s2_pool4/3x3_s2_0_split_3
I0816 01:53:51.400671     6 net.cpp:120] Setting up pool4/3x3_s2_pool4/3x3_s2_0_split
I0816 01:53:51.400830     6 net.cpp:127] Top shape: 10 832 7 7 (407680)
I0816 01:53:51.400923     6 net.cpp:127] Top shape: 10 832 7 7 (407680)
I0816 01:53:51.401068     6 net.cpp:127] Top shape: 10 832 7 7 (407680)
I0816 01:53:51.401160     6 net.cpp:127] Top shape: 10 832 7 7 (407680)
I0816 01:53:51.401239     6 layer_factory.hpp:74] Creating layer inception_5a/1x1
I0816 01:53:51.401345     6 net.cpp:90] Creating Layer inception_5a/1x1
I0816 01:53:51.401425     6 net.cpp:410] inception_5a/1x1 <- pool4/3x3_s2_pool4/3x3_s2_0_split_0
I0816 01:53:51.401510     6 net.cpp:368] inception_5a/1x1 -> inception_5a/1x1
I0816 01:53:51.401593     6 net.cpp:120] Setting up inception_5a/1x1
I0816 01:53:51.402793     6 net.cpp:127] Top shape: 10 256 7 7 (125440)
I0816 01:53:51.402880     6 layer_factory.hpp:74] Creating layer inception_5a/relu_1x1
I0816 01:53:51.402967     6 net.cpp:90] Creating Layer inception_5a/relu_1x1
I0816 01:53:51.403061     6 net.cpp:410] inception_5a/relu_1x1 <- inception_5a/1x1
I0816 01:53:51.403148     6 net.cpp:357] inception_5a/relu_1x1 -> inception_5a/1x1 (in-place)
I0816 01:53:51.403215     6 net.cpp:120] Setting up inception_5a/relu_1x1
I0816 01:53:51.403281     6 net.cpp:127] Top shape: 10 256 7 7 (125440)
I0816 01:53:51.403357     6 layer_factory.hpp:74] Creating layer inception_5a/3x3_reduce
I0816 01:53:51.403421     6 net.cpp:90] Creating Layer inception_5a/3x3_reduce
I0816 01:53:51.403520     6 net.cpp:410] inception_5a/3x3_reduce <- pool4/3x3_s2_pool4/3x3_s2_0_split_1
I0816 01:53:51.403616     6 net.cpp:368] inception_5a/3x3_reduce -> inception_5a/3x3_reduce
I0816 01:53:51.403700     6 net.cpp:120] Setting up inception_5a/3x3_reduce
I0816 01:53:51.404464     6 net.cpp:127] Top shape: 10 160 7 7 (78400)
I0816 01:53:51.404546     6 layer_factory.hpp:74] Creating layer inception_5a/relu_3x3_reduce
I0816 01:53:51.404645     6 net.cpp:90] Creating Layer inception_5a/relu_3x3_reduce
I0816 01:53:51.404747     6 net.cpp:410] inception_5a/relu_3x3_reduce <- inception_5a/3x3_reduce
I0816 01:53:51.404872     6 net.cpp:357] inception_5a/relu_3x3_reduce -> inception_5a/3x3_reduce (in-place)
I0816 01:53:51.404974     6 net.cpp:120] Setting up inception_5a/relu_3x3_reduce
I0816 01:53:51.405061     6 net.cpp:127] Top shape: 10 160 7 7 (78400)
I0816 01:53:51.405154     6 layer_factory.hpp:74] Creating layer inception_5a/3x3
I0816 01:53:51.405251     6 net.cpp:90] Creating Layer inception_5a/3x3
I0816 01:53:51.405344     6 net.cpp:410] inception_5a/3x3 <- inception_5a/3x3_reduce
I0816 01:53:51.405480     6 net.cpp:368] inception_5a/3x3 -> inception_5a/3x3
I0816 01:53:51.405596     6 net.cpp:120] Setting up inception_5a/3x3
I0816 01:53:51.408372     6 net.cpp:127] Top shape: 10 320 7 7 (156800)
I0816 01:53:51.408671     6 layer_factory.hpp:74] Creating layer inception_5a/relu_3x3
I0816 01:53:51.408833     6 net.cpp:90] Creating Layer inception_5a/relu_3x3
I0816 01:53:51.408965     6 net.cpp:410] inception_5a/relu_3x3 <- inception_5a/3x3
I0816 01:53:51.409147     6 net.cpp:357] inception_5a/relu_3x3 -> inception_5a/3x3 (in-place)
I0816 01:53:51.409260     6 net.cpp:120] Setting up inception_5a/relu_3x3
I0816 01:53:51.409438     6 net.cpp:127] Top shape: 10 320 7 7 (156800)
I0816 01:53:51.409523     6 layer_factory.hpp:74] Creating layer inception_5a/5x5_reduce
I0816 01:53:51.409665     6 net.cpp:90] Creating Layer inception_5a/5x5_reduce
I0816 01:53:51.409864     6 net.cpp:410] inception_5a/5x5_reduce <- pool4/3x3_s2_pool4/3x3_s2_0_split_2
I0816 01:53:51.409981     6 net.cpp:368] inception_5a/5x5_reduce -> inception_5a/5x5_reduce
I0816 01:53:51.410176     6 net.cpp:120] Setting up inception_5a/5x5_reduce
I0816 01:53:51.410434     6 net.cpp:127] Top shape: 10 32 7 7 (15680)
I0816 01:53:51.410538     6 layer_factory.hpp:74] Creating layer inception_5a/relu_5x5_reduce
I0816 01:53:51.410668     6 net.cpp:90] Creating Layer inception_5a/relu_5x5_reduce
I0816 01:53:51.410753     6 net.cpp:410] inception_5a/relu_5x5_reduce <- inception_5a/5x5_reduce
I0816 01:53:51.410861     6 net.cpp:357] inception_5a/relu_5x5_reduce -> inception_5a/5x5_reduce (in-place)
I0816 01:53:51.410991     6 net.cpp:120] Setting up inception_5a/relu_5x5_reduce
I0816 01:53:51.411100     6 net.cpp:127] Top shape: 10 32 7 7 (15680)
I0816 01:53:51.411216     6 layer_factory.hpp:74] Creating layer inception_5a/5x5
I0816 01:53:51.411356     6 net.cpp:90] Creating Layer inception_5a/5x5
I0816 01:53:51.411509     6 net.cpp:410] inception_5a/5x5 <- inception_5a/5x5_reduce
I0816 01:53:51.411602     6 net.cpp:368] inception_5a/5x5 -> inception_5a/5x5
I0816 01:53:51.411686     6 net.cpp:120] Setting up inception_5a/5x5
I0816 01:53:51.412310     6 net.cpp:127] Top shape: 10 128 7 7 (62720)
I0816 01:53:51.412405     6 layer_factory.hpp:74] Creating layer inception_5a/relu_5x5
I0816 01:53:51.412499     6 net.cpp:90] Creating Layer inception_5a/relu_5x5
I0816 01:53:51.412569     6 net.cpp:410] inception_5a/relu_5x5 <- inception_5a/5x5
I0816 01:53:51.412647     6 net.cpp:357] inception_5a/relu_5x5 -> inception_5a/5x5 (in-place)
I0816 01:53:51.412737     6 net.cpp:120] Setting up inception_5a/relu_5x5
I0816 01:53:51.412806     6 net.cpp:127] Top shape: 10 128 7 7 (62720)
I0816 01:53:51.412868     6 layer_factory.hpp:74] Creating layer inception_5a/pool
I0816 01:53:51.412986     6 net.cpp:90] Creating Layer inception_5a/pool
I0816 01:53:51.413084     6 net.cpp:410] inception_5a/pool <- pool4/3x3_s2_pool4/3x3_s2_0_split_3
I0816 01:53:51.413175     6 net.cpp:368] inception_5a/pool -> inception_5a/pool
I0816 01:53:51.413260     6 net.cpp:120] Setting up inception_5a/pool
I0816 01:53:51.413346     6 net.cpp:127] Top shape: 10 832 7 7 (407680)
I0816 01:53:51.413424     6 layer_factory.hpp:74] Creating layer inception_5a/pool_proj
I0816 01:53:51.413503     6 net.cpp:90] Creating Layer inception_5a/pool_proj
I0816 01:53:51.413581     6 net.cpp:410] inception_5a/pool_proj <- inception_5a/pool
I0816 01:53:51.413674     6 net.cpp:368] inception_5a/pool_proj -> inception_5a/pool_proj
I0816 01:53:51.413758     6 net.cpp:120] Setting up inception_5a/pool_proj
I0816 01:53:51.414451     6 net.cpp:127] Top shape: 10 128 7 7 (62720)
I0816 01:53:51.414556     6 layer_factory.hpp:74] Creating layer inception_5a/relu_pool_proj
I0816 01:53:51.414613     6 net.cpp:90] Creating Layer inception_5a/relu_pool_proj
I0816 01:53:51.414667     6 net.cpp:410] inception_5a/relu_pool_proj <- inception_5a/pool_proj
I0816 01:53:51.414763     6 net.cpp:357] inception_5a/relu_pool_proj -> inception_5a/pool_proj (in-place)
I0816 01:53:51.414837     6 net.cpp:120] Setting up inception_5a/relu_pool_proj
I0816 01:53:51.414922     6 net.cpp:127] Top shape: 10 128 7 7 (62720)
I0816 01:53:51.415006     6 layer_factory.hpp:74] Creating layer inception_5a/output
I0816 01:53:51.415087     6 net.cpp:90] Creating Layer inception_5a/output
I0816 01:53:51.415179     6 net.cpp:410] inception_5a/output <- inception_5a/1x1
I0816 01:53:51.415277     6 net.cpp:410] inception_5a/output <- inception_5a/3x3
I0816 01:53:51.415421     6 net.cpp:410] inception_5a/output <- inception_5a/5x5
I0816 01:53:51.415523     6 net.cpp:410] inception_5a/output <- inception_5a/pool_proj
I0816 01:53:51.415621     6 net.cpp:368] inception_5a/output -> inception_5a/output
I0816 01:53:51.415727     6 net.cpp:120] Setting up inception_5a/output
I0816 01:53:51.415866     6 net.cpp:127] Top shape: 10 832 7 7 (407680)
I0816 01:53:51.416019     6 layer_factory.hpp:74] Creating layer inception_5a/output_inception_5a/output_0_split
I0816 01:53:51.416199     6 net.cpp:90] Creating Layer inception_5a/output_inception_5a/output_0_split
I0816 01:53:51.416329     6 net.cpp:410] inception_5a/output_inception_5a/output_0_split <- inception_5a/output
I0816 01:53:51.416429     6 net.cpp:368] inception_5a/output_inception_5a/output_0_split -> inception_5a/output_inception_5a/output_0_split_0
I0816 01:53:51.416528     6 net.cpp:368] inception_5a/output_inception_5a/output_0_split -> inception_5a/output_inception_5a/output_0_split_1
I0816 01:53:51.416621     6 net.cpp:368] inception_5a/output_inception_5a/output_0_split -> inception_5a/output_inception_5a/output_0_split_2
I0816 01:53:51.416760     6 net.cpp:368] inception_5a/output_inception_5a/output_0_split -> inception_5a/output_inception_5a/output_0_split_3
I0816 01:53:51.416853     6 net.cpp:120] Setting up inception_5a/output_inception_5a/output_0_split
I0816 01:53:51.416935     6 net.cpp:127] Top shape: 10 832 7 7 (407680)
I0816 01:53:51.417013     6 net.cpp:127] Top shape: 10 832 7 7 (407680)
I0816 01:53:51.417088     6 net.cpp:127] Top shape: 10 832 7 7 (407680)
I0816 01:53:51.417165     6 net.cpp:127] Top shape: 10 832 7 7 (407680)
I0816 01:53:51.417239     6 layer_factory.hpp:74] Creating layer inception_5b/1x1
I0816 01:53:51.417318     6 net.cpp:90] Creating Layer inception_5b/1x1
I0816 01:53:51.417394     6 net.cpp:410] inception_5b/1x1 <- inception_5a/output_inception_5a/output_0_split_0
I0816 01:53:51.417475     6 net.cpp:368] inception_5b/1x1 -> inception_5b/1x1
I0816 01:53:51.417556     6 net.cpp:120] Setting up inception_5b/1x1
I0816 01:53:51.419363     6 net.cpp:127] Top shape: 10 384 7 7 (188160)
I0816 01:53:51.419483     6 layer_factory.hpp:74] Creating layer inception_5b/relu_1x1
I0816 01:53:51.419601     6 net.cpp:90] Creating Layer inception_5b/relu_1x1
I0816 01:53:51.419728     6 net.cpp:410] inception_5b/relu_1x1 <- inception_5b/1x1
I0816 01:53:51.419828     6 net.cpp:357] inception_5b/relu_1x1 -> inception_5b/1x1 (in-place)
I0816 01:53:51.419915     6 net.cpp:120] Setting up inception_5b/relu_1x1
I0816 01:53:51.419994     6 net.cpp:127] Top shape: 10 384 7 7 (188160)
I0816 01:53:51.420069     6 layer_factory.hpp:74] Creating layer inception_5b/3x3_reduce
I0816 01:53:51.420151     6 net.cpp:90] Creating Layer inception_5b/3x3_reduce
I0816 01:53:51.420227     6 net.cpp:410] inception_5b/3x3_reduce <- inception_5a/output_inception_5a/output_0_split_1
I0816 01:53:51.420305     6 net.cpp:368] inception_5b/3x3_reduce -> inception_5b/3x3_reduce
I0816 01:53:51.420383     6 net.cpp:120] Setting up inception_5b/3x3_reduce
I0816 01:53:51.421320     6 net.cpp:127] Top shape: 10 192 7 7 (94080)
I0816 01:53:51.421474     6 layer_factory.hpp:74] Creating layer inception_5b/relu_3x3_reduce
I0816 01:53:51.421625     6 net.cpp:90] Creating Layer inception_5b/relu_3x3_reduce
I0816 01:53:51.421788     6 net.cpp:410] inception_5b/relu_3x3_reduce <- inception_5b/3x3_reduce
I0816 01:53:51.421931     6 net.cpp:357] inception_5b/relu_3x3_reduce -> inception_5b/3x3_reduce (in-place)
I0816 01:53:51.422080     6 net.cpp:120] Setting up inception_5b/relu_3x3_reduce
I0816 01:53:51.422219     6 net.cpp:127] Top shape: 10 192 7 7 (94080)
I0816 01:53:51.422379     6 layer_factory.hpp:74] Creating layer inception_5b/3x3
I0816 01:53:51.422547     6 net.cpp:90] Creating Layer inception_5b/3x3
I0816 01:53:51.422713     6 net.cpp:410] inception_5b/3x3 <- inception_5b/3x3_reduce
I0816 01:53:51.422890     6 net.cpp:368] inception_5b/3x3 -> inception_5b/3x3
I0816 01:53:51.423017     6 net.cpp:120] Setting up inception_5b/3x3
I0816 01:53:51.429263     6 net.cpp:127] Top shape: 10 384 7 7 (188160)
I0816 01:53:51.429529     6 layer_factory.hpp:74] Creating layer inception_5b/relu_3x3
I0816 01:53:51.429707     6 net.cpp:90] Creating Layer inception_5b/relu_3x3
I0816 01:53:51.429847     6 net.cpp:410] inception_5b/relu_3x3 <- inception_5b/3x3
I0816 01:53:51.430001     6 net.cpp:357] inception_5b/relu_3x3 -> inception_5b/3x3 (in-place)
I0816 01:53:51.430146     6 net.cpp:120] Setting up inception_5b/relu_3x3
I0816 01:53:51.430295     6 net.cpp:127] Top shape: 10 384 7 7 (188160)
I0816 01:53:51.430424     6 layer_factory.hpp:74] Creating layer inception_5b/5x5_reduce
I0816 01:53:51.430583     6 net.cpp:90] Creating Layer inception_5b/5x5_reduce
I0816 01:53:51.430723     6 net.cpp:410] inception_5b/5x5_reduce <- inception_5a/output_inception_5a/output_0_split_2
I0816 01:53:51.430876     6 net.cpp:368] inception_5b/5x5_reduce -> inception_5b/5x5_reduce
I0816 01:53:51.431035     6 net.cpp:120] Setting up inception_5b/5x5_reduce
I0816 01:53:51.431505     6 net.cpp:127] Top shape: 10 48 7 7 (23520)
I0816 01:53:51.431768     6 layer_factory.hpp:74] Creating layer inception_5b/relu_5x5_reduce
I0816 01:53:51.431928     6 net.cpp:90] Creating Layer inception_5b/relu_5x5_reduce
I0816 01:53:51.432104     6 net.cpp:410] inception_5b/relu_5x5_reduce <- inception_5b/5x5_reduce
I0816 01:53:51.432307     6 net.cpp:357] inception_5b/relu_5x5_reduce -> inception_5b/5x5_reduce (in-place)
I0816 01:53:51.432451     6 net.cpp:120] Setting up inception_5b/relu_5x5_reduce
I0816 01:53:51.432595     6 net.cpp:127] Top shape: 10 48 7 7 (23520)
I0816 01:53:51.432772     6 layer_factory.hpp:74] Creating layer inception_5b/5x5
I0816 01:53:51.432942     6 net.cpp:90] Creating Layer inception_5b/5x5
I0816 01:53:51.433092     6 net.cpp:410] inception_5b/5x5 <- inception_5b/5x5_reduce
I0816 01:53:51.433235     6 net.cpp:368] inception_5b/5x5 -> inception_5b/5x5
I0816 01:53:51.433419     6 net.cpp:120] Setting up inception_5b/5x5
I0816 01:53:51.434808     6 net.cpp:127] Top shape: 10 128 7 7 (62720)
I0816 01:53:51.434952     6 layer_factory.hpp:74] Creating layer inception_5b/relu_5x5
I0816 01:53:51.435154     6 net.cpp:90] Creating Layer inception_5b/relu_5x5
I0816 01:53:51.435386     6 net.cpp:410] inception_5b/relu_5x5 <- inception_5b/5x5
I0816 01:53:51.436049     6 net.cpp:357] inception_5b/relu_5x5 -> inception_5b/5x5 (in-place)
I0816 01:53:51.436704     6 net.cpp:120] Setting up inception_5b/relu_5x5
I0816 01:53:51.437330     6 net.cpp:127] Top shape: 10 128 7 7 (62720)
I0816 01:53:51.437482     6 layer_factory.hpp:74] Creating layer inception_5b/pool
I0816 01:53:51.437623     6 net.cpp:90] Creating Layer inception_5b/pool
I0816 01:53:51.437743     6 net.cpp:410] inception_5b/pool <- inception_5a/output_inception_5a/output_0_split_3
I0816 01:53:51.437866     6 net.cpp:368] inception_5b/pool -> inception_5b/pool
I0816 01:53:51.438015     6 net.cpp:120] Setting up inception_5b/pool
I0816 01:53:51.438148     6 net.cpp:127] Top shape: 10 832 7 7 (407680)
I0816 01:53:51.438280     6 layer_factory.hpp:74] Creating layer inception_5b/pool_proj
I0816 01:53:51.438434     6 net.cpp:90] Creating Layer inception_5b/pool_proj
I0816 01:53:51.438575     6 net.cpp:410] inception_5b/pool_proj <- inception_5b/pool
I0816 01:53:51.438720     6 net.cpp:368] inception_5b/pool_proj -> inception_5b/pool_proj
I0816 01:53:51.438850     6 net.cpp:120] Setting up inception_5b/pool_proj
I0816 01:53:51.440006     6 net.cpp:127] Top shape: 10 128 7 7 (62720)
I0816 01:53:51.440587     6 layer_factory.hpp:74] Creating layer inception_5b/relu_pool_proj
I0816 01:53:51.440917     6 net.cpp:90] Creating Layer inception_5b/relu_pool_proj
I0816 01:53:51.441246     6 net.cpp:410] inception_5b/relu_pool_proj <- inception_5b/pool_proj
I0816 01:53:51.441472     6 net.cpp:357] inception_5b/relu_pool_proj -> inception_5b/pool_proj (in-place)
I0816 01:53:51.441640     6 net.cpp:120] Setting up inception_5b/relu_pool_proj
I0816 01:53:51.441781     6 net.cpp:127] Top shape: 10 128 7 7 (62720)
I0816 01:53:51.441956     6 layer_factory.hpp:74] Creating layer inception_5b/output
I0816 01:53:51.442108     6 net.cpp:90] Creating Layer inception_5b/output
I0816 01:53:51.442227     6 net.cpp:410] inception_5b/output <- inception_5b/1x1
I0816 01:53:51.442355     6 net.cpp:410] inception_5b/output <- inception_5b/3x3
I0816 01:53:51.442548     6 net.cpp:410] inception_5b/output <- inception_5b/5x5
I0816 01:53:51.442698     6 net.cpp:410] inception_5b/output <- inception_5b/pool_proj
I0816 01:53:51.442837     6 net.cpp:368] inception_5b/output -> inception_5b/output
I0816 01:53:51.442957     6 net.cpp:120] Setting up inception_5b/output
I0816 01:53:51.443074     6 net.cpp:127] Top shape: 10 1024 7 7 (501760)
I0816 01:53:51.443225     6 layer_factory.hpp:74] Creating layer pool5/7x7_s1
I0816 01:53:51.443369     6 net.cpp:90] Creating Layer pool5/7x7_s1
I0816 01:53:51.443471     6 net.cpp:410] pool5/7x7_s1 <- inception_5b/output
I0816 01:53:51.443583     6 net.cpp:368] pool5/7x7_s1 -> pool5/7x7_s1
I0816 01:53:51.443688     6 net.cpp:120] Setting up pool5/7x7_s1
I0816 01:53:51.443799     6 net.cpp:127] Top shape: 10 1024 1 1 (10240)
I0816 01:53:51.443897     6 layer_factory.hpp:74] Creating layer pool5/drop_7x7_s1
I0816 01:53:51.444028     6 net.cpp:90] Creating Layer pool5/drop_7x7_s1
I0816 01:53:51.444134     6 net.cpp:410] pool5/drop_7x7_s1 <- pool5/7x7_s1
I0816 01:53:51.444242     6 net.cpp:357] pool5/drop_7x7_s1 -> pool5/7x7_s1 (in-place)
I0816 01:53:51.444346     6 net.cpp:120] Setting up pool5/drop_7x7_s1
I0816 01:53:51.444459     6 net.cpp:127] Top shape: 10 1024 1 1 (10240)
I0816 01:53:51.444587     6 layer_factory.hpp:74] Creating layer loss3/classifier
I0816 01:53:51.444749     6 net.cpp:90] Creating Layer loss3/classifier
I0816 01:53:51.444861     6 net.cpp:410] loss3/classifier <- pool5/7x7_s1
I0816 01:53:51.444994     6 net.cpp:368] loss3/classifier -> loss3/classifier
I0816 01:53:51.445108     6 net.cpp:120] Setting up loss3/classifier
I0816 01:53:51.451180     6 net.cpp:127] Top shape: 10 1000 (10000)
I0816 01:53:51.451424     6 layer_factory.hpp:74] Creating layer prob
I0816 01:53:51.451619     6 net.cpp:90] Creating Layer prob
I0816 01:53:51.451778     6 net.cpp:410] prob <- loss3/classifier
I0816 01:53:51.451937     6 net.cpp:368] prob -> prob
I0816 01:53:51.452124     6 net.cpp:120] Setting up prob
I0816 01:53:51.452340     6 net.cpp:127] Top shape: 10 1000 (10000)
I0816 01:53:51.452497     6 net.cpp:194] prob does not need backward computation.
I0816 01:53:51.452649     6 net.cpp:194] loss3/classifier does not need backward computation.
I0816 01:53:51.452814     6 net.cpp:194] pool5/drop_7x7_s1 does not need backward computation.
I0816 01:53:51.452968     6 net.cpp:194] pool5/7x7_s1 does not need backward computation.
I0816 01:53:51.453150     6 net.cpp:194] inception_5b/output does not need backward computation.
…
